chaoyang_0.pth (torch, 588587 bytes, 10 tensors)

weight f4 [32, 3, 5, 5]
-0.034661148 0.13058743 0.10854575 0.06349652 0.07135934 -0.082528785 0.08810742 0.016214173
0.124089904 0.021257285 0.12030764 0.11828639 0.04013556 0.045594275 -0.0710051 0.054591298
0.074897975 0.04767346 0.02732548 0.10241621 0.07486285 -0.055857223 0.06704109 0.096008286
-0.03318573 0.10345196 -0.05374182 0.024984159 -0.062794924 -0.060326617 0.090851635 0.0099713225
-0.03419161 -0.052614093 0.07412709 0.11502552 0.056039084 0.05837446 0.027042508 0.02132912
-0.0015899685 -0.030905832 0.121908866 -0.037809245 -0.06471921 0.07037844 0.035867814 0.07819175
-0.044669256 0.08774318 0.060128942 -0.008233137 -0.002954572 -0.008897342 -0.06714226 0.009889472
-0.045965023 -0.117965005 0.008780046 -0.059915394 0.0059476495 0.061625637 -0.11032695 -0.038919013
0.09211105 0.051901948 0.07058177 0.02733068 -0.030190269 0.0063249986 -0.09835867 0.069665216
-0.009523261 -0.020872645 -0.060327865 0.0016654697 -0.01999707 0.003853112 0.04339767 0.004305219
-0.017387798 -0.0979508 0.094818786 -0.076673806 0.042354584 -0.10841825 0.10277521 -0.051020175
0.010479564 0.0025359094 0.017271392 0.07206737 0.08586817 0.06069139 0.10900368 -0.10905911
0.07213575 0.018525835 0.012256889 0.10625611 -0.055637408 -0.027844956 0.0019184275 0.08033564
0.063811466 0.05292122 0.03660669 -0.09735093 -0.048721038 0.055371094 -0.04933036 0.110838406
-0.10269685 0.061707366 0.070788115 -0.0071834987 0.114054896 0.08140731 0.08300685 0.075454764
0.059977375 -0.049643263 0.035978593 -0.098514736 0.10188011 -0.00758429 -0.033184327 0.01541678
-0.041316062 -0.021259727 0.106772535 0.086010054 0.059639685 0.044479582 0.11833957 0.109014325
0.046553206 0.082531996 0.051464044 0.057622172 0.115521 0.024872603 0.11545778 -0.07186017
0.03725396 -0.10228069 0.10630873 0.077664934 0.07228936 0.015833875 0.09095453 -0.0669722
0.08922966 0.0481432 -0.11564327 -0.08671181 0.023394192 0.01744942 -0.049869895 -0.11325808
0.057944227 0.037986167 0.07709146 0.052373484 0.08782648 0.077575624 0.056297407 -0.031397384
0.09021909 -0.025592098 -0.083440006 0.0852938 -0.051825803 0.020483976 0.06100763 0.10968735
0.017514845 -0.07112488 0.043193515 -0.08269617 -0.015822316 0.011443128 -0.0769453 0.10533427
0.019267842 -0.010325179 -0.042388167 0.110567875 -0.026023487 -0.04223248 -0.088227555 -0.035294503
-0.066759706 0.00080353813 0.08328711 -0.053671066 0.0026609998 0.028538903 -0.03505586 -0.0064625144
-0.06010959 -0.07755863 0.06514912 0.086483635 -0.011474585 0.053306926 -0.0403721 0.08022325
-0.054105237 0.024514 0.0957627 -0.041817058 0.09883263 -0.076881304 -0.10252481 -0.090481184
0.020005375 0.032207236 -0.02052126 0.11071428 0.031895597 -0.013895943 0.04757779 0.015141074
0.029403416 -0.044059318 -0.009841337 0.014798084 -0.10262359 -0.032845397 0.07072456 0.020123826
-0.06507513 -0.09007309 0.05314148 0.02722393 0.03353373 0.03735085 -0.014082743 0.024287062
-0.058137365 -0.03640292 -0.116335236 -0.11639789 -0.061722875 -0.112331234 -0.0071490915 -0.09275788
0.06377256 -0.04710106 0.10103698 0.0021649736 0.105787165 -0.012286854 -0.0060431794 0.086231865
00000000: d9f8 0dbd b6b8 053e 3c4d de3d 770a 823d
00000010: d824 923d da04 a9bd aa71 b43d 96d3 843c
00000020: d922 fe3d c223 ae3c da63 f63d 2340 f23d
00000030: 2f65 243d 10c1 3a3d 1f6b 91bd 209b 5f3d
00000040: 1c64 993d 3f45 433d afd9 df3c 97bf d13d
00000050: b251 993d 8bca 64bd d74c 893d fe9f c43d
00000060: c3ed 07bd 9fde d33d 6220 5cbd 94ab cc3c
00000070: a09a 80bd 0b19 77bd 6c10 ba3d c25e 233c
00000080: 800c 0cbd e081 57bd f2cf 973d 8092 eb3d
00000090: 3d89 653d 0f1a 6f3d 4088 dd3c 68ba ae3c
000000a0: 7d66 d0ba 3a2e fdbc 5bab f93d dedd 1abd
000000b0: 818b 84bd 9222 903d 21ea 123d ff22 a03d
000000c0: 1cf7 36bd b2b2 b33d c449 763d 48e4 06bc
000000d0: 7ea1 41bb 28c6 11bc e281 89bd 7407 223c
000000e0: d245 3cbd a397 f1bd 2fda 0f3c d869 75bd
000000f0: 80e4 c23b 2a6b 7c3d 19f3 e1bd 8b69 1fbd
00000100: b8a4 bc3d 2397 543d 2d8d 903d 97e4 df3c
00000110: 9551 f7bc ef41 cf3b 4570 c9bd a3ac 8e3d
00000120: 7407 1cbc 1cfd aabc 5a1a 77bd e44b da3a
00000130: e5d0 a3bc 7e84 7c3b c1c1 313d cb12 8d3b
00000140: db70 8ebc 6e9a c8bd 5a30 c23d 2807 9dbd
00000150: 007c 2d3d 630a debd cf7b d23d 88fa 50bd
00000160: 7ab2 2b3c 8031 263b bc7c 8d3c 0f98 933d
00000170: a7db af3d 8997 783d 523d df3d 625a dfbd
00000180: e8bb 933d 7ec3 973c 1ed1 483c ce9c d93d
00000190: 0de4 63bd 1b1b e4bc bf73 fb3a 0387 a43d
000001a0: 96af 823d ecc3 583d e6f0 153d ed5f c7bd
000001b0: b68f 47bd cdcc 623d a20e 4abd 3fff e23d
000001c0: ba52 d2bd ddc0 7c3d 5cf9 903d 8e63 ebbb
000001d0: 9d95 e93d e0b8 a63d 7fff a93d 0788 9a3d
000001e0: d6aa 753d bc56 4bbd 4a5e 133d 18c2 c9bd
000001f0: 85a6 d03d a385 f8bb 4aec 07bd a996 7c3c
00000200: 083b 29bd e128 aebc 8fab da3d 0a26 b03d
00000210: be48 743d 3930 363d 045c f23d e742 df3d
00000220: 93ae 3e3d 8906 a93d f6cb 523d 3a05 6c3d
00000230: 4696 ec3d a1c1 cb3c 2175 ec3d 6d2b 93bd
00000240: 9c97 183d 8a78 d1bd 64b8 d93d cb0e 9f3d
00000250: 720c 943d 0bb6 813c 5e46 ba3d b928 89bd
00000260: 0abe b63d ce31 453d 61d6 ecbd f695 b1bd
00000270: 2da5 bf3c 16f2 8e3c 6044 4cbd daf3 e7bd
00000280: ed56 6d3d 6297 1b3d 21e2 9d3d 9485 563d
00000290: 5fde b33d f8df 9e3d 1c98 663d 8b9a 00bd
000002a0: c9c4 b83d 85a6 d1bc 98e2 aabd 84ae ae3d
000002b0: 4b47 54bd 03ce a73c 23e3 793d c3a3 e03d
000002c0: 4b7b 8f3c eca9 91bd afeb 303d 9c5c a9bd
000002d0: cd9d 81bc f57b 3b3c 7f95 9dbd 7eb9 d73d
000002e0: 98d7 9d3c f12a 29bc 379f 2dbd 6971 e23d
000002f0: 352f d5bc f7fb 2cbd a6b0 b4bd f890 10bd
00000300: 50b9 88bd 88a4 523a 6f92 aa3d 31d6 5bbd
00000310: 2b64 2e3b 6bca e93c bc96 0fbd 80c3 d3bb
00000320: 7935 76bd 0fd7 9ebd e76c 853d 551e b13d
00000330: e6ff 3bbc 5d58 5a3d 375d 25bd 164c a43d
00000340: 749d 5dbd 96d1 c83c 3c1f c43d 5d48 2bbd
00000350: c368 ca3d f273 9dbd 87f8 d1bd 334e b9bd
00000360: 50e2 a33c bceb 033d 341c a8bc 2bbe e23d
00000370: f5a4 023d cfab 63bc eee0 423d 4412 783c
00000380: 6fdf f03c 8b77 34bd 8f3d 21bc aa73 723c
00000390: 512c d2bd e588 06bd 0ad8 903d b9da a43c
000003a0: 1c46 85bd 3d78 b8bd e1aa 593d b804 df3c
000003b0: aa5a 093d 34fd 183d 4ebb 66bc a9f5 c63c
000003c0: 7221 6ebd 3a1b 15bd 2b41 eebd 0462 eebd
000003d0: 20d1 7cbd eb0d e6bd ed42 eabb d8f7 bdbd
000003e0: 309b 823d 0bed 40bd 7aec ce3d 3be2 0d3b
000003f0: f1a6 d83d cd4e 49bc dd05 c6bb 559a b03d

bias f4 [32]
0.05024936 -0.008070418 -0.028258024 -0.031847183 -0.06924725 0.07739202 -0.11184071 -0.095522806
0.07138241 -0.03036739 0.08386899 -0.06827245 0.13175955 0.05241733 -0.069434114 0.06376551
-0.04599416 -0.07329527 0.08788564 0.040342074 -0.08001006 -0.10064603 0.057697285 0.06735944
0.11009022 -0.038618606 -0.00675687 0.11671987 -0.0986381 0.038823638 -0.047246784 0.002645005
00000000: 46d2 4d3d c939 04bc 5f7d e7bc 3172 02bd
00000010: 81d1 8dbd b57f 9e3d be0c e5bd 76a1 c3bd
00000020: f130 923d 08c5 f8bc 81c3 ab3d 6dd2 8bbd
00000030: faeb 063e 8eb3 563d 7933 8ebd 7e97 823d
00000040: 5f64 3cbd d51b 96bd 63fd b33d bb3d 253d
00000050: 50dc a3bd 811f cebd fd53 6c3d bff3 893d
00000060: fb76 e13d 8b2e 1ebd bc68 ddbb d40a ef3d
00000070: c602 cabd 8905 1f3d d885 41bd d257 2d3b

weight f4 [32, 32, 5, 5]
-0.0399246 -0.02763492 -0.010385861 0.023687806 -0.030290585 -0.03333183 -0.036590643 -0.027519906
-0.013266171 -0.025017753 -0.024487302 0.009102591 -0.014441484 -0.0038093727 0.018883258 0.012817496
0.0033708732 -0.033871163 0.035833664 -0.027839994 0.024693515 0.010209726 -0.020501072 -0.029067304
-0.006715517 -0.016013157 0.0063717547 0.02747896 0.005274405 -0.00367127 0.009162464 -0.019728804
-0.019731365 -0.011469792 -0.015878048 0.02090425 0.003333204 0.03294821 0.0025174113 -0.002205009
0.0060903756 0.03279345 0.031177362 0.008687124 0.0077916603 -0.02030307 0.016875593 -0.023027582
0.027003244 0.034259446 0.0046658237 -0.029585002 0.024158731 0.0202851 -0.023444993 0.016950382
-0.011335777 -0.016769407 0.020436674 -0.023579579 0.020762512 -0.027906347 0.017789919 0.029810535
0.027404279 -0.009782002 -0.007792189 0.022924926 0.0011783916 -0.029916309 0.027785862 0.026623303
-0.02878828 0.028494665 -0.016518706 0.01793391 -0.015211196 -0.010892555 -0.014156912 -0.006183144
0.008328186 -0.008021941 0.0016832837 -0.029345572 0.0066763647 -0.01712376 -0.022013124 -0.015530547
0.014701475 -0.03508548 0.025620341 0.0083854515 -0.007769799 -0.0056287567 -0.03503529 0.013783828
-0.00021101601 0.011263756 -0.030739315 -0.014923085 0.02703065 0.012384149 -0.031129485 0.0018273201
-0.004805892 -0.01603179 -0.0017158223 -0.0055998648 0.008576716 0.025493333 -0.0337791 0.029826036
-0.02178199 0.03312065 -0.015956575 -0.008540716 -0.01114228 -0.029573288 -0.01573283 0.0108607495
0.03333341 -0.0009585477 0.023397982 0.033751734 -0.020385735 0.0259637 -0.011393738 -0.03477038
0.019834822 -0.011568062 0.0235361 -0.012902574 -0.02782012 -0.029867813 -0.014184723 0.025572214
-0.0016139541 -0.018015282 -0.010392974 0.033095963 -0.020058187 0.023496553 -0.023380963 0.03214398
0.02581705 -0.018396478 0.010550193 -0.013092782 -0.031932306 -0.024559377 -0.01832177 -0.009823055
-0.031189034 -0.035248008 0.017665168 0.00216948 -0.024455367 -0.029618131 0.026445411 0.00086243404
0.035241526 -0.005495525 0.022722356 0.013887017 0.003813603 -0.010202275 0.0047915913 -0.006706189
-0.017124591 0.02423635 -0.0148229245 -0.004902697 0.030685859 -0.00540348 0.020379463 -0.022090428
-0.0117592225 0.0022289588 0.020393686 0.014251563 0.034258436 0.040055554 -0.027885646 0.013258711
0.030363008 -0.01704836 0.033821587 -0.018447394 0.016956972 0.006287148 0.0046287784 -0.02823262
0.0005163523 -0.030338438 -0.03737667 -0.03206218 -0.030253995 -0.010993186 -0.022995712 -0.024543433
0.028124053 -0.024388257 -0.029884122 0.0167525 -0.00083412696 0.007444656 -0.0078108194 -0.018223224
0.017393816 -0.029496428 -0.0408922 0.018519867 -0.03678629 0.0009923577 0.005439302 -0.03309058
-0.029381448 -0.030216753 -0.0347389 -0.03829542 -0.022523679 -0.03467032 0.02977606 -0.021391265
-0.0028830327 0.023679385 -0.033667564 -0.022562718 -0.0064341766 -0.0229943 -0.0036014458 -0.0101390155
-0.005188887 -0.004727355 0.03224517 -0.013458203 0.025326477 -0.019453874 0.013876193 -0.0147559345
0.01987765 0.025577012 0.027789079 -0.016667487 -0.0045665903 0.02800309 -0.0006266659 -0.002878009
-0.032675453 -0.009667691 -0.014171593 0.027518302 -0.0151446145 0.006020504 0.0016350762 0.014261798
00000000: fa87 23bd a162 e2bc 7529 2abc ee0c c23c
00000010: f623 f8bc f586 08bd 12e0 15bd 6d71 e1bc
00000020: 5b5a 59bc 08f2 ccbc 9899 c8bc 0923 153c
00000030: f99b 6cbc aba6 79bb 10b1 9a3c 7a00 523c
00000040: dee9 5c3b 7dbc 0abd 52c6 123d b310 e4bc
00000050: 0e4a ca3c b246 273c ddf1 a7bc 8e1e eebc
00000060: d70d dcbb 062e 83bc 27ca d03b 8e1b e13c
00000070: ead4 ac3b b199 70bb 291e 163c 4d9e a1bc
00000080: aca3 a1bc cbeb 3bbc ae12 82bc 643f ab3c
00000090: e271 5a3b b4f4 063d 27fb 243b ea81 10bb
000000a0: c691 c73b 6d52 063d ab67 ff3c 7054 0e3c
000000b0: 2f51 ff3b a052 a6bc af3e 8a3c 57a4 bcbc
000000c0: e835 dd3c a253 0c3d c4e3 983b 3f5c f2bc
000000d0: 88e8 c53c f02c a63c b70f c0bc 87db 8a3c
000000e0: b2b9 39bc ff5f 89bc d06a a73c f629 c1bc
000000f0: 2516 aa3c da9b e4bc 2abc 913c 3935 f43c
00000100: f07e e03c b144 20bc 9e55 ffbb 0ecd bb3c
00000110: 4374 9a3a 0c13 f5bc 2d9f e33c 1d19 da3c
00000120: 66d5 ebbc a56d e93c 3d52 87bc 23ea 923c
00000130: 6138 79bc b076 32bc 65f2 67bc f99b cabb
00000140: f272 083c 766e 03bc a1a1 dc3a 2066 f0bc
00000150: 68c5 da3b 2147 8cbc de54 b4bc d673 7ebc
00000160: 75de 703c cbb5 0fbd c0e1 d13c 2263 093c
00000170: cc99 febb 6f71 b8bb 2a81 0fbd 91d5 613c
00000180: 2e44 5db9 9e8b 383c 04d1 fbbc f57f 74bc
00000190: 626f dd3c e3e6 4a3c 4303 ffbc b082 ef3a
000001a0: be7a 9dbb 1a55 83bc 71e5 e0ba 127f b7bb
000001b0: 5b85 0c3c 65d7 d03c f45b 0abd bb55 f43c
000001c0: 2570 b2bc 85a9 073d 5db7 82bc 5cee 0bbc
000001d0: 1c8e 36bc ae43 f2bc 23e2 80bc 49f1 313c
000001e0: 9d88 083d 0c47 7bba 20ad bf3c 423f 0a3d
000001f0: fcff a6bc d3b1 d43c cdac 3abc 636b 0ebd
00000200: a37c a23c f887 3dbc c7ce c03c 5165 53bc
00000210: 05e7 e3bc 58ad f4bc 0a67 68bc d27c d13c
00000220: 508b d3ba c994 93bc 4b47 2abc a28f 073d
00000230: 1151 a4bc d87b c03c 6f89 bfbc 68a9 033d
00000240: 477e d33c 36b4 96bc b7da 2c3c 1c83 56bc
00000250: 73cb 02bd bf30 c9bc 8917 96bc e1f0 20bc
00000260: 2580 ffbc 3760 10bd 8bb6 903c d62d 0e3b
00000270: 9f56 c8bc b9a1 f2bc 0ca4 d83c f814 623a
00000280: 6b59 103d ce13 b4bb 3c24 ba3c 5f86 633c
00000290: a4ed 793b 7127 27bc c802 9d3b 97bf dbbb
000002a0: df48 8cbc 4f8b c63c dadb 72bc cea6 a0bb
000002b0: e960 fb3c ad0f b1bb d5f2 a63c fcf6 b4bc
000002c0: c1a9 40bc b913 123b a910 a73c 637f 693c
000002d0: 9352 0c3d 4b11 243d 7070 e4bc 113b 593c
000002e0: d8bb f83c 01a9 8bbc 8188 0a3d fd1e 97bc
000002f0: 59e9 8a3c 6c04 ce3b 02ad 973b 1848 e7bc
00000300: d15b 073a 5188 f8bc 4718 19bd a253 03bd
00000310: 3ad7 f7bc c41c 34bc 8161 bcbc 4f0f c9bc
00000320: 6a64 e63c e2c9 c7bc 8ccf f4bc 8a3c 893c
00000330: 50a9 5aba 4df2 f33b e7f1 ffbb df48 95bc
00000340: 7a7d 8e3c 7ea2 f1bc 947e 27bd fab6 973c
00000350: 39ad 16bd 0012 823a 2c3c b23b fd89 07bd
00000360: 5db1 f0bc 2089 f7bc 604a 0ebd a9db 1cbd
00000370: 9483 b8bc 7702 0ebd ecec f33c bc3c afbc
00000380: 43f1 3cbb 45fb c13c 00e7 09bd 73d5 b8bc
00000390: c9d5 d2bb 8b5e bcbc 3c06 6cbb 1d1e 26bc
000003a0: 8a07 aabb eee7 9abb 8313 043d cb7f 5cbc
000003b0: 7979 cf3c bb5d 9fbc f958 633c e0c2 71bc
000003c0: 74d6 a23c e286 d13c eca5 e33c 418a 88bc
000003d0: 56a3 95bb bc66 e53c d646 24ba fb9c 3cbb
000003e0: b2d6 05bd 3c65 1ebc f82f 68bc 106e e13c
000003f0: 1e21 78bc a647 c53b 0e50 d63a 51aa 693c

bias f4 [32]
-0.041034393 0.007863746 -0.035391167 0.03689133 -0.00015653383 0.0045668506 0.010104803 -0.028286004
0.028092012 0.024139905 -0.006660225 0.025274735 -0.0031358718 0.026721388 0.044005863 0.0020063417
0.013122624 -4.4819433e-05 0.038246118 0.036807813 -0.002911899 -0.024164584 -0.015865186 0.048158407
0.05019889 -0.017774284 -0.009243983 0.02633904 -0.013418943 -0.038440328 0.023413306 0.019030463
00000000: ae13 28bd f1d6 003c 54f6 10bd 5d1b 173d
00000010: 3b23 24b9 85a5 953b 9e8e 253c 0db8 e7bc
00000020: 3821 e63c 0dc1 c53c 043e dabb f60c cf3c
00000030: 3383 4dbb d0e6 da3c 7e3f 343d d47c 033b
00000040: 4600 573c 80fc 3bb8 f6a7 1c3d cac3 163d
00000050: 8fd5 3ebb cef4 c5bc b5f7 81bc c041 453d
00000060: 5a9d 4d3d 609b 91bc 1374 17bc f8c4 d73c
00000070: 20db 5bbc 9b73 1dbd 43cd bf3c c6e5 9b3c

weight f4 [64, 32, 5, 5]
-0.02814298 0.0020907426 0.012144061 0.00053163385 0.015406803 -0.019165711 -0.01902678 0.008512385
0.019169994 0.03516106 0.02624957 0.021614637 0.03372079 -8.751776e-05 0.014427641 -0.020951
-0.010607147 -0.007457374 -0.020229049 0.014035952 0.0046075312 0.025557358 0.0041607306 0.031506658
-0.0024269423 0.027449587 0.028900297 -0.01870923 0.016010957 -0.012458189 -0.015486504 -0.02309183
0.011574624 0.011432009 -0.013046372 0.017899256 0.037419587 0.030215574 -0.0113775 0.036746316
0.010442666 -0.022480262 0.026637191 0.031602617 0.030780857 0.010701084 -0.030249452 -0.013712123
0.009115035 0.0155969085 -0.006235702 -0.01759631 0.0073970803 0.007010111 0.017001716 0.034630366
-0.003001166 0.03640739 0.013816008 -0.031404927 -0.02650637 0.018666744 -0.00032759577 0.011157191
-0.02445633 0.024451429 -0.01082409 0.012780302 -0.029643103 0.02520896 0.029337784 0.021729544
0.025953425 -0.0035398311 -0.009978407 0.0370457 0.0025515165 -0.0153972795 0.028729899 0.02875237
0.0024302222 0.0031648322 -0.03339333 0.010086415 -0.036311314 0.032700237 0.034816135 0.029443236
0.011040606 0.009137606 0.019052092 0.005197004 0.03516464 -0.0119267255 0.0022123817 -0.0049555893
0.024416795 -0.02103354 -0.016578287 0.010144531 -0.012710232 0.011283926 0.00761671 0.00690502
0.009842018 -0.011136384 0.009574894 -0.014730108 0.030361034 0.017542642 0.0031530904 0.018714631
-0.00901523 -0.00042628474 -0.025079885 0.0011102529 -0.025823733 -0.003078262 -0.031637892 0.02501734
0.01373302 0.005331073 -0.028145093 -0.030090604 -0.021170078 0.029886369 0.003497009 -0.013763766
0.009484273 -0.017570825 -0.01163592 -0.015957363 0.016593615 -0.008245484 -0.0046849526 0.037500214
0.01683207 0.018383838 -0.0034482307 0.007788955 0.0067784833 0.022049962 0.0065649864 0.02288213
-0.031611748 0.02115692 -0.016897872 0.0059605585 0.010194358 -0.01841663 0.029522914 -0.014468643
-0.026538428 -0.004847894 0.0016740083 -0.00076331024 0.007311644 -0.01167709 0.014590124 -0.012531047
-0.01287107 0.0034170102 0.025149567 0.024426434 0.0257722 0.017986706 0.008030151 -0.02158198
-0.028619353 -0.026387904 -0.033671405 -0.024509866 -0.018290227 0.023837203 0.030180719 0.005385166
0.01327904 0.031261954 -0.017155955 -0.025704456 0.019027758 -0.029661817 -0.016254276 -0.0030105056
-0.024351336 0.023419054 0.020754436 -0.015363838 0.01627845 -0.024011215 -0.031277362 -0.0021957508
0.010556223 -0.015132747 -0.014265804 -0.02206014 0.018756868 0.0015719862 0.009795979 -0.0104218125
0.012800681 0.018538209 0.031803995 0.019640587 -0.0049118875 -0.0042856447 -0.016109306 -0.015037804
0.010954665 -0.009362924 0.019303268 0.00026405745 0.032401256 -0.023217717 0.029912489 0.013665271
0.02534854 0.014377502 0.01327222 -0.030237598 -0.02194233 0.032963328 -0.034588046 -0.028448097
-0.036916636 0.0283771 0.01963717 -0.016162967 0.01940993 0.031306762 0.0039848057 -0.016109388
0.0100538945 -0.032150235 0.0062488946 -0.02955841 -0.0011981903 -0.0040996503 0.03257849 0.02976818
0.03496641 0.0019787548 0.023930043 -0.030601447 0.035403755 0.01750496 0.02837949 -0.003063127
-0.012951956 -0.017766386 0.022581214 -0.011233778 0.012240336 -0.011178241 0.018570013 -0.024742419
00000000: 1b8c e6bc d704 093b e2f7 463c 585d 0b3a
00000010: d16c 7c3c 6901 9dbc 0dde 9bbc 8877 0b3c
00000020: 640a 9d3c 0b05 103d 5709 d73c 2e11 b13c
00000030: d01e 0a3d bd89 b7b8 ea61 6c3c 6ea1 abbc
00000040: 99c9 2dbc fd5c f4bb 64b7 a5bc 0df7 653c
00000050: c6fa 963b aa5d d13c bd56 883b 200d 013d
00000060: 560d 1fbb f5dd e03c 51c0 ec3c 1944 99bc
00000070: 6929 833c 6f1d 4cbc 1bbb 7dbc 142b bdbc
00000080: 7ea3 3d3c 524d 3b3c 73c0 55bc 76a1 923c
00000090: 4845 193d a786 f73c b268 3abc 4e83 163d
000000a0: b717 2b3c 8728 b8bc 3d36 da3c bf71 013d
000000b0: 2328 fc3c 9953 2f3c b3cd f7bc d0a8 60bc
000000c0: 3a57 153c 2d8a 7f3c dc54 ccbb 2326 90bc
000000d0: 3563 f23b 13b5 e53b 2f47 8b3c 92d8 0d3d
000000e0: 36af 44bb ea1f 153d 8a5c 623c 74a2 00bd
000000f0: e323 d9bc 00eb 983c 29c1 abb9 a7cc 363c
00000100: a458 c8bc 5d4e c83c 8657 31bc 7964 513c
00000110: 18d6 f2bc 0583 ce3c cb55 f03c 2802 b23c
00000120: 479c d43c 83fc 67bb 797c 23bc 3bbd 173d
00000130: 5837 273b df44 7cbc f75a eb3c 178a eb3c
00000140: 5d44 1f3b 1369 4f3b 72c7 08bd 7e41 253c
00000150: 2cbb 14bd aff0 053d 5d9b 0e3d f132 f13c
00000160: a8e3 343c e6b5 153c 2213 9c3c a14b aa3b
00000170: cc08 103d 5068 43bc 9bfd 103b 7f62 a2bb
00000180: bb05 c83c 884e acbc 30cf 87bc 3f35 263c
00000190: 943e 50bc 37e0 383c 9895 f93b 8243 e23b
000001a0: 6a40 213c 6175 36bc 04e0 1c3c 8d56 71bc
000001b0: b4b7 f83c 96b5 8f3c 14a4 4e3b 6d4f 993c
000001c0: 9eb4 13bc f87e dfb9 5574 cdbc e885 913a
000001d0: 4b8c d3bc abbc 49bb bc96 01bd 2af1 cc3c
000001e0: 7600 613c 48b0 ae3b 8a90 e6bc 9280 f6bc
000001f0: df6c adbc 42d4 f43c 132e 653b 6b81 61bc
00000200: ed63 1b3c b1f0 8fbc 96a4 3ebc 04b9 82bc
00000210: 55ef 873c 1118 07bc 3b84 99bb d399 193d
00000220: 69e3 893c b499 963c b6fb 61bb 7d3a ff3b
00000230: 0a1e de3b 1fa2 b43c 191f d73b 4e73 bb3c
00000240: 527b 01bd 4751 ad3c 686d 8abc ca50 c33b
00000250: 3d06 273c 79de 96bc 0ada f13c e30d 6dbc
00000260: 1e67 d9bc 15db 9ebb 666a db3a e218 48ba
00000270: 8496 ef3b 4451 3fbc 6a0b 6f3c 054f 4dbc
00000280: 2ee1 52bc ebef 5f3b 7706 ce3c f219 c83c
00000290: 3920 d33c db58 933c e590 033c b1cc b0bc
000002a0: 2273 eabc 722b d8bc 07eb 09bd eac8 c8bc
000002b0: 63d5 95bc 3d46 c33c 8e3d f73c 0c76 b03b
000002c0: 5590 593c 890c 003d a58a 8cbc 2792 d2bc
000002d0: 1ae0 9b3c 57fd f2bc b027 85bc e74b 45bb
000002e0: 747c c7bc 51d9 bf3c 3505 aa3c 9bb8 7bbc
000002f0: 625a 853c 2bb3 c4bc b11c 00bd 96e6 0fbb
00000300: 02f4 2c3c 57ef 77bc 1ebb 69bc 77b7 b4bc
00000310: 01a8 993c 1b0b ce3a 507f 203c 40c0 2abc
00000320: f3b9 513c 71dd 973c e844 023d 4ce5 a03c
00000330: e6f3 a0bb 986e 8cbb aaf7 83bc 1f61 76bc
00000340: 327b 333c f366 19bc e321 9e3c 3171 8a39
00000350: 2eb7 043d 1533 bebc 090b f53c 4de4 5f3c
00000360: bea7 cf3c 9d8f 6b3c ba73 593c d7b4 f7bc
00000370: 67c0 b3bc 8e04 073d 32ac 0dbd fc0b e9bc
00000380: e635 17bd 1877 e83c 21de a03c 3368 84bc
00000390: 9301 9f3c 853b 003d f992 823b d6f7 83bc
000003a0: 17b9 243c f7af 03bd 87c3 cc3b 7b24 f2bc
000003b0: 980c 9dba 5c56 86bb 0671 053d 66dc f33c
000003c0: f038 0f3d ffad 013b f008 c43c e3af fabc
000003d0: 8703 113d 9066 8f3c 1b7c e83c bebe 48bb
000003e0: 7134 54bc d08a 91bc 3dfc b83c e10d 38bc
000003f0: b18b 483c f124 37bc 2420 983c 9db0 cabc

bias f4 [64]
-0.0030506195 0.03844141 0.018069463 0.024609085 0.0072427928 -0.01366482 0.031938918 0.010717179
0.011555237 -0.0022584794 0.0101995915 0.017029552 -0.03255202 -0.009942555 0.024908915 -0.00589308
0.03194822 -0.015568342 -0.027646603 0.0077592805 0.021524852 -0.007979742 -0.024057783 -0.004158842
0.031664744 -0.008497628 0.011328548 0.0009793597 0.021855393 -0.008830251 0.012836776 -0.0012844371
0.008150568 0.0023125827 -0.038490534 -0.042830583 0.017946165 0.03797665 -0.012356609 -0.0046259332
0.029179387 0.01682989 -0.028165478 0.0046769106 -4.966739e-05 -0.014294256 -0.038850598 0.026719548
0.017687442 0.026054338 -0.021511514 0.005665324 -0.009151559 0.0073631043 -0.022986628 0.0036834371
0.012615565 0.037207097 -0.0043323613 0.030857744 -3.927051e-05 -0.00020288622 0.034833953 0.022775728
00000000: e7ec 47bb bd74 1d3d 6906 943c fe98 c93c
00000010: f354 ed3b 69e2 5fbc 62d2 023d 1b97 2f3c
00000020: 2d52 3d3c ff02 14bb 301c 273c 8f81 8b3c
00000030: 4455 05bd 19e6 22bc c80d cc3c bd1a c1bb
00000040: 23dc 023d 5c12 7fbc 217b e2bc 9041 fe3b
00000050: e354 b03c 77bd 02bc d414 c5bc e546 88bb
00000060: e4b2 013d a339 0bbc 609b 393c dc5d 803a
00000070: 150a b33c c2ac 10bc 5751 523c 8f5a a8ba
00000080: f689 053c b38e 173b 40a8 1dbd 1f6f 2fbd
00000090: d603 933c 678d 1b3d 6073 4abc 2495 97bb
000000a0: 9c09 ef3c d6de 893c 4abb e6bc c540 993b
000000b0: f451 50b8 7532 6abc ce21 1fbd f4e2 da3c
000000c0: 41e5 903c e86f d53c ea38 b0bc 2fa4 b93b
000000d0: 6cf0 15bc 3246 f13b 744e bcbc d265 713b
000000e0: 84b1 4e3c 7866 183d 7bf6 8dbb 61c9 fc3c
000000f0: 64b6 24b8 dbbd 54b9 0cae 0e3d 2a94 ba3c

weight f4 [64, 1024]
-0.020883223 -0.008001556 0.016228152 -0.011046222 -0.012871112 -0.016922027 -0.009981971 0.024013666
0.016012304 -0.017741542 0.015005729 0.022990374 0.010103388 0.017310446 -0.0044068 -0.034047924
0.007985395 -0.008081544 -0.017569184 -0.01477708 -0.0052073402 -0.0030781552 -0.014299695 -0.0054674745
-0.0018864245 -0.0014534146 0.0028636726 -0.010850399 -0.009774704 0.028367223 0.00214146 -0.029820627
0.0094569195 0.018773459 -0.0039338744 -0.028136754 -0.02202652 -0.027083999 -0.014772839 -0.016594017
-0.009599405 0.0004757502 -0.010618936 -0.018184211 -0.019457221 0.0009397536 -0.0005981016 0.0033679667
0.021328174 0.013208254 -0.026785932 0.0017998745 -0.004465396 0.022948693 -0.0116160745 0.015462281
-0.00035908513 0.0150465835 0.003991787 -0.02252772 -0.017847694 0.013891872 0.00903257 -0.0053788116
0.017007697 0.029173829 -0.010935478 -0.012298058 -0.017793441 -0.010471158 -0.016533922 0.0069429614
-0.028515074 -0.02891572 -0.009911879 0.016966948 -0.016745042 -0.0057905037 0.0187955 -0.0042164805
-0.0144567955 0.0028641159 -0.0043435213 -0.030389614 0.026786545 -0.029427944 -0.0126534905 0.0026255748
0.009323555 -0.030868925 -0.0322319 0.027635133 0.007035319 -0.015270858 -0.003942579 -0.017950531
0.0018267961 0.017401827 0.0013179295 -0.006759112 -0.0008864552 0.022692453 0.009964977 0.016108586
0.002109386 0.017255625 -0.009747122 -0.008183507 0.030253053 -0.026146809 -0.026332462 0.030478317
-0.01339468 0.0073897312 0.021865083 0.0223894 0.029518662 0.023200866 -0.0093192905 0.022801723
0.025158528 0.027005611 0.008466776 -0.010672261 -0.007823292 -0.0073291007 0.024141012 -0.02436135
-0.0120495325 -0.0051702494 0.020410433 0.018980576 -0.0056303986 0.0012594778 0.008649004 -0.0054147406
-0.014574486 -0.030753434 -0.015409189 -0.002528475 0.03217252 0.03156591 0.0049997424 -0.0093245655
-0.019433217 -0.02097648 -0.0062304693 -0.010827756 -0.0028924376 0.0038204016 -0.026118815 0.026986418
0.013849815 -0.009978973 0.029318562 -0.024541903 0.019407041 -0.03078656 0.016041497 -0.029442588
-0.02964856 -0.015462419 -0.0034196598 0.0071825073 0.0078118267 -0.03106374 -0.025339851 -0.0046883477
0.010005079 -0.009252159 -0.0065173362 -0.014193279 0.03295855 0.024066592 0.020868128 -0.02738177
-0.018096464 -0.012317932 -0.026514363 0.021556128 -0.008313235 0.030676074 0.0031150216 -0.0278834
0.0002049387 0.008208911 -0.004460699 0.024674397 -0.0039637783 -0.01219046 0.015529938 -0.0017854774
-0.0031896343 -0.011525396 0.016878132 0.018208275 -0.019071653 0.0046862816 -0.0062076333 0.009001087
-0.016167847 -0.0036114927 -0.0119115105 0.026196627 0.026149534 -0.01585358 0.022605205 -0.008781223
-0.020317536 -0.009909978 -0.01817153 -0.026661057 0.008444926 -0.0192259 -0.022751413 -0.029450614
-0.004731965 -0.010397039 0.03444225 0.023786709 0.012467698 -0.0025648437 -0.003179425 0.00022176336
0.025359655 -0.02731553 0.029552864 -0.01198735 0.0036737719 0.016343258 -0.004655089 0.014136361
-0.018819537 0.0045408835 0.008169364 0.008177999 0.015468964 -0.0060851024 0.018944912 0.009191359
0.007691199 -0.0031551968 0.015792277 0.022092313 0.0106393825 -0.015441494 -0.023733499 -0.02315642
0.0038152165 -0.018247807 -0.02380822 0.022630407 -0.022881255 0.03462237 0.010816039 -0.011740061
00000000: 4b13 abbc f518 03bc e7f0 843c 37fb 34bc
00000010: 5be1 52bc 10a0 8abc 6c8b 23bc 4fb8 c43c
00000020: 3c2c 833c b656 91bc 97da 753c 4f56 bc3c
00000030: ae88 253c a3ce 8d3c eb66 90bb d675 0bbd
00000040: 2dd5 023c 7468 04bc 40ed 8fbc 911b 72bc
00000050: 56a2 aabb e0ba 49bb 4549 6abc 8028 b3bb
00000060: e741 f7ba 8080 beba 74ac 3b3b dfc5 31bc
00000070: 1526 20bc 6162 e83c bd57 0c3b 634a f4bc
00000080: 32f1 1a3c ccca 993c bbe7 80bb 0d7f e6bc
00000090: f670 b4bc 43df ddbc c709 72bc 2df0 87bc
000000a0: d346 1dbc 1c6e f939 0cfb 2dbc 0ef7 94bc
000000b0: c064 9fbc cc59 763a ebc9 1cba 1bb9 5c3b
000000c0: 6cb8 ae3c 6f67 583c 2c6e dbbc c4e9 eb3a
000000d0: 7552 92bb e6fe bb3c 5951 3ebc 8255 7d3c
000000e0: 9743 bcb9 f285 763c 89cd 823b 0e8c b8bc
000000f0: 5435 92bc bc9a 633c 58fd 133c be40 b0bb
00000100: ba53 8b3c f4fd ee3c b82a 33bc cb7d 49bc
00000110: 8dc3 91bc 388f 2bbc 2672 87bc c881 e33b
00000120: 7298 e9bc a9e0 ecbc 6f65 22bc 45fe 8a3c
00000130: e62c 89bc 44be bdbb 05f9 993c 672a 8abb
00000140: 32dc 6cbc e4b3 3b3b 1954 8ebb a4f3 f8bc
00000150: 756f db3c df12 f1bc 9650 4fbc d611 2c3b
00000160: d3c1 183c d4e0 fcbc 9905 04bd 1363 e23c
00000170: 8988 e63b 9f32 7abc c030 81bb fe0c 93bc
00000180: 1b71 ef3a 478e 8e3c 60be ac3a 8a7b ddbb
00000190: 0061 68ba 86e5 b93c 2544 233c 27f6 833c
000001a0: a03d 0a3b ab5b 8d3c 65b2 1fbc 1e14 06bc
000001b0: 40d5 f73c d531 d6bc 2db7 d7bc aaad f93c
000001c0: 5c75 5bbc 8f25 f23b 671e b33c fa69 b73c
000001d0: 1fd1 f13c be0f be3c f0af 18bc aeca ba3c
000001e0: 4219 ce3c df3a dd3c 3cb8 0a3c b5da 2ebc
000001f0: 442d 00bc f428 f0bb 5fc3 c53c 7491 c7bc
00000200: 676b 45bc 326b a9bb c833 a73c 277d 9b3c
00000210: 357f b8bb 1015 a53a 8db4 0d3c 236e b1bb
00000220: d3c9 6ebc a0ee fbbc d376 7cbc c5b4 25bb
00000230: 55c7 033d 414b 013d e1d4 a33b 10c6 18bc
00000240: 6932 9fbc ded6 abbc f728 ccbb e666 31bc
00000250: 0d8f 3dbb b45f 7a3b 20f7 d5bc 9f12 dd3c
00000260: 56ea 623c d97e 23bc 7b2d f03c 1a0c c9bc
00000270: 84fb 9e3c 1934 fcbc 7569 833c 9531 f1bc
00000280: 89e1 f2bc 1656 7dbc 5f1c 60bb 3d5b eb3b
00000290: 5afa ff3b 6279 febc 8595 cfbc b6a0 99bb
000002a0: 58ec 233c 5e96 17bc 618f d5bb ed8a 68bc
000002b0: 8bff 063d 4d27 c53c a3f3 aa3c bc4f e0bc
000002c0: 093f 94bc 27d1 49bc a634 d9bc 7a96 b03c
000002d0: 3c34 08bc 644c fb3c 6425 4c3b ba6b e4bc
000002e0: d0e4 5639 ab7e 063c 0e2b 92bb f621 ca3c
000002f0: 95e2 81bb 7fba 47bc 4871 7e3c ae06 eaba
00000300: 2f09 51bb 04d5 3cbc 0244 8a3c 8529 953c
00000310: 283c 9cbc 618f 993b 6769 cbbb 4c79 133c
00000320: 6f72 84bc cbae 6cbb 7f28 43bc 4f9a d63c
00000330: 8c37 d63c 5edf 81bc 8d2e b93c 1edf 0fbc
00000340: f670 a6bc 765d 22bc 76dc 94bc 4a68 dabc
00000350: 965c 0a3c a27f 9dbc 2c61 babc 6a42 f1bc
00000360: 990e 9bbb 5858 2abc 5113 0d3d 58dc c23c
00000370: 5145 4c3c f016 28bb e65d 50bb 2689 6839
00000380: 0dbf cf3c d2c4 dfbc d918 f23c 9766 44bc
00000390: aac3 703b 4ce2 853c b889 98bb 329c 673c
000003a0: 6e2b 9abc b1cb 943b ccd8 053c 04fd 053c
000003b0: 8a71 7d3c 8a65 c7bb 5c32 9b3c 5b97 163c
000003c0: 7406 fc3b 6bc7 4ebb ce5e 813c f0fa b43c
000003d0: ce50 2e3c 52fe 7cbc c16c c2bc 88b2 bdbc
000003e0: b608 7a3b 6d7c 95bc 7509 c3bc 6763 b93c
000003f0: 7871 bbbc 30d0 0d3d c135 313c 6359 40bc

bias f4 [64]
0.01511223 -0.022632556 0.029903436 -0.014244886 -0.020214114 0.02164653 0.0048067668 9.3026436e-05
-0.012551714 0.0010939233 0.015665155 -0.009676247 0.037650052 0.0040065125 -0.0026435794 -0.024177156
0.002518748 -0.011540398 -0.036912914 0.021623617 0.0051419223 -0.034264933 -0.014915169 -0.029237656
-0.007570348 0.028799538 0.011465309 0.040373113 -0.015471937 0.011217735 0.0110555375 -0.015945975
-0.026832767 0.018157087 -0.029301323 0.0012698508 0.026859732 -0.02440304 0.0081176935 0.019679273
0.0075320927 -0.011821891 -0.019284833 -0.0063233543 0.027322028 -0.01267314 -0.0153704155 -0.018218957
0.0082852645 -0.0095010875 0.0023557874 -0.025070317 0.02877241 -0.009247369 -0.0038428607 -0.021145383
-0.019291017 0.0079442505 0.022150781 0.024879856 0.0010170628 0.015666977 0.016604753 -0.03717753
00000000: 4999 773c e967 b9bc 0df8 f43c 6263 69bc
00000010: 1298 a5bc 1054 b13c 1582 9d3b 3017 c338
00000020: b4a5 4dbc fa61 8f3a 3654 803c 1f89 1ebc
00000030: f136 1a3d 1049 833b e73f 2dbb 2c0f c6bc
00000040: 9411 253b f013 3dbc ff31 17bd 0324 b13c
00000050: 927d a83b 6359 0cbd c15e 74bc cf83 efbc
00000060: af10 f8bb 02ed eb3c fed8 3b3c 475e 253d
00000070: 027e 7dbc 97ca 373c 4922 353c 22a1 82bc
00000080: 64d0 dbbc 2cbe 943c 5409 f0bc 1f71 a63a
00000090: f108 dc3c e2e8 c7bc 1300 053c 6d36 a13c
000000a0: c6cf f63b 9bb0 41bc 3afb 9dbc 2434 cfbb
000000b0: 72d2 df3c 00a3 4fbc 32d4 7bbc ec3f 95bc
000000c0: ebbe 073c 73aa 1bbc 8e63 1a3b 4460 cdbc
000000d0: 1eb4 eb3c 4782 17bc 81d8 7bbb 1539 adbc
000000e0: 3208 9ebc 9a28 023c 8e75 b53c d7d0 cb3c
000000f0: f74e 853a 0858 803c b106 883c 7747 18bd

weight f4 [10, 64]
-0.04089276 -0.0770922 0.0019195279 0.08735924 0.005699302 0.09550158 0.08430059 0.01648359
0.06009666 0.1001139 0.11592485 -0.13207148 -0.12579904 -0.08331937 0.08171722 0.0519495
-0.042682927 0.11405539 0.003995509 -0.12475965 0.12113459 -0.03872546 -0.12584665 -0.11224097
-0.061957996 -0.07326187 -0.05603725 -0.10032013 -0.10333731 -0.047595087 0.08720853 -0.09026189
0.09080471 0.07536639 0.06036297 -0.111137934 -0.08083391 0.12020025 -0.037512265 0.13595486
0.028128415 -0.03878034 -0.061617162 0.12411123 -0.12184364 0.0740756 0.04387403 -0.018120812
0.016611269 -0.0054427776 -0.08685924 0.12393726 0.020189103 -0.10773764 0.023885205 0.055792466
-0.027936604 0.02568799 -0.10135428 -0.08687757 0.08071626 0.09580524 -0.010317781 0.021313787
-0.11553782 -0.042187467 0.0031134738 0.013341316 -0.12944308 0.04056691 0.064497724 0.056146625
0.068656035 -0.04122076 -0.052842394 -0.020994619 -0.10640978 -0.032861188 0.047963466 0.14574279
-0.044526186 0.07902296 -0.0115844635 0.109058365 0.045733497 0.061364073 0.05205588 -0.0695819
0.083629765 -0.03331747 -0.13349701 -0.14437973 -0.022163086 0.1266403 -0.05171048 0.057109896
-0.08035792 0.06847822 -0.040882636 0.09743541 0.11091908 0.019625202 0.08789156 -0.055511832
-0.11272073 -0.0014395961 -0.09198352 -0.0013261426 0.054670155 0.06885555 0.007268073 -0.038436398
0.1281317 -0.099665165 -0.09202819 0.027698675 -0.0025989797 -0.00449333 0.08952778 0.08676438
-0.033171702 0.047198556 0.07085837 -0.013596615 0.025695065 0.03540528 0.03903263 -0.09613779
0.055507172 0.11039802 -0.11551948 -0.043368608 -0.090613045 -0.042504873 -0.025235325 0.05845503
0.11087201 0.037747163 0.12063408 0.034058433 -0.10519776 -0.102573946 -0.025459131 -0.007866614
-0.11697195 -0.11114402 -0.08090871 -0.026856251 0.004666746 0.082750216 -0.049998686 0.071932554
0.1068071 -0.013757039 -0.052652445 -0.034458295 -0.034461427 0.022835547 0.094564535 -0.050161637
0.071369834 -0.019919205 0.08869966 -0.033409685 0.06155193 -0.04357257 -0.09522134 0.067807004
0.014055034 -0.053792845 0.044643544 -0.131151 0.04892083 0.018660022 -0.075731255 -0.09962967
0.011018693 -0.08888503 -0.027795209 0.090108916 -0.024710758 0.056274302 -0.038972363 -0.13856982
0.008942778 -0.025000224 0.013415619 0.052674487 0.039428327 0.099085994 -0.0006139479 -0.060123336
-0.11322439 0.041498423 -0.031089984 -0.12686382 -0.12138602 -0.07999069 -0.082637265 -0.0072802063
-0.020977546 0.018195577 0.106226034 -0.051022984 -0.09896833 0.10236044 -0.00986645 0.03748803
0.009980137 -0.043101303 0.071664974 -0.078016266 -0.12107106 -0.07083658 0.084078364 0.09372792
-0.092087574 0.098178945 -0.024398413 0.059004374 0.0010385371 0.019776847 -0.019714518 -0.02950057
-0.119712204 -0.093185104 0.052761927 -0.09551965 0.09992323 0.015238678 -0.019444423 -0.12239427
-0.04571985 -0.07661193 0.092991516 -0.07371596 -0.11296647 0.06635743 0.05589367 0.090993926
0.05100461 0.015199811 0.025178328 0.03518659 0.041774943 0.06259616 0.022247419 -0.1187243
0.008571602 0.012637626 -0.06463567 0.082024895 0.050173953 0.07697736 -0.061506007 0.07124166
00000000: 2b7f 27bd 84e2 9dbd ab98 fb3a 67e9 b23d
00000010: 36c1 ba3b 5596 c33d caa5 ac3d 9808 873c
00000020: ea27 763d 8408 cd3d 026a ed3d bf3d 07be
00000030: 77d1 00be 59a3 aabd 5c5b a73d 00c9 543d
00000040: 4bd4 2ebd df95 e93d c2ec 823b fd81 ffbd
00000050: 6915 f83d 979e 1ebd f2dd 00be 98de e5bd
00000060: abc7 7dbd 520a 96bd 5187 65bd a474 cdbd
00000070: 83a2 d3bd 11f3 42bd 639a b23d 3adb b8bd
00000080: d2f7 b93d b259 9a3d 293f 773d 499c e3bd
00000090: 408c a5bd 8c2b f63d 76a6 19bd c037 0b3e
000000a0: 906d e63c 22d8 1ebd 4762 7cbd 072e fe3d
000000b0: 2989 f9bd f3b4 973d 41b5 333d 1972 94bc
000000c0: 5b14 883c 5459 b2bb 42e3 b1bd d1d2 fd3d
000000d0: 9e63 a53c 8da5 dcbd e8aa c33c a486 643d
000000e0: 4edb e4bc 9f6f d23c d592 cfbd deec b1bd
000000f0: 914e a53d 8a35 c43d e90b 29bc 409a ae3c
00000100: 189f ecbd c4cc 2cbd 6c0b 4c3b 8995 5a3c
00000110: ba8c 04be 7d29 263d 6217 843d 01fa 653d
00000120: 899b 8c3d 1ad7 28bd 4471 58bd e8fc abbc
00000130: 5fed d9bd 7499 06bd 5775 443d 993d 153e
00000140: 1761 36bd cad6 a13d c3cc 3dbc fe59 df3d
00000150: 0c53 3b3d e558 7b3d 8c38 553d f580 8ebd
00000160: 1546 ab3d e677 08bd 71b3 08be 48d8 13be
00000170: 5c8f b5bc ffad 013e 5ece 53bd 11ec 693d
00000180: b192 a4bd 4f3e 8c3d 8d74 27bd 378c c73d
00000190: 8b29 e33d 08c5 a03c 7d00 b43d 6060 63bd
000001a0: 20da e6bd d4b0 bcba db61 bcbd f6d1 adba
000001b0: d0ed 5f3d 2304 8d3d 0429 ee3b 7c6f 1dbd
000001c0: f534 033e 401d ccbd 4779 bcbd 55e8 e23c
000001d0: a553 2abb c93c 93bb 575a b73d 86b1 b13d
000001e0: 0ddf 07bd 4653 413d 311e 913d 56c4 5ebc
000001f0: 757e d23c 2005 113d aee0 1f3d e4e3 c4bd
00000200: 7d5b 633d 5b18 e23d 7a95 ecbd 48a3 31bd
00000210: 5593 b9bd 9719 2ebd 50ba cebc 8b6e 6f3d
00000220: dd10 e33d c59c 1a3d 000f f73d db80 0b3d
00000230: ec71 d7bd 4a12 d2bd ab8f d0bc f8e2 00bc
00000240: fd8e efbd 7a9f e3bd 77b3 a5bd a401 dcbc
00000250: 81eb 983b f278 a93d 6ccb 4cbd 6051 933d
00000260: aebd da3d 3465 61bc 17aa 57bd 2424 0dbd
00000270: 6d27 0dbd 9d11 bb3c 0dab c13d 4a76 4dbd
00000280: 592a 923d 9a2d a3bc 2ba8 b53d 98d8 08bd
00000290: e01d 7c3d 2779 32bd 6803 c3bd 66de 8a3d
000002a0: 1647 663c e355 5cbd 26dc 363d 734c 06be
000002b0: 3561 483d e7dc 983c fd18 9bbd a40a ccbd
000002c0: c087 343c 5b09 b6bd c7b2 e3bc 068b b83d
000002d0: 376e cabc e27f 663d 7ca1 1fbd 3fe5 0dbe
000002e0: bb84 123c 45cd ccbc 2fcd 5b3c 34c1 573d
000002f0: 997f 213d 99ed ca3d 59f1 20ba e343 76bd
00000300: 30e2 e7bd 40fa 293d 6cb0 febc 97e8 01be
00000310: 3c99 f8bd 29d2 a3bd ba3d a9bd cc8e eebb
00000320: 1ad9 abbc e40e 953c 098d d93d 7afd 50bd
00000330: e8af cabd 5aa2 d13d e4a6 21bc 0c8d 193d
00000340: bb83 233c fe8a 30bd 16c5 923d fec6 9fbd
00000350: 1bf4 f7bd c512 91bd 4731 ac3d 6cf4 bf3d
00000360: 6998 bcbd 0b12 c93d 2edf c7bc 92ae 713d
00000370: 861f 883a 0e03 a23c 5780 a1bc 2eab f1bc
00000380: ac2b f5bd d5d7 bebd e41c 583d ce9f c3bd
00000390: 8da4 cc3d a6ab 793c e949 9fbc d9a9 fabd
000003a0: bd44 3bbd b7e6 9cbd 5672 be3d 65f8 96bd
000003b0: f75a e7bd 67e6 873d c3f0 643d 065b ba3d
000003c0: 36ea 503d a108 793c c842 ce3c d01f 103d
000003d0: 341c 2b3d 6a32 803d 3840 b63c ba25 f3bd
000003e0: e86f 0c3c 0c0e 4f3c b55f 84bd abfc a73d
000003f0: 3483 4d3d 4ea6 9d3d b9ed 7bbd 26e7 913d

bias f4 [10]
-0.03858499 -0.03603542 0.073521405 0.063577734 -0.03438895 0.047409873 0.12157933 -0.050002363
-0.14001805 -0.020976221
00000000: 4b0b 1ebd e099 13bd 6492 963d 0b35 823d
00000010: 6ddb 0cbd db30 423d 95fe f83d 47cf 4cbd
00000020: e460 0fbe 53d6 abbc
