chaoyang_1.pth (torch, 588587 bytes, 10 tensors)

weight f4 [32, 3, 5, 5]
000000 d8 79 0c bd ad 54 07 3e 17 4f da 3d 04 43 71 3d
       -0.034295887 0.13215895 0.106596164 0.0589018
000010 c6 68 82 3d 7c d9 96 bd 3d e1 c8 3d 29 cf 9a 3c
       0.0636764 -0.073657006 0.09808586 0.01889761
000020 11 2d 01 3e cf bb ad 3c d0 e1 05 3e b0 dc 05 3e
       0.12614848 0.021207718 0.13074422 0.13072467
000030 78 a6 36 3d dd 84 45 3d 0a a2 8d bd 29 4a 83 3d
       0.04459235 0.04822241 -0.06915672 0.06410629
000040 5e f5 b3 3d 28 f6 67 3d d4 1a fa 3c 28 aa d4 3d
       0.087870345 0.056631237 0.03053037 0.10384017
000050 58 c6 a7 3d 6f e2 3a bd e1 0f 9b 3d fa 4d ca 3d
       0.08192128 -0.0456261 0.07571388 0.09878154
000060 3e ea 09 bd 1e ee df 3d 76 f7 3f bd c7 03 e4 3c
       -0.033670656 0.10934089 -0.046866857 0.027833832
000070 da 58 81 bd 19 81 83 bd 0c c3 d3 3d 5e d6 be 3c
       -0.06315775 -0.06421108 0.103399366 0.023295578
000080 36 87 eb bc 87 da 45 bd 43 91 9b 3d ef c9 02 3e
       -0.028750997 -0.048304107 0.07596066 0.12772344
000090 09 e2 8f 3d 13 fe 82 3d f1 7c f8 3c ff 48 c1 3c
       0.07025535 0.06396117 0.030333014 0.023594378
0000a0 56 f1 14 3c ed ec 8c bc d9 3d 06 3e df e8 0d bd
       0.009090742 -0.017202819 0.1310953 -0.03464591
0000b0 64 ca 81 bd a4 97 9f 3d 86 07 3d 3d 25 72 b1 3d
       -0.06337431 0.07792595 0.046149753 0.086643495
0000c0 31 07 2d bd 4a 0f b2 3d 36 79 4c 3d 99 e9 92 bc
       -0.042243186 0.086943224 0.049920283 -0.017933654
0000d0 8c 00 82 bc 6f c8 c5 bc 43 03 ae bd 27 b9 9c 3b
       -0.015869401 -0.024143426 -0.08496716 0.004782814
0000e0 f5 42 50 bd 84 0d 05 be a1 19 61 bb 26 ba 96 bd
       -0.050845105 -0.12993437 -0.0034347551 -0.07359724
0000f0 c8 aa 87 b9 6c c5 66 3d 67 11 fd bd fd 94 5b bd
       -0.00025876448 0.05634062 -0.12356835 -0.053608883
000100 7e 72 9e 3d 2b 52 2f 3d e7 c9 82 3d 5a 37 88 3c
       0.077366814 0.04280297 0.06386166 0.016627956
000110 36 f9 3c bd 86 9e 2c bc c3 8b e0 bd 87 ea 77 3d
       -0.046136104 -0.010535842 -0.109641574 0.060526397
000120 94 91 a4 bc a1 b0 16 bd d8 0d a1 bd bf 90 3f bc
       -0.020088948 -0.03678954 -0.078639686 -0.011692225
000130 31 16 01 bd e1 54 dc bb a3 e7 08 3d 22 a3 e0 bb
       -0.031515304 -0.0067239855 0.03342403 -0.0068553844
000140 7c 48 95 bc 2e a9 c6 bd 72 90 c9 3d a4 16 96 bd
       -0.01822304 -0.09700237 0.09842004 -0.07328537
000150 cc 49 2e 3d b6 1a c7 bd 4f 19 ea 3d c0 4a 11 bd
       0.042550847 -0.097218916 0.114306085 -0.035471678
000160 c3 ba d3 3c 6b b9 68 3c fa bd 13 3d 89 98 b8 3d
       0.02584589 0.014204363 0.036069848 0.09013469
000170 d7 4c d9 3d 58 a5 a8 3d e3 2c 02 3e 45 63 c3 bd
       0.10610359 0.08234662 0.12712435 -0.095404185
000180 ca 67 af 3d b8 1d 06 3d 76 b0 e5 3c 31 2c f4 3d
       0.08564718 0.032743186 0.028038245 0.11922491
000190 02 20 97 bd 1e 48 32 bd c0 87 4f bc 4d 28 88 3d
       -0.07379152 -0.043525808 -0.012666643 0.06648312
0001a0 7c 7a 47 3d f7 9c 35 3d 67 9b f8 3c cc 2d cf bd
       0.048700795 0.044339146 0.03034754 -0.10116157
0001b0 bf 5e 57 bd b8 ad 45 3d 82 af 4e bd 83 57 e2 3d
       -0.05258059 0.048261374 -0.050460346 0.11051848
0001c0 4a 22 cb bd 58 46 85 3d 39 e0 8f 3d ea 95 cb bb
       -0.099186495 0.06507558 0.07025189 -0.0062129395
0001d0 ee 02 eb 3d 27 80 ac 3d cc 2a b2 3d b3 29 9b 3d
       0.11475168 0.084228806 0.08699569 0.07576313
0001e0 a1 85 52 3d 7d 75 6e bd 01 99 e6 3c 17 ff d6 bd
       0.05139697 -0.058217514 0.02814913 -0.10497873
0001f0 88 f9 bd 3d 49 f4 35 bc 77 21 0b bd bd 26 80 3c
       0.0927611 -0.011105605 -0.03396746 0.015643472
000200 ac 4b 25 bd 0e 2f b3 bc 27 b2 ea 3d 34 b5 c5 3d
       -0.04035537 -0.021873023 0.11459761 0.096537024
000210 75 ae 94 3d cd e0 6a 3d ae 98 02 3e b3 c1 fd 3d
       0.072598375 0.057343293 0.12753555 0.12390461
000220 31 f2 7f 3d 60 77 d1 3d 7a 6a 91 3d 11 40 95 3d
       0.06248683 0.10227847 0.07100387 0.0728761
000230 d2 01 07 3e 0e 13 28 3d 4d e3 08 3e 29 08 57 bd
       0.13184288 0.041033797 0.13367958 -0.052498017
000240 7e 7e 57 3d 32 9c c6 bd a4 c4 e4 3d d3 9f ab 3d
       0.052610867 -0.09697761 0.11170319 0.083800934
000250 03 66 a3 3d 63 6d a7 3c 76 96 bd 3d 02 9e 87 bd
       0.079784416 0.020437902 0.09257214 -0.066219345
000260 7c bb b8 3d 59 b2 44 3d d8 0b f2 bd 5f cb a9 bd
       0.09020135 0.048021648 -0.11818665 -0.08290743
000270 f2 2f dc 3c 58 af ad 3c c5 01 42 bd ff 71 e7 bd
       0.02687833 0.021201774 -0.04736497 -0.1130104
000280 14 86 88 3d 60 fb 41 3d 59 10 b2 3d c6 ba 7a 3d
       0.066661984 0.04735887 0.08694524 0.061213277
000290 c6 f6 c0 3d ca bb b0 3d 60 3a 87 3d 91 e2 a6 bc
       0.09422068 0.08629568 0.06602931 -0.020371707
0002a0 00 ed cd 3d e3 2f 8c bc 00 d0 9e bd d5 eb bc 3d
       0.1005497 -0.017112678 -0.077545166 0.09224669
0002b0 a5 4f 33 bd 20 ad e6 3c e1 c7 89 3d 73 3d d6 3d
       -0.043777127 0.028158724 0.06727577 0.10460939
0002c0 42 d7 3c 3c 6f 7d 9d bd dd 38 15 3d 3a 42 bc bd
       0.011525931 -0.0768994 0.036431182 -0.09192319
0002d0 6e e3 9d bc c8 a9 f9 3b a9 b5 a4 bd 33 0a ce 3d
       -0.019273486 0.0076191165 -0.080424614 0.10060539
0002e0 3d 6c 47 3c e5 7c 2d bc be ff 2b bd 62 84 e4 3d
       0.012171802 -0.010588859 -0.04199194 0.111580625
0002f0 38 0d d7 bc b6 d5 37 bd e5 fb b6 bd dc 93 10 bd
       -0.02625142 -0.044881545 -0.08934764 -0.03529726
000300 08 91 85 bd 27 59 d1 3a 3e 0f a9 3d e0 f9 6a bd
       -0.06521803 0.0015972004 0.0825486 -0.057367206
000310 a0 f6 3e 38 e6 64 de 3c 65 0f 17 bd e0 b6 1a bc
       4.5529217e-05 0.027147721 -0.036879916 -0.009443015
000320 54 8a 6b bd 09 02 9b bd e9 af 89 3d 1f 4a b3 3d
       -0.057504967 -0.075687476 0.06723005 0.08754372
000330 53 d1 53 bc e2 f0 6b 3d ad 09 15 bd 3e ee ac 3d
       -0.012928325 0.05760277 -0.03638618 0.084438786
000340 94 a9 51 bd 80 e1 cc 3c 6b 5c d3 3d 44 48 0a bd
       -0.051187113 0.02500987 0.10320362 -0.033760324
000350 51 dd db 3d aa 8a 8e bd e1 21 c8 bd b9 d8 ab bd
       0.10735572 -0.06960042 -0.09772087 -0.08390946
000360 be 88 e2 3c 65 04 29 3d a4 e5 47 bc a4 8c f0 3d
       0.027653094 0.041263957 -0.012200747 0.11745575
000370 41 11 13 3d e2 81 10 bc 69 fb 5b 3d 04 57 aa 3c
       0.035905126 -0.008820029 0.05370656 0.020793445
000380 a0 85 0a 3d 3b df 2a bd be 24 05 bc 43 d7 8f 3c
       0.03381884 -0.041716795 -0.008126436 0.0175587
000390 65 22 c8 bd 1f 6a e0 bc 31 8f a0 3d 2d 6a dc 3c
       -0.09772185 -0.027394352 0.078398116 0.026906097
0003a0 e4 76 6a bd 7d 52 a5 bd 34 8e 7d 3d 9e 0d 11 3d
       -0.05724229 -0.08072374 0.061903194 0.035413377
0003b0 62 f0 28 3d fe a2 3f 3d a6 85 65 bb c1 8c 0b 3d
       0.041244872 0.0467863 -0.0035022288 0.03406978
0003c0 5f 66 7f bd a2 6e 2c bd d1 01 f7 bd 83 54 f3 bd
       -0.062353488 -0.042097695 -0.12060893 -0.11881354
0003d0 cb 4f 80 bd be c8 f4 bd b6 1a 7e bc cd 05 cd bd
       -0.06265219 -0.11952351 -0.015509298 -0.10010872
0003e0 a9 5d 6f 3d 52 2b 4e bd 33 a8 bf 3d 24 90 c4 bb
       0.05843893 -0.050334282 0.09358253 -0.005998628
0003f0 2a 12 cb 3d bc 82 84 bc 75 c3 1d bc 3a 16 ae 3d
       0.09915574 -0.01617562 -0.00962912 0.08500333

bias f4 [32]
000000 ba 8e e0 3c 4e c8 9f bd ed 65 5a bd 48 81 06 bd
       0.027411807 -0.07801877 -0.05331986 -0.032838136
000010 57 e7 9c bd 10 47 91 3d 12 d5 04 be f2 a4 a0 bd
       -0.07661312 0.07093632 -0.12971905 -0.07843961
000020 66 6e e2 3d 9e 65 ff bc 1d 93 c0 3d f1 54 af bd
       0.11056213 -0.031176385 0.0940306 -0.08561123
000030 1a ac 16 3e 8c f4 8c 3d d5 4b b5 bd 19 9d 8b 3d
       0.14714089 0.06882581 -0.088523544 0.068170734
000040 e9 d2 90 bd dd 14 f8 bd 9a 69 db 3d dd d7 2a 3d
       -0.07071478 -0.12113354 0.10713501 0.04170977
000050 55 c3 88 bd 34 0e ee bd 87 a8 95 3d a4 25 39 3d
       -0.06677882 -0.11623803 0.07307535 0.045201913
000060 91 20 f5 3d 1f 58 0b bd 6f 04 42 bd 1b 6d f8 3d
       0.11969102 -0.034019586 -0.04736751 0.12130185
000070 7a 3a fc bd 09 d5 07 3d 9a 6c 76 bd 15 6b 1e bd
       -0.12315841 0.03316215 -0.060162164 -0.03867634

weight f4 [32, 32, 5, 5]
000000 cc a7 36 bd 74 f9 08 bd fc b5 7e bc fa bf a1 3c
       -0.044593617 -0.033441022 -0.015546318 0.019744862
000010 22 d7 00 bd bb 3b 1b bd 24 6c 2d bd cb 0e 07 bd
       -0.031455167 -0.03789876 -0.04233946 -0.032973092
000020 af 93 92 bc 11 4e dc bc 1b 74 dd bc 3a 2e d2 3b
       -0.017892687 -0.026892694 -0.027032902 0.006414202
000030 22 00 8a bc af 42 cc bb 6d c0 96 3c 5f 6d 45 3c
       -0.016845766 -0.0062335352 0.018402303 0.012050002
000040 1b b0 3d 3b 7f a3 09 bd 1e a2 13 3d 2d 66 d6 bc
       0.0028944078 -0.033603188 0.03604328 -0.026171768
000050 3d 92 ca 3c 7f 2e 2c 3c 27 34 9b bc f3 fb de bc
       0.024727935 0.010509132 -0.018945767 -0.027219748
000060 a8 a2 77 bb c0 88 b2 bc 36 2f f2 3a 45 f3 c7 3c
       -0.003778616 -0.021793723 0.0018477205 0.024407992
000070 48 44 97 3b e9 ad 4b bb 3f ba ef 3b 57 67 a9 bc
       0.004616294 -0.0031079 0.0073159034 -0.02067916
000080 77 85 a5 bc 18 04 23 bc c8 78 5b bc 99 e2 db 3c
       -0.020205243 -0.0099497065 -0.013395496 0.026841449
000090 17 92 38 3c 52 2b 24 3d d3 f6 29 3c 10 c2 a1 3b
       0.011265299 0.040080376 0.010373789 0.004936464
0000a0 c1 3c 73 3c bc 2d 32 3d 9d b7 29 3d ec 01 9e 3c
       0.014846028 0.043500647 0.041434873 0.019288026
0000b0 b8 16 8c 3c 60 28 83 bc ea f7 bc 3c e2 a3 86 bc
       0.017100677 -0.016010463 0.023067433 -0.016435567
0000c0 52 43 0b 3d d3 34 25 3d 49 df a4 3b 69 2d ec bc
       0.03399975 0.04033358 0.0050315005 -0.028830247
0000d0 7a 76 cd 3c f8 56 b2 3c 2b a8 b1 bc 70 93 95 3c
       0.025080908 0.021769986 -0.021686634 0.01825878
0000e0 1f 7e 24 bc ca eb 7f bc 05 02 b5 3c 79 5d b0 bc
       -0.010039835 -0.015620181 0.02209569 -0.021528946
0000f0 08 19 c5 3c df 38 c7 bc d9 3b ab 3c 9d 60 07 3d
       0.024059787 -0.02431911 0.020902561 0.033051122
000100 51 87 fc 3c 20 fa c6 bb 94 5c 64 bb 85 3f dc 3c
       0.030826243 -0.0060722977 -0.003484522 0.026885757
000110 b5 c6 a4 3b 0b 24 d4 bc 2f 6d fe 3c 9c e1 f8 3c
       0.0050285705 -0.025896093 0.031057922 0.030381016
000120 1d 2f cc bc 90 3c 04 3d 49 d9 4f bc cd 5d ac 3c
       -0.02492481 0.03228432 -0.012686082 0.021040821
000130 83 8d 4b bc f1 f1 09 bc 33 9c 50 bc 3a da 98 bb
       -0.012423876 -0.0084195 -0.012732553 -0.0046646865
000140 be bb 1d 3c e3 a7 ef bb 44 9e 02 3b 60 79 f2 bc
       0.009627281 -0.007313715 0.001993076 -0.029598892
000150 96 3b d4 3b 30 ac 80 bc c1 2a ac bc ed 5f 78 bc
       0.0064768298 -0.015707105 -0.02101648 -0.015159589
000160 ee 0d 6b 3c 30 f4 0f bd b1 d6 db 3c c0 ae 1c 3c
       0.014346583 -0.035144985 0.026835771 0.009563148
000170 45 57 e8 bb b7 6c cc bb 5d 7f 11 bd c5 5a 71 3c
       -0.0070904815 -0.0062385458 -0.035521854 0.014731114
000180 9a 03 c3 39 d0 a1 42 3c 2d 19 fd bc 01 45 77 bc
       0.00037195982 0.011879399 -0.030895794 -0.015092135
000190 09 8e f7 3c 43 53 81 3c b3 dd e5 bc d8 ff 81 3b
       0.030219095 0.015786773 -0.028059816 0.0039672665
0001a0 e7 9a 7a bb ee 37 3c bc 43 b4 5c 3b 19 56 2c ba
       -0.0038239302 -0.011487944 0.003367678 -0.0006574109
0001b0 f8 94 49 3c c7 0d e5 3c 76 82 f3 bc 35 ba 0c 3d
       0.012303583 0.027960671 -0.029725295 0.03435727
0001c0 52 f0 8b bc dd ed 17 3d e3 62 59 bc 5c c8 bb bb
       -0.017082367 0.03709208 -0.013268205 -0.005730672
0001d0 e1 21 0b bc b4 82 db bc b2 ed 52 bc fe a1 52 3c
       -0.008491964 -0.026795723 -0.012874054 0.012856005
0001e0 81 59 10 3d bf e3 3c 3a 39 f2 cb 3c d5 a3 0f 3d
       0.035241608 0.00072055677 0.024895774 0.03506835
0001f0 af e3 9f bc 6f 26 c5 3c 26 fe 7b bc 47 72 1d bd
       -0.019517748 0.024066178 -0.015380418 -0.03843906
000200 96 33 84 3c 56 fc 62 bc 9f 09 bc 3c dc 6f 7d bc
       0.01613788 -0.013854107 0.022953806 -0.015468564
000210 9b 15 f8 bc c3 36 06 bd 19 f5 82 bc b0 ff c0 3c
       -0.03028374 -0.03276707 -0.015986012 0.023559421
000220 f3 1b 9f bb 6d 57 a9 bc c8 e3 5c bc 3d bf fb 3c
       -0.0048556267 -0.02067157 -0.013482042 0.030730838
000230 f4 0c bb bc 6a 45 a2 3c 68 42 d5 bc 1c 57 f2 3c
       -0.022833325 0.01980849 -0.026032642 0.029582553
000240 d6 9b c4 3c 50 90 a9 bc 13 02 ee 3b 5c 28 7c bc
       0.02400009 -0.020698696 0.007263431 -0.015390482
000250 c6 8d 0b bd 58 10 d2 bc 20 1f 84 bc 8a c8 12 bc
       -0.034070753 -0.025642559 -0.016128123 -0.008958945
000260 fd ae f7 bc 44 20 0d bd 42 cd 96 3c 98 53 9b 3b
       -0.030234808 -0.0344546 0.018408421 0.0047401898
000270 29 38 bd bc 5f 8f e6 bc 41 0e e1 3c 54 7a dd 3a
       -0.023098068 -0.028144537 0.027472617 0.0016897419
000280 a6 92 20 3d 41 a1 0b bb e4 56 d6 3c 17 19 89 3c
       0.039202355 -0.0021305832 0.02616448 0.016735597
000290 f0 cb cf 3b 33 eb c8 bb 7e d8 03 3c dc d6 42 bb
       0.00634145 -0.0061315536 0.008047221 -0.0029730117
0002a0 42 15 61 bc 33 ca df 3c 9f b8 4f bc b5 5e 5a bb
       -0.013737978 0.027318096 -0.012678294 -0.003332061
0002b0 d1 d0 05 3d d4 bc 54 bb 03 00 b8 3c 85 40 a5 bc
       0.032669846 -0.0032461183 0.022460943 -0.020172367
0002c0 79 2a ea bb 8d cb c8 3b 49 9e c2 3c 83 cc 7c 3c
       -0.0071461764 0.006127781 0.023757117 0.015429619
0002d0 0a 04 16 3d 8c 71 39 3d 9d 5b bd bc 9b e0 90 3c
       0.036624946 0.045274302 -0.023114974 0.017685225
0002e0 e5 07 05 3d 27 23 91 bc 7c bc 0f 3d 53 83 8f bc
       0.032478232 -0.017716957 0.035091862 -0.017518675
0002f0 97 3b 95 3c ec c0 c6 3b 7e b1 ee 39 82 d0 ff bc
       0.018216891 0.0060654785 0.0004552714 -0.031227354
000300 4a 44 42 bb a3 9a 06 bd 2c f4 24 bd 31 29 11 bd
       -0.0029642754 -0.032862317 -0.040271923 -0.035439674
000310 5c 46 04 bd 1b fa 63 bc 72 f0 d2 bc a6 d4 e2 bc
       -0.032293662 -0.01391461 -0.025749419 -0.02768929
000320 40 d7 dc 3c 32 d1 c9 bc 02 1e fa bc 42 1f 82 3c
       0.026958108 -0.024635885 -0.030531887 0.015884046
000330 80 08 f1 ba 86 c0 1c 3b 59 ac 3f bc 9c c6 b2 bc
       -0.0018389374 0.0023918464 -0.011698806 -0.02182322
000340 4a 21 63 3c 97 95 06 bd bd 65 52 bd 1b 9c 0a 3c
       0.013862917 -0.032857504 -0.051366556 0.00846007
000350 35 5e 3e bd fe 5e f4 bb b0 a6 e1 ba 29 73 2c bd
       -0.04647656 -0.007457613 -0.0017215814 -0.042102013
000360 55 f6 1d bd eb 3c 22 bd 35 56 2f bd ad b8 36 bd
       -0.038565 -0.039608877 -0.042806823 -0.044609714
000370 1f 26 d9 bc 6f f1 1d bd 82 5c d2 3c 07 c9 ca bc
       -0.026507435 -0.038560327 0.025678877 -0.02475406
000380 89 1b b1 bb 09 df be 3c cc da 09 bd 88 71 b5 bc
       -0.005404894 0.02329971 -0.033655927 -0.022148862
000390 36 a9 bc bb 46 4a b9 bc 3a be 7d bb 8e 77 26 bc
       -0.005757476 -0.022618424 -0.003871812 -0.01016034
0003a0 3a 69 a5 bb 78 b9 8e bb a0 6d 04 3d 35 73 5c bc
       -0.0050479444 -0.0043556057 0.03233111 -0.013455202
0003b0 77 74 d0 3c 23 2f 9d bc bb 96 69 3c 11 98 70 bc
       0.02544616 -0.019187516 0.014257128 -0.014684693
0003c0 cb 6b 96 3c f2 4f c5 3c a2 b0 d8 3c ba 90 90 bc
       0.018361947 0.024085972 0.026451413 -0.017647136
0003d0 23 c0 bf bb 81 04 d8 3c 6c 05 0b bb 92 20 92 bb
       -0.005851762 0.026369335 -0.0021212948 -0.004459449
0003e0 51 7b 0a bd ee 3c 37 bc f7 2b 28 bc 89 8f 00 3d
       -0.03380901 -0.01118396 -0.010264388 0.031386886
0003f0 c1 16 4c bc b6 c3 cd 3b 42 39 58 3a ea 1f 9c 3c
       -0.012456597 0.006279434 0.0008248278 0.019058187

bias f4 [32]
000000 7f 29 7a bd 61 d0 14 bc c0 af 1f bd 3c 9f 01 3d
       -0.06107473 -0.0090828845 -0.038985968 0.031646
000010 23 ff 44 bc 37 b6 ff bb 1c 56 44 3c 55 1e 21 bd
       -0.01202372 -0.007803704 0.011983421 -0.039335568
000020 fc 24 dd 3c bc 5d 00 3c d6 1f db bb 78 29 f5 3c
       0.026995175 0.007834848 -0.0066871447 0.029927
000030 cf ff 31 bc 40 a6 f4 3c 83 cc 2b 3d 31 a1 a4 bc
       -0.010864212 0.02986443 0.041943084 -0.020096393
000040 8d a4 71 3c 6f c1 71 bc ff 78 e4 3c f2 ea 14 3d
       0.014748705 -0.014755591 0.027889727 0.036356874
000050 96 ed 94 bc eb 87 3b bd c0 8e b5 bc f0 14 38 3d
       -0.018179696 -0.04578392 -0.022162795 0.044941843
000060 06 8a 53 3d 2b 12 a4 bc 26 5f 06 bb 5e 5f bf 3c
       0.0516453 -0.020028194 -0.002050349 0.023360904
000070 04 c7 88 bc bb fd 50 bd aa c6 98 3c be b0 3e 3c
       -0.01669646 -0.051023226 0.018649418 0.011638818

weight f4 [64, 32, 5, 5]
000000 02 3f e0 bc 5f de 0f 3b 18 5c 2b 3c 22 45 b1 b9
       -0.027373794 0.0021952612 0.010458969 -0.0003381158
000010 4c e9 70 3c 44 ba 72 bc 45 de 6a bc f8 1e 44 3c
       0.01470406 -0.014814917 -0.01433522 0.011970274
000020 80 ea b8 3c 07 fd 20 3d 5a 9c 08 3d 28 3f 00 3d
       0.022572756 0.039303806 0.033352233 0.03131023
000030 f2 ef 28 3d b5 6e 8b 3b b8 cf a1 3c 6a f4 8d bc
       0.041244455 0.0042551407 0.019752368 -0.01732846
000040 f1 5a 95 bb ab e3 14 bb 54 1f 95 bc 6a 27 84 3c
       -0.00455796 -0.0022718708 -0.018203415 0.016132075
000050 8d 84 66 3b a2 12 db 3c 8c cd e9 3b b3 f6 10 3d
       0.0035174221 0.026742283 0.007135099 0.03539152
000060 dc d9 03 3b 81 c3 e2 3c 7d c3 ec 3c dc af 9f bc
       0.0020118868 0.027681114 0.02890181 -0.019493036
000070 36 f8 78 3c 10 38 58 bc 84 a9 37 bc e5 79 a2 bc
       0.015195897 -0.01319696 -0.011209849 -0.019833514
000080 b4 73 58 3c ae 4f 52 3c b4 f3 3e bc 43 3c dd 3c
       0.0132111795 0.01283638 -0.011654783 0.027006274
000090 2e fc 41 3d e4 cc 17 3d 13 9c eb bb 99 ee 2d 3d
       0.047359638 0.037060633 -0.0071902364 0.042463873
0000a0 0e f0 95 3c 28 4b 58 bc 15 79 06 3d 09 e2 09 3d
       0.018302944 -0.013201512 0.032830317 0.03366283
0000b0 b4 8c 0d 3d 55 c1 6b 3c 53 7c cc bc 68 0a 09 bc
       0.034558013 0.014389356 -0.024961626 -0.008364297
0000c0 0d fb 42 3c 97 17 97 3c fd 72 dd bb a9 9d 9d bc
       0.0119006755 0.018443866 -0.0067580924 -0.019240217
0000d0 24 c7 c0 3b 68 cc aa 3b f7 46 70 3c 82 64 11 3d
       0.0058831144 0.0052123554 0.014665357 0.035496242
0000e0 93 f5 08 bb 0c 3d 1b 3d 31 08 7a 3c a0 81 f9 bc
       -0.0020898327 0.037900016 0.015260742 -0.030457318
0000f0 12 c6 c5 bc 55 24 b3 3c 6d 1d 1b 3b a2 ea 5d 3c
       -0.024142299 0.02186791 0.0023668662 0.01354471
000100 34 f4 bd bc 7c c8 cf 3c 45 70 1d bc 8c c2 6b 3c
       -0.023187734 0.025364153 -0.009609287 0.014389645
000110 6d 1d e4 bc 6f d2 d4 3c 3a 8e f3 3c f3 8a b4 3c
       -0.027846063 0.025979249 0.029730905 0.022038912
000120 0c 07 e5 3c e6 80 b5 b9 48 81 e3 bb 86 5d 22 3d
       0.027957462 -0.00034619047 -0.0069429018 0.039639972
000130 2f 94 d4 3b c3 5a 4d bc 4f cd eb 3c ff 5f e0 3c
       0.0064873914 -0.012533846 0.028784422 0.027389525
000140 89 24 ad 3b 94 89 05 3c 94 fb e7 bc 7f be 43 3c
       0.0052838963 0.008150477 -0.028318204 0.011947273
000150 ec 43 16 bd ec bb 04 3d 01 a0 12 3d 75 b2 08 3d
       -0.03668587 0.03240578 0.035797123 0.033373315
000160 74 de 51 3c 8e f6 f8 3b 71 0f 98 3c cd f1 94 3b
       0.012809385 0.007597751 0.01856205 0.0045454265
000170 46 12 1e 3d 98 4b 01 bc f1 41 3f 3b e9 11 41 bb
       0.038591646 -0.007891558 0.0029183591 -0.0029460138
000180 5f b2 c9 3c e8 1f a6 bc f4 43 72 bc d3 bd 15 3c
       0.024621187 -0.020278886 -0.014786709 0.009139496
000190 76 bd 37 bc fb ec 59 3c 43 6d 0d 3c e0 44 d5 3b
       -0.011214605 0.013301129 0.008632007 0.0065084547
0001a0 d6 29 1c 3c 95 46 1c bc e7 35 3b 3c 7b fe 5d bc
       0.009531459 -0.009538312 0.011426426 -0.013549442
0001b0 36 3f 01 3d f0 b5 9d 3c 9e 7f df 3b df 6a c5 3c
       0.031554423 0.019251794 0.006820633 0.024098812
0001c0 4c 72 ae bb 19 d4 1b 3b 04 c9 a9 bc 14 9b ec 3b
       -0.005323684 0.0023777543 -0.020725735 0.007220635
0001d0 88 31 8f bc 09 18 33 3b e9 ff ee bc fd 46 e9 3c
       -0.017479673 0.0027327558 -0.029174762 0.028476233
0001e0 aa d2 81 3c d6 24 29 3c ee 6d c1 bc a7 88 e8 bc
       0.015847523 0.010323724 -0.023611989 -0.028385473
0001f0 5d 5e a2 bc e4 11 fa 3c d6 09 83 3b f6 25 52 bc
       -0.019820387 0.030526109 0.0039989753 -0.012826433
000200 43 e9 2e 3c ef 4d 88 bc f0 d9 06 bc 8f 70 59 bc
       0.010675731 -0.016638724 -0.008230671 -0.013271465
000210 17 c1 9d 3c b0 93 b4 bb 1a b2 1d bb 49 cb 2f 3d
       0.019257111 -0.00551077 -0.0024062456 0.042918477
000220 db 2c b5 3c 24 24 c0 3c 6c ee 4b 3a 0d f6 41 3c
       0.022116115 0.023454733 0.0007779363 0.011838448
000230 6b a9 41 3c cf cd dd 3c d9 95 35 3c 58 5b d7 3c
       0.011820178 0.027075676 0.01108309 0.026288673
000240 81 91 e6 bc 88 2e c8 3c d0 a2 65 bc 1e 52 10 3c
       -0.028145554 0.02443625 -0.014015868 0.008808641
000250 78 0e 56 3c b8 c6 80 bc c3 53 0d 3d b8 8a da bb
       0.013064973 -0.015719756 0.03450371 -0.0066693686
000260 1d 74 a1 bc 41 e4 40 bb 4f 24 43 3b 02 0a b3 3a
       -0.019708687 -0.0029432925 0.002977628 0.0013659599
000270 b9 05 57 3c 45 6f 9c bb 0e 07 86 3c 5c 60 53 bc
       0.013123923 -0.0047740065 0.016360786 -0.012901392
000280 94 b3 86 bc 38 17 f9 3a 5c d6 e9 3c 11 fd d6 3c
       -0.016443051 0.0019004112 0.028544597 0.026243718
000290 95 7f c7 3c 41 de 8c 3c d7 9e f8 3b d4 cf 8b bc
       0.024352828 0.017195823 0.0075872946 -0.017066874
0002a0 58 e8 bf bc ef 70 c5 bc 4f b1 fa bc a6 7c bb bc
       -0.02342622 -0.024101702 -0.030602125 -0.022886585
0002b0 78 ba 8d bc 45 0c c6 3c df ef e3 3c 0f 94 db 3b
       -0.01730083 0.024175772 0.02782434 0.0067009996
0002c0 e4 cc 70 3c d8 51 fd 3c 08 42 94 bc 16 68 d7 bc
       0.014697287 0.030922815 -0.018097892 -0.02629475
0002d0 20 92 af 3c c6 c1 d5 bc 21 7f 5f bc a5 a4 ac ba
       0.021431983 -0.026093375 -0.01364115 -0.0013171626
0002e0 c8 68 b1 bc 04 60 dc 3c cf e4 dc 3c 67 d2 32 bc
       -0.021656409 0.026901253 0.026964573 -0.010914422
0002f0 eb ee 9a 3c 9c b1 a5 bc f2 ce e5 bc 63 8f 6a 3b
       0.018912753 -0.020226292 -0.02805278 0.0035791032
000300 6b 96 69 3c b1 a0 61 bc ba b8 45 bc 1a d9 b0 bc
       0.014257054 -0.013771222 -0.012067968 -0.021587897
000310 84 9a b3 3c 6c 6b 9d 3b fb 5d 48 3c 9f 41 fa bb
       0.021924265 0.0048040655 0.012229438 -0.007637217
000320 6d 25 6a 3c 96 4f b4 3c 07 5a 0a 3d 54 a0 a7 3c
       0.01429115 0.022010606 0.033777263 0.020462193
000330 51 c6 58 bb 61 77 77 bb b9 90 6d bc d2 17 77 bc
       -0.003307719 -0.0037760364 -0.014499837 -0.015081363
000340 f4 43 26 3c 9a 49 17 bc 19 e4 96 3c a0 da 20 3a
       0.010148037 -0.009233857 0.018419312 0.0006136093
000350 5b 08 fe 3c e4 08 c7 bc ac 24 fc 3c 60 2f 71 3c
       0.031009844 -0.024296232 0.030779205 0.014720768
000360 f6 dd e6 3c 63 5e 75 3c 63 cf 60 3c aa 1e e8 bc
       0.028182011 0.014976117 0.01372132 -0.028334934
000370 ac bc b8 bc b5 d6 0d 3d 45 21 0f bd b0 9a f4 bc
       -0.022550903 0.03462859 -0.034943838 -0.029858917
000380 f1 c6 19 bd c9 4a 04 3d d3 75 d2 3c 49 43 2c bc
       -0.03754324 0.032297883 0.025690949 -0.010514089
000390 40 18 b6 3c f4 50 06 3d f9 09 f8 3b 61 4c 39 bc
       0.02222836 0.032792047 0.007569548 -0.011309714
0003a0 bb d2 6a 3c 0e 39 fd bc a2 08 a6 3b 51 14 e4 bc
       0.014332469 -0.030910995 0.005066947 -0.027841719
0003b0 f8 61 86 3a b6 ae 89 3a 86 54 1b 3d 29 88 07 3d
       0.0010252586 0.0010504338 0.037922405 0.033088837
0003c0 a3 bf 21 3d 94 a3 be 3b 42 2a f3 3c ac 58 c9 bc
       0.0394894 0.00581784 0.029683236 -0.024578415
0003d0 66 15 27 3d b8 a9 d2 3c 52 dc 10 3d 6b 56 24 3b
       0.04079189 0.025715694 0.035366364 0.0025075923
0003e0 64 0f 2a bc e5 9a 89 bc 57 93 9a 3c e3 53 87 bc
       -0.010379646 -0.016797492 0.018869085 -0.016519492
0003f0 6f 6e 0e 3c b4 a4 4a bc bf 47 8f 3c 8a 0f d3 bc
       0.008693322 -0.01236837 0.017490266 -0.025764246

bias f4 [64]
000000 2a cc 37 bc 64 dd 21 3d 10 d8 97 3c 7c c0 ba 3c
       -0.01121811 0.039517775 0.018535644 0.022796862
000010 d7 c9 81 3b 28 d0 75 bc c4 a1 eb 3c 17 1c 82 3b
       0.0039608288 -0.015003242 0.02876366 0.0039706337
000020 fb 7c 69 3b 2c c9 89 bb eb aa 1f 3c 91 2b 76 3c
       0.0035627473 -0.0042048898 0.00974534 0.0150250355
000030 ad f9 41 bd ca 01 90 bb bc 66 cc 3c 79 9f 89 bb
       -0.04735725 -0.0043947445 0.024951331 -0.004199919
000040 c6 03 f7 3c 48 ff bc bc a2 24 f1 bc 5e 3d 7d 3a
       0.030153167 -0.023070946 -0.029436413 0.00096603285
000050 36 fd a6 3c bb d1 27 bc 55 f2 b7 bc e1 f0 eb bb
       0.020384412 -0.010242875 -0.02245442 -0.007200346
000060 0c ba b7 3c 0c 4a 4a bc ec 40 dc 3b d4 2b d7 bb
       0.022427581 -0.012346756 0.0067216065 -0.006566504
000070 4d b7 8f 3c 35 87 d5 bb ea 0b 24 3c 94 c2 9d b8
       0.01754346 -0.006516362 0.010012606 -7.5225864e-05
000080 76 0e 0d 3c bf e8 91 3b 9c e2 11 bd 5d 15 32 bd
       0.008609405 0.0044527943 -0.035616502 -0.043477405
000090 d8 0b 93 3c 03 43 15 3d d8 e1 97 bc ca f9 07 bc
       0.017949983 0.03644086 -0.018540308 -0.0082993
0000a0 41 0a f0 3c ad 69 65 3c 52 9d d5 bc 46 2f fa 3b
       0.029301764 0.014002246 -0.026075993 0.00763503
0000b0 b8 96 b4 ba bb b7 80 bc f2 44 3f bd 93 4b a8 3c
       -0.0013777828 -0.01571261 -0.04669661 0.02054385
0000c0 b6 74 5b 3c 48 de af 3c 4e 38 e0 bc 68 37 e6 3b
       0.013394525 0.021468297 -0.027370598 0.007025648
0000d0 84 8a 46 bc e2 b8 b5 bb d4 ff ba bc ac 1e 5d ba
       -0.012117986 -0.0055457214 -0.022827066 -0.00084350514
0000e0 f4 2e cd 3b 32 aa 22 3d 8e d4 cb bb 91 05 05 3d
       0.0062617008 0.039713092 -0.006220407 0.03247601
0000f0 70 8d 75 bb 6e a5 e7 bb 6d e7 05 3d 9d 9b 9d 3c
       -0.0037468337 -0.0070692813 0.032691408 0.019239241

weight f4 [64, 1024]
000000 75 eb a5 bc 15 ad e7 bb 1d f4 a6 3c f4 45 3f bc
       -0.020253876 -0.0070701935 0.020380074 -0.011674393
000010 e2 b8 35 bc ce 90 5c bc 57 74 37 bc 85 3b cf 3c
       -0.011091443 -0.0134622585 -0.011197171 0.025296936
000020 d4 65 34 3c 1a 88 b8 bc a1 e6 16 3c 8e 4f 93 3c
       0.011010606 -0.022525836 0.00921026 0.01798227
000030 29 ac dc 3b 5d 02 13 3c 1e 9d 1e bc c6 64 2b bd
       0.0067343903 0.008972731 -0.009681014 -0.041844152
000040 f3 ba d1 3b 6f 71 31 bc 01 55 a1 bc 13 f3 94 bc
       0.00640046 -0.010830267 -0.019693853 -0.018182313
000050 e2 02 02 bc 81 61 c4 bb 10 b7 95 bc 2a d2 e9 bb
       -0.007935258 -0.0059930687 -0.018275768 -0.007135649
000060 d0 2b 9e b9 46 4a a5 3b c1 0a 9d 3b 11 9c 0f bc
       -0.0003016875 0.0050442545 0.0047925417 -0.0087652365
000070 e9 61 67 bc 16 b9 f4 3c 0e 61 17 3b 4a f4 f6 bc
       -0.014122465 0.029873412 0.002309862 -0.030145783
000080 5d 78 20 3c 3e 5f 8f 3c e2 ef d3 bb 6c cc e6 bc
       0.009794322 0.01750147 -0.0064678052 -0.028173648
000090 e9 a4 c3 bc 6a e5 d2 bc c5 dd 80 bc fd fd 95 bc
       -0.023882346 -0.025744159 -0.015730748 -0.018309588
0000a0 8c f9 6d bc c2 5a 3c 39 57 69 76 bc 5a 09 b8 bc
       -0.014524829 0.00017962887 -0.015039763 -0.022465397
0000b0 dd 8e 8c bc 74 cc ed 3a ac ad 6c b9 77 d4 c7 3b
       -0.017157966 0.0018142597 -0.00022571412 0.006098326
0000c0 62 88 a5 3c 52 71 3a 3c 82 77 d6 bc 20 8a 18 3a
       0.020206634 0.011379557 -0.026180033 0.0005818922
0000d0 5e 43 0d bc 12 42 b4 3c d0 b9 39 bc 36 00 77 3c
       -0.008622019 0.022004161 -0.011335805 0.015075734
0000e0 2a 9c b4 bb 61 26 36 3c 99 37 1b bb 28 89 c8 bc
       -0.0055117803 0.011117549 -0.0023684262 -0.024479464
0000f0 ed 25 a2 bc b2 c4 50 3c 45 44 be 3b fd 95 d2 bb
       -0.019793475 0.012742208 0.005806478 -0.0064265714
000100 6b d6 98 3c 75 e1 de 3c 50 94 51 bc 2f 0f 3f bc
       0.01865693 0.027207116 -0.012791708 -0.011661335
000110 fa 5e b1 bc 2d 91 66 bc b7 17 20 bc 0a 04 64 39
       -0.021651734 -0.014072699 -0.009771279 0.00021745279
000120 9e 7c 00 bd 6e ed ee bc 54 78 8a bc d9 fc 61 3c
       -0.031368844 -0.02916595 -0.01690308 0.013793194
000130 03 b2 8d bc 17 25 98 bb 38 32 85 3c 2a fa 5e ba
       -0.017296797 -0.0046430933 0.016259298 -0.0008505905
000140 ef e3 37 bc 1e 67 70 3b ef 17 b9 bb a9 b8 fe bc
       -0.011223777 0.0036682556 -0.005648605 -0.031093912
000150 a9 27 e1 3c 3a e5 fe bc ed 4a 20 bc 34 fd 97 3a
       0.027484732 -0.031115163 -0.009783489 0.0011595846
000160 8e 03 c0 3b 1f a2 11 bd 07 ae 1d bd 86 53 de 3c
       0.0058597988 -0.035555 -0.038496044 0.027139436
000170 22 c2 5b 3b 5f 4b 88 bc 5d 1e cc bb cb e7 96 bc
       0.003353246 -0.016637502 -0.0062292055 -0.018421074
000180 a3 01 9d ba 4b fd 6c 3c 5a af 07 ba f9 b3 00 bc
       -0.0011978637 0.014464687 -0.0005175971 -0.007855409
000190 2e 6c c7 bb 63 f6 af 3c 4c 65 04 3c 39 e5 2b 3c
       -0.006085894 0.021479791 0.008080792 0.010491663
0001a0 e1 3d 99 bb ee 71 87 3c 81 29 16 bc d2 a1 69 bc
       -0.004676566 0.016533818 -0.009165169 -0.014259772
0001b0 57 0c f3 3c ab c7 e7 bc 55 0f cf bc 1c e6 04 3d
       0.02966897 -0.028293451 -0.025275866 0.032446012
0001c0 a2 e1 82 bc 51 f5 bf 3b 43 6a a1 3c 2c e2 ad 3c
       -0.01597673 0.0058581014 0.01970399 0.021226011
0001d0 17 bf d8 3c b2 1c ac 3c 1a 48 41 bc 09 55 ad 3c
       0.026458306 0.021009777 -0.0117969755 0.021158712
0001e0 12 89 ad 3c d2 9b c8 3c 74 f9 b9 3b 1f 5f 5d bc
       0.021183524 0.024488363 0.005675489 -0.013511448
0001f0 9f 9f 2c bc 1f 52 1a bc b7 16 a7 3c 48 32 ed bc
       -0.0105361035 -0.009418993 0.020396573 -0.02895464
000200 b7 83 3e bc ab 11 75 bb a0 53 ad 3c da 7d a2 3c
       -0.011628083 -0.0037394564 0.02115804 0.019835401
000210 f4 c7 b6 ba dd 6b 00 3c e4 c7 26 3c 19 b5 fb bb
       -0.0013945089 0.007838217 0.010179494 -0.0076815006
000220 fc 86 7c bc 57 ae 07 bd 00 62 a1 bc 12 c6 5c ba
       -0.015413042 -0.033125248 -0.01970005 -0.0008421849
000230 0c 1d f0 3c e6 a7 cd 3c 08 f9 82 bb 2e 27 66 bc
       0.029310726 0.025104474 -0.003996972 -0.014047427
000240 fb b3 91 bc d0 43 a2 bc 34 37 4f bb 64 b8 39 bc
       -0.017786017 -0.019807726 -0.0031618597 -0.011335466
000250 00 fd 80 ba 5a 52 8c 3b 1a 89 e4 bc 4d d6 e3 3c
       -0.0009841025 0.004282278 -0.027897406 0.027812148
000260 0b 7e 61 3c ba d8 14 bc 06 c6 f3 3c e9 e7 c2 bc
       0.013762961 -0.009084875 0.02975751 -0.023792224
000270 f3 22 a1 3c b4 34 14 bd a1 64 3e 3c 20 08 0a bd
       0.019669985 -0.036183074 0.0116206715 -0.033699155
000280 c6 52 02 bd 32 cd 65 bc 46 74 e1 bb bb 54 86 3b
       -0.03181722 -0.014025973 -0.006880316 0.004099456
000290 9e e3 e1 3b 51 6d e0 bc 2a af bd bc 60 55 ca bb
       0.006893589 -0.027395876 -0.023154814 -0.0061747283
0002a0 64 a4 29 3c e1 b2 fd bb 70 16 0a bc 27 11 4d bc
       0.010354135 -0.0077422713 -0.008428201 -0.0125162965
0002b0 fa 7a 09 3d 97 f5 d1 3c eb c0 aa 3c 39 81 d8 bc
       0.033564545 0.025629802 0.020843944 -0.026428806
0002c0 78 37 b1 bc 7d da 8f bc 88 b1 d9 bc 82 04 8e 3c
       -0.021632895 -0.017560238 -0.026573911 0.017336134
0002d0 b0 51 30 bc e6 21 f6 3c 52 f3 80 3b 31 4e 02 bd
       -0.010761663 0.03004546 0.003935256 -0.03181285
0002e0 9e 32 0a 3b 6d 84 51 3c fa 6c b9 bb 5e dc e6 3c
       0.00210873 0.01278792 -0.005658743 0.028181251
0002f0 b1 51 0f bb 7d 2e ed bb 52 e9 98 3c d9 f4 95 3a
       -0.002186876 -0.007238208 0.018665943 0.0011440768
000300 dd 0c 01 bb dd 86 29 bc 57 1b 93 3c 37 e8 87 3c
       -0.0019691505 -0.010347095 0.017957373 0.01659022
000310 19 89 8d bc b7 e6 7b 3b 53 68 b5 bb 4e 92 0d 3c
       -0.017277287 0.0038437077 -0.005536118 0.008640839
000320 3e 96 ac bc e9 a6 39 bc 0f 74 96 bc d6 33 a1 3c
       -0.021067735 -0.011331298 -0.018365888 0.019678038
000330 53 3a 9a 3c 47 57 b0 bc 9e a2 7b 3c ad 66 8e bc
       0.01882664 -0.021525992 0.015358595 -0.017382944
000340 69 60 b0 bc 63 56 73 bc 50 54 b2 bc 28 2f ed bc
       -0.021530347 -0.014852139 -0.021768719 -0.02895315
000350 49 ec 92 3b 24 ad aa bc f6 bd b2 bc 8d 8f 07 bd
       0.004483734 -0.020834513 -0.021819096 -0.033095885
000360 8a 5f af bb 15 72 ca bb 9e 10 0b 3d e4 c8 ba 3c
       -0.0053519653 -0.0061781504 0.033951394 0.02280087
000370 61 58 76 3c 25 99 1b 3b b6 dc 6a 3a f9 7c 9e 3b
       0.01503572 0.0023742404 0.000895928 0.0048366752
000380 52 75 c3 3c 4b 13 f0 bc 5e a4 e5 3c 86 1e 5d bc
       0.023859654 -0.029306075 0.028032478 -0.013496047
000390 4f d3 3e 3b bb ea 6e 3c af 05 bf bb ee d6 66 3c
       0.002911765 0.014582331 -0.005829535 0.014089329
0003a0 46 4c 7d bc 21 e4 e8 3b 9e d9 3f 3c 24 aa 38 3c
       -0.01546008 0.007107273 0.011709599 0.011271033
0003b0 f1 44 93 3c 18 1c 8d bb a2 7e c5 3c 92 d8 5a 3c
       0.01797721 -0.0043063276 0.024108235 0.013357298
0003c0 7d c3 fd 3b ed 32 e4 bb 24 4e 55 3c 55 e5 aa 3c
       0.0077442513 -0.0069640786 0.013019118 0.020861307
0003d0 5e d8 30 3c 63 46 9d bc 89 80 cd bc 35 fc bf bc
       0.010793773 -0.019198602 -0.025085704 -0.023435691
0003e0 47 09 d5 3b f7 ae 6f bc a8 84 a5 bc 79 06 bf 3c
       0.00650135 -0.014629117 -0.020204857 0.023318516
0003f0 b8 eb ad bc c1 ca 1e 3d 0b ff 58 3c 71 4a 23 bc
       -0.021230564 0.03876758 0.013244401 -0.009966479

bias f4 [64]
000000 d4 d8 87 3c 9c 73 aa bc fc b7 00 3d 1b 7e 8b bc
       0.016582884 -0.02080708 0.03142546 -0.017027905
000010 56 65 9c bc 7c 65 ca 3c 3c 82 10 3c b7 42 89 bb
       -0.01909129 0.024706595 0.008820113 -0.004188861
000020 11 98 05 bc f0 cc 6c ba 2a 58 b4 3c 5a a2 0e bc
       -0.008153931 -0.00090332236 0.022014696 -0.0087057
000030 91 41 18 3d 24 db 90 3b 19 c3 ea b9 42 77 ee bc
       0.037171904 0.004420655 -0.00044777317 -0.029109601
000040 4b af e1 bb fc 2f fb bb 33 21 16 bd 9f 06 cb 3c
       -0.0068873516 -0.0076656323 -0.036652755 0.02478343
000050 7f fe 12 3c 9f ca 02 bd e6 0b 2b bc 14 9a de bc
       0.008971809 -0.031931516 -0.0104398485 -0.02717308
000060 10 a1 11 bc 2b f8 cb 3c ab 3f 08 3c 74 fc 18 3d
       -0.008888498 0.02489861 0.008315961 0.037350133
000070 25 b3 9e bc 50 e5 a6 3b 3e 31 1f 3c 77 ce ca bc
       -0.019372532 0.005093254 0.00971633 -0.024756653
000080 3c 66 d6 bc 75 d9 87 3c 24 d6 c0 bc 2a 79 fe 3b
       -0.026171796 0.016583184 -0.02353961 0.0077659087
000090 d2 9e 19 3d af 6a c3 bc 5b 23 c0 3b ae 39 bb 3c
       0.03750498 -0.023854582 0.0058635897 0.022854652
0000a0 d9 67 02 3c f9 30 ae bb f5 94 bf bc 2b 4b 11 bc
       0.0079593295 -0.0053158966 -0.023386458 -0.008868019
0000b0 a6 a7 cf 3c ed 7a 46 bc e7 a9 9d bc d4 6f b0 bc
       0.025348496 -0.012114269 -0.019246055 -0.021537699
0000c0 2e 48 0c 3c ed c9 5d bc 63 1f 82 3b 22 a4 cc bc
       0.008562131 -0.013536912 0.0039710267 -0.024980608
0000d0 ad 11 ef 3c 86 27 11 bc e6 37 3e bc 1f 62 c9 bc
       0.029183233 -0.008859521 -0.011610007 -0.02458292
0000e0 41 ff c0 bc 23 06 86 3b b1 c3 c0 3c 5e 32 e5 3c
       -0.023559215 0.004090087 0.023530813 0.027978119
0000f0 56 8e fb ba 4e e4 a4 3c 4d 44 ae 3c 18 31 24 bd
       -0.00191922 0.020128395 0.021272803 -0.040085882

weight f4 [10, 64]
000000 cd 1d 21 bd 8f cc a3 bd f8 a2 a9 3b 28 9f b6 3d
       -0.03933506 -0.07998001 0.005176898 0.089170754
000010 38 39 50 3b 90 5e c5 3d ee 2b af 3d 62 92 28 3c
       0.0031772386 0.09637177 0.08553301 0.010288807
000020 d3 7e 7c 3d a6 06 e1 3d b3 7b e2 3d 12 c2 13 be
       0.061644387 0.10987596 0.1105875 -0.144295
000030 f0 00 fd bd f1 01 b0 bd 43 25 9e 3d ee 84 55 3d
       -0.123536944 -0.0859412 0.07721951 0.052128725
000040 37 6d 58 bd 54 e3 f3 3d ae 03 c3 3b 70 13 01 be
       -0.05283853 0.11908594 0.0059513664 -0.12605071
000050 75 f6 fd 3d cc 3c 00 bd 35 c4 f4 bd 4d b7 e9 bd
       0.124005236 -0.03130798 -0.11951486 -0.11411915
000060 f4 fe 52 bd 3f ed 9e bd b0 4a 84 bd 38 c1 da bd
       -0.051512673 -0.07760095 -0.06459558 -0.10681385
000070 c1 b2 c9 bd c7 89 1d bd b2 81 a1 3d 97 66 a9 bd
       -0.09848548 -0.038461473 0.078860655 -0.082715206
000080 45 8f c2 3d eb d8 9d 3d ea 69 53 3d 41 70 e1 bd
       0.09499983 0.077073894 0.05161468 -0.11007739
000090 79 d5 a7 bd 6e d5 f9 3d f8 2c e3 bc 98 d6 0a 3e
       -0.081950136 0.121989116 -0.027731404 0.13558424
0000a0 5c 8d b6 3c 79 f4 28 bd 7d 2a 84 bd 10 23 00 3e
       0.022284202 -0.041248772 -0.064534165 0.12513375
0000b0 b8 c8 ea bd 92 f7 ad 3d 8d 95 2a 3d 21 e1 7e bc
       -0.11464065 0.08494486 0.04164653 -0.015556605
0000c0 90 9b c0 3c 0c ec e4 bb 66 0e b3 bd ff 6c ef 3d
       0.023511678 -0.006986147 -0.08742981 0.11690711
0000d0 bb 2e c0 3c 18 bb de bd c2 49 e8 3c 09 39 85 3d
       0.023459783 -0.10875529 0.028355483 0.06505019
0000e0 ce 16 df bc f5 ea ff 3c 07 18 d2 bd cd 8f ae bd
       -0.027232554 0.031239966 -0.10258489 -0.085235216
0000f0 26 fb a4 3d 84 5f c2 3d 22 46 46 bc 36 b9 c1 3c
       0.08055715 0.094908744 -0.012101682 0.023647886
000100 ce 28 2a be e3 bb 75 bd b4 f6 08 3c 9a 55 c2 3c
       -0.16617128 -0.059993636 0.0083596 0.023722459
000110 37 55 1f be dc 39 0f 3d 2d 37 b1 3d 00 63 bb 3d
       -0.1555985 0.03496729 0.08653102 0.09149742
000120 2e 93 63 3d dd 95 80 bd 2c 2e a4 bd 2e ca 92 bc
       0.055560283 -0.06278584 -0.08016619 -0.017918672
000130 7b 49 da bd 1a 48 86 bd 2b 40 af 3d 53 92 34 3e
       -0.106585465 -0.06556721 0.08557161 0.17633943
000140 c3 2a 2d bd d3 ef bb 3d 43 4b 4b bc e3 d6 1d 3e
       -0.04227711 0.09176602 -0.0124080805 0.15414004
000150 a2 ae 47 3d 1d e0 90 3d 26 74 8f 3d eb 30 ab bd
       0.048750527 0.07073996 0.070045754 -0.0835894
000160 e4 82 da 3d 32 ae 75 bc 61 93 28 be 30 b7 41 be
       0.10669497 -0.014995145 -0.1646247 -0.18917537
000170 ea 34 1c bc d0 4e 2f 3e b0 b3 a7 bd 47 1d 95 3d
       -0.0095341 0.17119908 -0.081885695 0.07280975
000180 a4 e2 ee bd 13 5c 84 3d 7e 02 50 bd a5 79 13 3e
       -0.11664322 0.06462874 -0.050783627 0.14401872
000190 1e 61 12 3e 7d d2 ab 3c 24 df c8 3d 6e 7b 38 bd
       0.1429486 0.020974392 0.09808186 -0.045039587
0001a0 77 2d 05 be c2 c5 bd bb c0 ea e7 bd 18 f6 a0 3c
       -0.13005625 -0.005791397 -0.11324072 0.019648597
0001b0 af 2c 8f 3d a5 a4 65 3d 93 ec ab 3b 56 35 0e bd
       0.069909446 0.05606522 0.0052467077 -0.034718834
0001c0 28 4c 3b 3e 81 d9 d5 bd 72 37 e6 bd fe 0f 3a 3d
       0.1829077 -0.10441876 -0.11241044 0.045425408
0001d0 04 90 05 bc 98 a1 6c 3b 7e 30 e6 3d f6 b2 fb 3d
       -0.008152012 0.003610706 0.11239718 0.122899935
0001e0 92 19 51 bd 2d 5e 97 3d 1b e0 ea 3d 65 c6 be bc
       -0.051049776 0.073910095 0.11468526 -0.023287961
0001f0 33 2d c5 3c c5 88 fb 3c 0e c8 09 3d d6 bd bf bd
       0.024069404 0.030704865 0.033638053 -0.0936238
000200 fa 8d a0 3d 90 76 f6 3d d5 17 03 be d3 1e 47 bd
       0.0783958 0.12034333 -0.1280206 -0.04861338
000210 61 b8 b7 bd 88 65 15 bd 63 b4 43 bd 11 fe 13 3d
       -0.08970714 -0.03647378 -0.047779452 0.03613097
000220 27 67 06 3e db 31 99 3d 32 3a 23 3e 50 c6 e1 3c
       0.13125287 0.07480212 0.15940168 0.027560383
000230 3e e4 ee bd ff ed bd bd a7 31 4c bd 4b 87 99 bc
       -0.116646275 -0.0927391 -0.04985204 -0.01874127
000240 6f f3 10 be 52 ed db bd 71 e5 ab bd 6c f2 4c bd
       -0.14155363 -0.10738625 -0.08393372 -0.05003588
000250 76 71 44 3c 23 92 b2 3d 0c 95 80 bd 91 46 a7 3d
       0.011989942 0.087192796 -0.062784284 0.08167756
000260 f4 e2 c4 3d a0 4b e0 bc d4 eb 27 bd 3f 3f ea bc
       0.096136004 -0.02737981 -0.040996388 -0.028594611
000270 8c e6 49 bd b7 2b 88 ba 08 a4 0b 3e 3f be 83 bd
       -0.049292132 -0.0010389005 0.13636792 -0.06432771
000280 49 9b dc 3d 2d 23 9c bc cb c0 dc 3d 18 c2 7d bd
       0.10771806 -0.019059742 0.1077896 -0.06195268
000290 c2 16 6f 3d 76 9b fa bc 08 0b f2 bd 16 17 8b 3d
       0.058371313 -0.030591708 -0.1181851 0.06791513
0002a0 5a db 13 3c 2c 2c 4c bd fa 65 76 3d 4e 49 25 be
       0.009024465 -0.049846813 0.060155846 -0.16141245
0002b0 22 d6 f4 3c 88 8e fd 3c c6 01 a1 bd cd ff ce bd
       0.029887263 0.030951753 -0.078616664 -0.10107384
0002c0 96 4e da bb c1 b7 be bd 39 6d 69 bc de d6 bc 3d
       -0.0066622 -0.09312392 -0.014247232 0.0922067
0002d0 62 23 13 bc 37 17 4b 3d 37 7c 76 bd d3 d3 38 be
       -0.008980604 0.049582686 -0.060177054 -0.18049555
0002e0 6b ed c3 3b 0c 8c f5 bc 48 31 a2 ba 01 1f 8c 3d
       0.00597923 -0.029974006 -0.0012374306 0.06841851
0002f0 0c d0 38 3d bc f5 00 3e a1 2e c1 3b 42 3f 8b bd
       0.045120284 0.1259374 0.005895451 -0.06799175
000300 cb 0f 0d be ad 6a 1a 3d bb 18 1b bd 79 da 0a be
       -0.13775556 0.03769939 -0.03786538 -0.13559903
000310 55 58 00 be 06 4a d1 bd c0 24 a5 bd dc 7b 7d 3c
       -0.12533696 -0.10219197 -0.0806365 0.015471425
000320 56 67 14 bd e3 42 32 bc d8 b6 b7 3d d5 bf f7 bc
       -0.03623136 -0.010880205 0.089704216 -0.03024284
000330 6d 7e c9 bd ad 68 c1 3d 6a 8d 89 bb 5d a2 5d 3d
       -0.09838567 0.094437934 -0.004197766 0.05410992
000340 15 3a 2a 3d 45 8c 7a bd 09 99 8a 3d 6d d5 90 bd
       0.041559298 -0.061168928 0.067674704 -0.07071958
000350 bc 4f 09 be 77 46 a1 bd 52 c3 b4 3d ff 83 c5 3d
       -0.13409323 -0.07874768 0.08826317 0.09644317
000360 23 20 bd bd a1 bc ff 3d 15 e6 8c bc 6d 87 91 3d
       -0.09234645 0.1248715 -0.017199555 0.071059085
000370 30 9f 33 3c e0 4f 20 3d 48 19 ff bc 46 b9 b4 bc
       0.010963246 0.039138675 -0.031139985 -0.022061002
000380 f5 fa 1c be a2 8b d6 bd e4 ba 58 3d 75 bc a1 bd
       -0.15330108 -0.104758516 0.052912608 -0.078972735
000390 b1 27 c7 3d a9 63 18 3c 2e 39 70 bc 08 77 07 be
       0.097243674 0.009301105 -0.01466207 -0.13229
0003a0 69 9b 42 bd fe 07 b5 bd ea 25 cf 3d b6 5e 9b bd
       -0.047511492 -0.08839415 0.101146534 -0.07586424
0003b0 82 1e de bd 53 4c 45 3d 24 ea 70 3d 04 cc ce 3d
       -0.10845663 0.04816849 0.058817044 0.10097507
0003c0 5d 36 84 3d 3b ca 8d 3c fe d8 9d 3c bb 70 20 3d
       0.064556815 0.017308345 0.019268509 0.03917001
0003d0 f5 d3 0d 3d c4 d5 a1 3d f3 f9 0b 3d 2e 78 f8 bd
       0.034625966 0.07902101 0.034173917 -0.121322975
0003e0 78 a3 15 3c b1 29 bc 3c ea 3a 36 bd f0 df b3 3d
       0.009133212 0.022969099 -0.04448978 0.08782947
0003f0 d8 23 40 3d d3 8f 8a 3d 49 0e 91 bd 24 b6 84 3d
       0.046909183 0.067657135 -0.07082803 0.06480053

bias f4 [10]
000000 eb 93 47 bd fd 98 e0 bc b3 63 b9 3d 37 6c 85 3d
       -0.04872505 -0.0274167 0.09052219 0.06514781
000010 61 cb 30 bc 2c b2 86 3c 63 89 06 3e f0 85 84 bd
       -0.010790677 0.01644238 0.13138346 -0.06470859
000020 1d b5 0b be e8 58 f0 bc
       -0.13643308 -0.029339269
