chaoyang_2.pth (torch, 588587 bytes, 10 tensors)

weight f4 [32, 3, 5, 5]
000000 e5 6d 22 bd d3 29 05 3e 56 92 d1 3d f3 47 54 3d
       -0.039655585 0.13004236 0.102329895 0.05182643
000010 f6 65 5c 3d 06 b3 8c bd 26 b5 d9 3d 43 1c b1 3c
       0.053808175 -0.068700835 0.106302544 0.021619922
000020 90 9d 02 3e c5 bc ab 3c 33 dc 0f 3e e9 3c 14 3e
       0.12755418 0.020964036 0.14048843 0.1447636
000030 41 8e 56 3d 99 20 58 3d 81 6e 88 bd 1f 98 9b 3d
       0.052381758 0.052765463 -0.06661702 0.07597374
000040 28 ad d7 3d c5 98 91 3d 5c ec 1b 3d 61 56 dd 3d
       0.10531074 0.071092166 0.038067207 0.10807491
000050 15 4e b5 3d bf cd 0c bd 80 0f b0 3d 09 b7 d1 3d
       0.088527836 -0.034375902 0.085967064 0.10239989
000060 26 47 08 bd 88 60 cb 3d 2c 87 61 bd 34 6b 84 3c
       -0.033270977 0.09930521 -0.05506055 0.0161644
000070 02 98 9f bd e2 7d a7 bd 5b 80 ce 3d 30 d6 b7 3c
       -0.07792665 -0.08178307 0.100830756 0.022441
000080 f1 9c 15 bd 76 fe 6a bd e8 6f 86 3d 30 d4 02 3e
       -0.036526624 -0.05737158 0.06564313 0.12776256
000090 13 62 96 3d 20 f4 74 3d 3f ff bd 3c 31 f7 74 3c
       0.07342925 0.05980313 0.023193 0.014951513
0000a0 da 01 27 3c ba 29 38 bc 96 80 08 3e 2b 90 20 bd
       0.010193313 -0.011240417 0.13330302 -0.03919999
0000b0 a2 ea 90 bd 6f 26 99 3d 0c cc 40 3d 9a 17 b0 3d
       -0.07076003 0.07478034 0.047069594 0.08598252
0000c0 7b e6 49 bd ac f2 9d 3d b2 9f 20 3d 00 32 e1 bc
       -0.04929207 0.077123016 0.039214797 -0.027489662
0000d0 c1 8c e7 bc ac a3 1d bd 26 03 d0 bd d1 82 40 3a
       -0.028265359 -0.038486168 -0.101568505 0.0007343712
0000e0 1e 16 5d bd ac c1 0e be 50 3d 54 bc 35 73 ab bd
       -0.05397617 -0.13941067 -0.012954071 -0.08371583
0000f0 43 ef 2f bb d9 20 66 3d aa b9 05 be 6d 65 7f bd
       -0.0026845492 0.05618367 -0.13059106 -0.062352587
000100 9f ba 8a 3d f9 50 28 3d 64 89 87 3d b8 48 7f 3c
       0.067738764 0.041092847 0.06618002 0.015581302
000110 e4 71 58 bd 25 64 a0 bc 08 14 eb bd 53 e5 70 3d
       -0.05284299 -0.019579003 -0.1147843 0.05881245
000120 cf f9 bc bc 8d 35 39 bd da 3e b7 bd b0 b4 17 bd
       -0.023068337 -0.045217086 -0.08947535 -0.03703755
000130 4a 4c 67 bd d0 0e ef bc ba d4 51 3c 03 5b f1 bc
       -0.05646924 -0.029181868 0.012807066 -0.029462343
000140 33 0f 07 bd 2e c2 e1 bd 47 5d b8 3d f9 e7 a6 bd
       -0.03297348 -0.11023365 0.09002166 -0.08149714
000150 63 bb ee 3c 83 00 bf bd 1c 34 f5 3d 66 1c bc bc
       0.029142087 -0.093262695 0.1197283 -0.02296276
000160 cd 51 1b 3d 89 f5 94 3c 9a 58 50 3d b4 9b d8 3d
       0.03791981 0.018183487 0.050865747 0.10576573
000170 66 c0 01 3e 2c 87 d6 3d 47 4f 10 3e 29 6f ad bd
       0.1267105 0.10475001 0.14092742 -0.08468468
000180 78 ee c5 3d ee 5d 3d 3d 44 b7 36 3d 2a c9 03 3e
       0.09664625 0.046232156 0.04460837 0.12869707
000190 79 c7 cf bd 70 6c 8f bd c5 2e 16 bd f3 5b 36 3d
       -0.10145468 -0.07003105 -0.036665697 0.044521283
0001a0 46 9d c8 3c 1f 99 c9 3c 15 7b 50 3c 44 99 ea bd
       0.024489056 0.024609147 0.012724658 -0.11455014
0001b0 44 3b 86 bd fb fe f3 3c b8 63 67 bd 19 2a da 3d
       -0.06554273 0.02978467 -0.056491584 0.10652561
0001c0 b7 d0 c5 bd 60 b3 89 3d 08 a9 82 3d 20 1f f3 bb
       -0.0965895 0.06723666 0.063798964 -0.007419482
0001d0 a4 6f eb 3d f7 d6 b6 3d c8 72 bf 3d a1 e5 95 3d
       0.11495903 0.0892772 0.09348065 0.07319189
0001e0 dc f9 2b 3d 4f 9c 89 bd 69 42 b1 3c e2 91 de bd
       0.04198633 -0.067192666 0.021638112 -0.10867669
0001f0 55 c9 a7 3d 2e ea e0 bc 54 fa 44 bd 1b 01 82 3b
       0.08192698 -0.027455416 -0.048090294 0.003967417
000200 5a b8 4d bd ac f3 0d bd 9e b7 d9 3d 4a 2f bb 3d
       -0.05022464 -0.03465621 0.10630725 0.09139879
000210 ce c9 92 3d 09 0b 68 3d 96 17 f7 3d f9 be 02 3e
       0.071673974 0.05665115 0.120650455 0.12768163
000220 99 22 8d 3d b6 f6 eb 3d f0 d3 aa 3d 55 31 9c 3d
       0.068913646 0.11521666 0.08341205 0.07626597
000230 8b 00 0e 3e db cc 4b 3d 26 9c 16 3e ae 6e 1a bd
       0.13867395 0.049755912 0.14708003 -0.03770321
000240 9c 31 6e 3d 50 65 cb bd bf f6 e1 3d 2c d4 ad 3d
       0.05815278 -0.09931433 0.11033391 0.08487734
000250 9a 61 ab 3d c5 60 8b 3c d1 12 bb 3d 48 ec 8c bd
       0.083682254 0.017013917 0.09134448 -0.068810046
000260 b9 85 b2 3d b3 11 32 3d 4d 46 ff bd 80 1a a4 bd
       0.08716912 0.04347391 -0.12464581 -0.08012867
000270 c7 42 f5 3c 2f 0d c3 3c a3 6c 3f bd 4a d5 e9 bd
       0.029939068 0.023809997 -0.046734463 -0.11417635
000280 a7 c9 97 3d f7 b2 67 3d b4 3d c5 3d 21 9f 8e 3d
       0.07411509 0.05656716 0.096309096 0.06963945
000290 20 97 cc 3d 6c 1e bf 3d ee 34 99 3d 9a 45 0f bc
       0.09989762 0.093319744 0.07480799 -0.008744622
0002a0 7a 45 e6 3d 58 2f 00 bc 9a ca 96 bd c2 b7 c7 3d
       0.1124372 -0.007823788 -0.07362862 0.09751846
0002b0 f2 f7 10 bd 5b 19 19 3d e8 88 98 3d 0d cb c6 3d
       -0.03539271 0.037377696 0.07447988 0.097066976
0002c0 61 33 21 3b 0c 39 b1 bd 10 e4 d3 3c fb 40 d5 bd
       0.0024597275 -0.08653459 0.025865585 -0.10412785
0002d0 b2 7d c5 bc 9c 29 34 3b 0b 99 af bd 47 ee bf 3d
       -0.024107788 0.0027490621 -0.085741125 0.0937162
0002e0 b0 6d 6e 3b 44 77 61 bc 58 4e 32 bd d5 0e e2 3d
       0.0036381297 -0.013761345 -0.043531746 0.11037985
0002f0 a1 4f e9 bc 82 14 4b bd 85 94 c1 bd 16 66 1e bd
       -0.028480353 -0.049580105 -0.09452156 -0.038671575
000300 a1 e1 85 bd a1 2b f5 3a 5a c0 a5 3d 2f 93 84 bd
       -0.06537176 0.0018705019 0.08093329 -0.064733855
000310 19 1e c8 bb da aa c6 3c 0f da 1e bd 1f ec 52 bc
       -0.0061071035 0.02425139 -0.038782176 -0.0128736785
000320 fe 95 6f bd 64 ac 9e bd 0b 4f 85 3d b8 3c ad 3d
       -0.058492653 -0.07747725 0.06509217 0.08458847
000330 6a 66 8f bc b0 6f 74 3d 00 4b 0b bd 26 c4 b0 3d
       -0.01750489 0.059676826 -0.034007072 0.08631162
000340 da af 50 bd 7d fc c0 3c 0d ff d9 3d a0 6b eb bc
       -0.050948955 0.023557896 0.1064435 -0.028737843
000350 21 4f e6 3d 69 7f 86 bd 5f 5b c5 bd 82 41 a9 bd
       0.112455614 -0.0656727 -0.09636568 -0.08264448
000360 4c 81 fd 3c 63 7a 42 3d 9e 8a ba bb ac b9 f9 3d
       0.030945443 0.04748 -0.005692794 0.12193617
000370 96 44 0f 3d cf c8 07 bc 72 f6 69 3d aa 4c cc 3c
       0.034977518 -0.008287623 0.057119794 0.0249389
000380 0a 80 14 3d b6 83 2e bd 7e de 27 bc ab 1a 94 3c
       0.03625492 -0.042606078 -0.010245917 0.018079123
000390 45 94 bf bd fb 20 b9 bc 58 8b af 3d 0b d4 07 3d
       -0.09354452 -0.022598734 0.085714996 0.033161204
0003a0 b0 be 48 bd f9 38 91 bd 5a e4 90 3d da 5e 31 3d
       -0.04900998 -0.07090945 0.070748046 0.043303348
0003b0 26 98 47 3d fe ed 69 3d 8a 54 08 3c d3 37 33 3d
       0.048729084 0.057111733 0.008320937 0.04375441
0003c0 35 2c 91 bd 35 c0 5b bd 52 32 05 be 5c a5 ff bd
       -0.0708851 -0.0536501 -0.13007477 -0.12482712
0003d0 ce 7f 87 bd 24 0b 07 be 7a 1f fb bc e4 ec e8 bd
       -0.06616174 -0.13187844 -0.030654658 -0.11373308
0003e0 cb 3b 46 3d d5 e3 69 bd 2f 10 ba 3d 28 57 28 bc
       0.048396867 -0.057102043 0.09085118 -0.010274686
0003f0 f7 03 c9 3d 24 28 54 bc 0c ad c8 bb 4f c1 bb 3d
       0.09815209 -0.012949023 -0.0061241444 0.0916773

bias f4 [32]
000000 8b 9b 5f bb 00 aa 21 be 13 d5 b2 bd 57 46 1b bd
       -0.003411981 -0.15787506 -0.08732047 -0.03790888
000010 46 82 bc bd f4 e2 82 3d b2 66 20 be b1 23 88 bd
       -0.09204535 0.06390944 -0.15664175 -0.066474326
000020 c4 4d 13 3e a7 45 ec bc fa 05 da 3d d5 d2 de bd
       0.14385134 -0.028841807 0.10645671 -0.10880057
000030 52 e9 1c 3e 63 9d c8 3d 30 15 fe bd 44 d5 84 3d
       0.1532338 0.09795644 -0.12406385 0.0648599
000040 c9 e3 df bd 55 0d 2e be 17 90 02 3e 1f bb 37 3d
       -0.109321184 -0.16997273 0.12750278 0.044856187
000050 31 58 67 bd 66 f9 0e be 53 d8 b2 3d 49 e8 e3 3c
       -0.05648059 -0.13962325 0.08732667 0.027820723
000060 8d b9 02 3e 6d 88 0d bd 77 c3 b8 bd ba cf 01 3e
       0.12766095 -0.034553934 -0.09021657 0.12676898
000070 57 bf 25 be de 8f d1 3c 1a f2 ae bd 5b 10 b2 bd
       -0.16186272 0.025581297 -0.08542271 -0.08694526

weight f4 [32, 32, 5, 5]
000000 96 a6 39 bd 92 0e 0f bd 18 b9 8c bc ab 25 a1 3c
       -0.045324884 -0.034926005 -0.017178103 0.019671282
000010 d5 9b f7 bc 9e 0a 1f bd 27 8d 35 bd aa c3 10 bd
       -0.030225674 -0.038828485 -0.044324066 -0.03534285
000020 db ad 99 bc c5 1d d9 bc ef 9c f3 bc 4b 43 5e 3b
       -0.018759659 -0.026503453 -0.029737918 0.0033914621
000030 7a 79 a1 bc 00 67 06 bc 9f b7 8c 3c 97 e5 21 3c
       -0.019711245 -0.008203268 0.017177401 0.009881399
000040 31 42 8f 3a 67 80 0d bd be 23 12 3d 51 67 d6 bc
       0.0010929761 -0.034546282 0.035678618 -0.026172312
000050 46 9f c8 3c 85 a1 29 3c 42 4d 91 bc 48 d6 cd bc
       0.02449001 0.010353451 -0.017737035 -0.025126591
000060 a5 7c e2 ba 4f 30 b9 bc 2d 36 f3 3a fd a0 d6 3c
       -0.0017279579 -0.022606043 0.0018555574 0.026199812
000070 5e ac 04 3c ed f1 a6 ba c4 2c df 3b 31 5d a4 bc
       0.008097736 -0.0012736894 0.0068107564 -0.020063968
000080 5d 30 98 bc 2f 33 e7 bb cf 8a 44 bc 5e 8d dd 3c
       -0.018577749 -0.007055662 -0.011995985 0.027044948
000090 29 c6 5b 3c 4f f9 2c 3d d3 3f 4d 3c 70 70 96 3b
       0.013413944 0.042229947 0.012527424 0.0045910403
0000a0 b9 b5 91 3c f4 9d 45 3d e1 66 3f 3d d4 d0 c4 3c
       0.017786847 0.04824634 0.046728972 0.024025358
0000b0 0e 13 97 3c 08 67 6f bc d4 b2 d4 3c de bb 4a bc
       0.018441703 -0.014611967 0.025964178 -0.012373893
0000c0 04 c9 19 3d 1c 36 28 3d f9 33 b0 3b a6 e5 e5 bc
       0.03754522 0.041067228 0.0053772894 -0.028063606
0000d0 8d 81 d6 3c be b6 c0 3c 02 02 a6 bc 1d ad 9b 3c
       0.026184822 0.023524638 -0.02026463 0.019003445
0000e0 7e ef 17 bc e3 c6 71 bc 41 c9 c1 3c 90 4d a4 bc
       -0.009273408 -0.014756891 0.023655536 -0.020056516
0000f0 68 35 cb 3c 1a 1b c0 bc ea e5 b1 3c 9e cb 0b 3d
       0.02480574 -0.023450423 0.021716077 0.03412973
000100 2b 06 02 3d 0e 9c 97 bb ea 73 ce ba be 70 ed 3c
       0.031744163 -0.0046267575 -0.0015751098 0.028984424
000110 a9 d1 e3 3b bf 1e c6 bc 96 b8 04 3d b6 fa 03 3d
       0.0069524837 -0.024184583 0.032402597 0.03222152
000120 ac bb b7 bc 14 51 0e 3d 82 8d 2d bc 50 ac b7 3c
       -0.022428356 0.03474529 -0.01059282 0.022421032
000130 8c 11 2e bc b8 0b d8 bb bc e9 3c bc 64 46 57 bb
       -0.010624301 -0.006593194 -0.011530336 -0.0032848353
000140 2f 0b 28 3c 55 8f da bb e6 8b 11 3b 6e 31 f0 bc
       0.010256573 -0.0066699185 0.002220863 -0.029320445
000150 ac 51 e7 3b c9 5b 7f bc f8 f4 ab bc 05 73 7f bc
       0.0070592966 -0.015585848 -0.020990834 -0.015591388
000160 73 f6 64 3c 56 46 0e bd fd e8 d7 3c 18 a4 1c 3c
       0.013974774 -0.034735046 0.026356215 0.009560607
000170 4a 59 f7 bb 38 f1 eb bb 1e d6 13 bd 2b ee 53 3c
       -0.007548486 -0.0072003864 -0.03609287 0.012935202
000180 3d d5 97 ba 8b 46 2c 3c 6f 99 05 bd 20 22 85 bc
       -0.0011583936 0.010514866 -0.03261703 -0.016251624
000190 49 cd ff 3c 3c 8c 8b 3c 67 26 dd bc 65 5f 8f 3b
       0.031225817 0.017034642 -0.02699585 0.0043753856
0001a0 69 e1 85 bb 20 5b 1e bc 97 b2 bd 3b 8c b6 e8 3a
       -0.004085709 -0.009665281 0.005789112 0.0017754599
0001b0 2a 5a 5f 3c 62 cb eb 3c 2b 3c e3 bc 40 cf 17 3d
       0.013632337 0.028783504 -0.027738651 0.037062883
0001c0 6a d5 67 bc b3 6e 21 3d 62 f3 3e bc cc 20 78 bb
       -0.014150003 0.03941221 -0.011654707 -0.0037861345
0001d0 e0 3d d7 bb 4d 92 c9 bc f7 80 2b bc a2 5a 77 3c
       -0.0065686554 -0.024605894 -0.010467759 0.015097292
0001e0 53 36 14 3d 85 7d d4 3a f2 53 d2 3c dc 30 13 3d
       0.03618462 0.0016211724 0.025674794 0.035935268
0001f0 97 0b 97 bc 19 30 bb 3c 3e a6 91 bc e7 b6 27 bd
       -0.018438144 0.022850083 -0.017779466 -0.040945914
000200 c4 d7 64 3c be 8e 79 bc 44 e9 b2 3c 94 4d 93 bc
       0.013967458 -0.015231786 0.021839745 -0.017981328
000210 6b f8 06 bd ec 7d 10 bd be 49 92 bc 44 bf a3 3c
       -0.032951754 -0.03527634 -0.017857429 0.019988663
000220 0d b7 15 bc 75 62 ca bc 2a 27 8d bc 4b de df 3c
       -0.009137881 -0.024705151 -0.017230589 0.027327677
000230 5a 94 db bc 6d 9d 7b 3c 4e 63 f4 bc ce 6a da 3c
       -0.026804138 0.015357357 -0.029832508 0.026662257
000240 4c 50 b0 3c c1 af c1 bc 50 d3 76 3b 9c 81 95 bc
       0.021522664 -0.023643376 0.0037662573 -0.01825028
000250 c6 cb 12 bd 9a fc da bc a9 3c 73 bc 5c 28 06 bc
       -0.035838865 -0.026731778 -0.0148460055 -0.008188333
000260 f9 0d f1 bc 89 5c 09 bd 55 5a 9f 3c e5 2e b9 3b
       -0.029425608 -0.033535514 0.019452253 0.005651342
000270 69 b5 ba bc de c6 e3 bc 29 e7 e4 3c 3a 8f 0f 3b
       -0.022791581 -0.027804788 0.027942257 0.0021905438
000280 62 a4 23 3d cc 03 95 ba ae ed de 3c d8 77 90 3c
       0.03995169 -0.0011368929 0.027212944 0.017635271
000290 46 99 f2 3b 91 ba 9e bb 67 49 19 3c e6 89 97 ba
       0.0074035255 -0.004844018 0.009355879 -0.0011561483
0002a0 a6 23 42 bc 35 0e f0 3c 2c 4f 43 bc 1f 47 1c bb
       -0.01184932 0.02930365 -0.0119207315 -0.0023846102
0002b0 81 1e 0b 3d 6c 3c b5 ba 91 8e c8 3c a4 f4 a8 bc
       0.033964638 -0.0013827211 0.024482043 -0.020624466
0002c0 6b 1f ca bb 83 97 e8 3b cf 60 c5 3c 95 c8 75 3c
       -0.006168296 0.0070981397 0.024094013 0.015001436
0002d0 a5 c4 16 3d 7a 93 40 3d a4 9e ac bc 65 5b 9b 3c
       0.03680863 0.047015645 -0.02107174 0.018964479
0002e0 6d 17 07 3d c5 9f 88 bc 88 30 16 3d c7 12 7f bc
       0.032981325 -0.016677747 0.036667377 -0.015568442
0002f0 00 ed a2 3c bc 63 eb 3b f0 26 50 37 1f 7b 02 bd
       0.019888401 0.00718352 1.2406832e-05 -0.0318557
000300 03 71 6a bb 24 b5 06 bd c3 84 23 bd 03 ae 14 bd
       -0.0035772927 -0.032887593 -0.039921533 -0.036298763
000310 24 60 07 bd 83 52 79 bc 10 75 de bc 70 43 eb bc
       -0.03305067 -0.015217426 -0.02715543 -0.02871868
000320 eb 61 d6 3c 2d 3f d1 bc d1 0b 02 bd e5 a2 6f 3c
       0.026169738 -0.02554282 -0.03174955 0.014626239
000330 fa f7 2a bb 5d 6f 0b 3a f1 cb 61 bc 51 5f c1 bc
       -0.0026087747 0.00053190236 -0.013781534 -0.02360502
000340 fe e8 45 3c c6 59 0c bd a7 55 63 bd 5d 16 58 3b
       0.012079475 -0.034265302 -0.055501606 0.0032972314
000350 f7 e3 51 bd b8 96 37 bc b2 de 8c bb ff be 3b bd
       -0.051242795 -0.011205368 -0.0042990083 -0.045836445
000360 8b 76 32 bd a1 e6 38 bd dd 62 40 bd 8c dc 40 bd
       -0.043570083 -0.04514182 -0.046969283 -0.04708533
000370 01 a9 df bc a7 6d 25 bd da 2f bf 3c c1 a5 d8 bc
       -0.027302267 -0.040387776 0.023338247 -0.026446225
000380 ee 97 c6 bb db b2 b9 3c 0d e5 0a bd 39 fb b3 bc
       -0.006060592 0.022668293 -0.033909846 -0.021970378
000390 14 4c aa bb d3 86 b8 bc ca 82 97 bb 1b 7e 2f bc
       -0.0051970575 -0.022525227 -0.0046237456 -0.010711218
0003a0 ff 43 a8 bb b6 10 91 bb f5 a1 02 3d 26 18 68 bc
       -0.005135059 -0.004427041 0.031892736 -0.014165914
0003b0 51 42 c9 3c 48 46 9f bc 4d 35 61 3c fe 36 80 bc
       0.024567755 -0.019442692 0.013745618 -0.015651222
0003c0 78 da 87 3c dd 7b b6 3c 66 b3 cb 3c 1c e3 9c bc
       0.016583666 0.02227586 0.024865817 -0.019151263
0003d0 8a 41 fd bb 69 36 c7 3c 3f 67 87 bb ab c8 d7 bb
       -0.00772876 0.024317937 -0.004132181 -0.006585201
0003e0 94 e3 11 bd 69 19 5e bc 12 4d 1b bc 30 31 03 3d
       -0.035617426 -0.013555863 -0.009478824 0.03202933
0003f0 0b a5 53 bc fc 1c 85 3b c0 c1 a4 ba e9 30 a5 3c
       -0.012917767 0.004062293 -0.0012569949 0.020164924

bias f4 [32]
000000 ce 87 9f bd bb be ba bc fd 1b 37 bd 24 46 d7 3c
       -0.077895746 -0.022796025 -0.044704426 0.026278563
000010 75 42 b2 bc b7 8a a0 bc 22 ff 36 3c 5f c9 4a bd
       -0.021760205 -0.019597394 0.011169227 -0.04950845
000020 46 01 d9 3c b8 83 28 bc 7d 09 cf bb 2e be 09 3d
       0.026489865 -0.01028531 -0.0063182698 0.033628635
000030 52 dd 89 bc c7 85 0a 3d 9b 1f 28 3d 14 5d 28 bd
       -0.016829167 0.033818986 0.041045766 -0.04110439
000040 85 41 74 3c 82 2e f3 bc 71 90 70 3c 4c df 1d 3d
       0.014908199 -0.029685263 0.014682875 0.03854303
000050 5f f2 fb bc f8 00 84 bd 84 01 f1 bc 00 87 27 3d
       -0.03075522 -0.06445497 -0.029419668 0.04090023
000060 5f 49 4e 3d 45 92 b5 bc 7d 38 95 3b d4 a3 92 3c
       0.05036294 -0.022164473 0.004553853 0.017900385
000070 08 21 91 bc 83 db 80 bd 5b f8 5b 3c 57 24 dc 3b
       -0.017715946 -0.062918685 0.013425912 0.0067181992

weight f4 [64, 32, 5, 5]
000000 ff cd e1 bc 20 fd b0 3a 9d 14 fe 3b a8 17 39 bb
       -0.027564047 0.0013503172 0.007753922 -0.002824286
000010 69 2c 47 3c bb 41 86 bc 5a 33 83 bc 77 2e 30 3c
       0.012156584 -0.016388765 -0.016015697 0.010753266
000020 a2 1f b0 3c 12 52 1d 3d 88 0a 09 3d 69 29 09 3d
       0.021499459 0.038408346 0.03345731 0.033486757
000030 0b 56 35 3d 98 0a c2 3b ab 51 a9 3c 55 84 84 bc
       0.04427151 0.005921673 0.020668825 -0.016176382
000040 9a bc d9 ba 8b 81 d3 3a 27 13 87 bc 46 22 89 3c
       -0.0016611994 0.0016136629 -0.016488625 0.016739976
000050 1e 22 84 39 bf 3c c3 3c ba f5 90 3b df 7d 06 3d
       0.0002520242 0.023832677 0.004423824 0.032834884
000060 78 30 d0 b7 70 4c db 3c 95 f7 e4 3c 78 48 ae bc
       -2.4818102e-05 0.026769847 0.027950088 -0.02127479
000070 c9 49 2d 3c 9b 13 8e bc 4f 8d 3b bc a1 7e a9 bc
       0.010576674 -0.017343333 -0.011447265 -0.020690264
000080 af 0d 44 3c fb ad 26 3c 0a c6 6e bc 66 26 e6 3c
       0.011966153 0.010173316 -0.014573583 0.028094482
000090 cf e5 4c 3d 2c 03 22 3d 66 38 f6 bb d6 36 2d 3d
       0.05002385 0.039553806 -0.0075140474 0.042288624
0000a0 db 70 a4 3c 1a 98 1b bc 02 97 15 3d 58 64 0e 3d
       0.020073345 -0.009496713 0.036520965 0.034763664
0000b0 e8 7d 0f 3d f9 19 69 3c 37 74 c9 bc 48 cd f2 bb
       0.035032183 0.014227384 -0.024591548 -0.0074097253
0000c0 ad 65 2d 3c 29 fe 89 3c 87 17 da bb 2a 8f a4 bc
       0.010583323 0.016844826 -0.0066556367 -0.020087797
0000d0 6d b3 97 3b 21 4d 70 3b 3d ad 44 3c 36 18 0b 3d
       0.0046295435 0.0036667066 0.012004194 0.033958636
0000e0 8e 31 69 bb 46 ca 16 3d 3d 5c 6d 3c 8d ae 00 bd
       -0.0035582515 0.036813997 0.014487323 -0.031416465
0000f0 83 f1 c6 bc e9 6d c1 3c 2b 1d 8c 3b f1 13 77 3c
       -0.024285084 0.02361198 0.004275938 0.015080438
000100 b9 aa bb bc af 85 e7 3c 2e 4e ad bb e4 98 97 3c
       -0.022908555 0.028261987 -0.0052888608 0.018505521
000110 c8 64 c8 bc 13 b5 e4 3c 8b fb e9 3c f0 5c ac 3c
       -0.024462119 0.027918374 0.028562328 0.02104041
000120 0e 64 e0 3c 3e 2b b3 37 25 ee ce bb f4 7a 1c 3d
       0.02739146 2.1358599e-05 -0.00631501 0.038203195
000130 35 40 e3 3b f2 56 3d bc 58 6c dd 3c 96 c1 cd 3c
       0.0069351443 -0.011556374 0.027029201 0.025116723
000140 a7 35 b1 3b 59 10 2f 3c fc 4e c8 bc d7 bb 5a 3c
       0.005408007 0.01068505 -0.024451725 0.013350449
000150 63 50 15 bd 92 ad 09 3d e7 6f 1d 3d 5e 81 1a 3d
       -0.036453616 0.033612795 0.038436797 0.03772103
000160 df 41 7f 3c 75 58 04 3c 9e 4f 88 3c 59 29 f8 3a
       0.01557967 0.00807773 0.016639527 0.0018933221
000170 11 12 1c 3d 41 79 fa bb 4d 39 94 3a a9 bc 3c bb
       0.038103167 -0.007643849 0.0011308581 -0.0028798974
000180 99 96 bb 3c 3b c1 ae bc 88 2d 80 bc 91 27 bc 3b
       0.022898959 -0.021332374 -0.015646711 0.0057420214
000190 fc 90 34 bc 75 7b 6c 3c b0 75 1a 3c 28 d7 92 3b
       -0.011020895 0.014433731 0.009427473 0.004481215
0001a0 a4 94 fb 3b 38 27 24 bc 72 6f 42 3c 6b 42 4e bc
       0.0076776315 -0.010019116 0.011867391 -0.012589077
0001b0 41 42 00 3d 65 4f 9f 3c fa 4d 9e 3b 0b 77 c1 3c
       0.031313185 0.019447038 0.004831073 0.023616334
0001c0 bc 64 bc bb ca 2e ac 3a e1 a6 a9 bc 2c 1a 03 3c
       -0.005749313 0.0013136503 -0.020709457 0.008001845
0001d0 9f 15 79 bc d4 86 98 3b e5 b4 f1 bc e7 b1 ea 3c
       -0.015202909 0.0046547446 -0.029505203 0.028649284
0001e0 66 4f 7f 3c 05 a2 33 3c 27 3a bc bc a5 92 f4 bc
       0.015582895 0.010963921 -0.022976948 -0.029855082
0001f0 32 e2 ac bc bf e0 f4 3c a4 c0 2e 3b ee 52 62 bc
       -0.021103952 0.029892324 0.0026665116 -0.013813717
000200 79 15 15 3c c4 7c 98 bc 66 f8 08 bc 87 63 63 bc
       0.009099358 -0.01861418 -0.008360004 -0.01387871
000210 05 48 9f 3c d5 ec bd bb 2d 7f 49 bb ef 2f 32 3d
       0.019443521 -0.005796055 -0.0030745969 0.043502744
000220 cb 43 be 3c e4 05 d6 3c 38 ff 3c 3b 56 10 56 3c
       0.023225686 0.026125856 0.0028838646 0.013065418
000230 fd 25 55 3c ce ed ec 3c d7 99 64 3c e4 02 eb 3c
       0.013009545 0.028921988 0.013952694 0.028687902
000240 c3 ae da bc 57 72 c6 3c 00 a8 78 bc 74 b0 03 3c
       -0.026694661 0.024224443 -0.015176773 0.008037675
000250 eb d4 4c 3c 9a b5 8a bc 8c b7 0c 3d 6d 1f 5a bb
       0.0125019355 -0.016932297 0.03435473 -0.0033282891
000260 07 73 7d bc a2 18 35 bb 2d 08 6f 3b 2b 75 49 3b
       -0.015469319 -0.002763309 0.003647338 0.0030740004
000270 23 29 9c 3c dd 69 53 3b 80 f1 a3 3c 72 7d 1e bc
       0.019062584 0.0032259144 0.020012617 -0.009673463
000280 b0 c9 7d bc 6e c1 82 3b d4 fd 08 3d 5c a2 f4 3c
       -0.015489981 0.003990344 0.033445194 0.029862575
000290 5a 38 d5 3c 56 f4 6d 3c d4 66 5d 3b 17 fd 99 bc
       0.026027847 0.014523586 0.0033783214 -0.01879744
0002a0 b9 5a c0 bc 44 66 cf bc 30 a7 ef bc 94 4e c1 bc
       -0.02348076 -0.025317319 -0.029254526 -0.02359704
0002b0 df 62 92 bc 7d 3e c2 3c 4b 1d cb 3c 18 25 e7 3b
       -0.017869411 0.023711437 0.024794241 0.0070539825
0002c0 cc ef 78 3c b3 a2 ee 3c 36 cc a8 bc 9d 10 ea bc
       0.015193891 0.029130315 -0.020605188 -0.028572375
0002d0 f1 99 a9 3c b3 da d3 bc 59 d3 5f bc a7 76 eb ba
       0.020703288 -0.02586112 -0.013661229 -0.0017964438
0002e0 a5 57 af bc 0b cc d3 3c 3d 88 ea 3c 32 05 1e bc
       -0.021404097 0.025854131 0.028629417 -0.009644793
0002f0 37 40 9b 3c 81 46 a3 bc 0c fc da bc 0b 1c e5 3b
       0.018951518 -0.01993108 -0.026731513 0.0069918684
000300 1f 03 87 3c 76 f8 5d bc 25 bb 41 bc 0c 4e b8 bc
       0.01648098 -0.013548007 -0.011824404 -0.022498153
000310 ed 1c b5 3c 23 d0 8c 3b 9c ae 35 3c 86 55 04 bc
       0.02210852 0.004297273 0.011088993 -0.008077031
000320 9a 2d 76 3c 25 bd c7 3c ce ab 0e 3d f9 3f a7 3c
       0.015025521 0.024382183 0.034831814 0.020416247
000330 1a 50 1e bb ec 2d 35 bb 8a 29 44 bc b7 3e 5f bc
       -0.002415663 -0.002764578 -0.011972794 -0.013625792
000340 98 af 2c 3c 7f 5b 02 bc 4e 03 8f 3c b2 4b 2c 39
       0.010539912 -0.007956385 0.01745763 0.00016431397
000350 ab bf ef 3c 57 8f d5 bc 4b 1a fd 3c 59 ef 67 3c
       0.0292662 -0.026069326 0.030896327 0.014156186
000360 8d 0a e8 3c 08 4e 60 3c c0 58 46 3c 65 45 ea bc
       0.028325344 0.013690479 0.012106121 -0.028597543
000370 9b af ba bc bd c2 10 3d 72 62 10 bd e5 e1 fe bc
       -0.022788813 0.035341967 -0.035250135 -0.031113574
000380 f6 bd 1b bd f9 9b f7 3c 08 b5 db 3c 83 e2 1a bc
       -0.038022958 0.03022574 0.02681972 -0.009453419
000390 a2 f4 a5 3c 6d 5a fe 3c ae ea 2b 3c 7e cf bb bb
       0.020258252 0.031048978 0.010492964 -0.005731522
0003a0 58 7a 9d 3c f6 34 f0 bc 31 bf 9c 3b 34 48 eb bc
       0.019223377 -0.029322129 0.004783534 -0.028720953
0003b0 3d a6 a3 3a 6a 1e 2f 3b 68 3b 23 3d 97 d1 0a 3d
       0.0012485456 0.002672101 0.039851576 0.033891287
0003c0 19 c1 19 3d 8b 46 4c 3b d2 89 e6 3c 04 18 cd bc
       0.037537668 0.0031169977 0.02814189 -0.025035866
0003d0 70 7b 22 3d 1c f0 f9 3c fb 41 1f 3d 70 04 bd 3b
       0.0396685 0.03051 0.038881283 0.0057683513
0003e0 2a 3f 0e bc f6 29 91 bc 92 71 90 3c 37 60 a4 bc
       -0.008682052 -0.017720204 0.01763228 -0.02006541
0003f0 c7 0e ac 3b 58 fb 4e bc 23 06 83 3c ef 53 e4 bc
       0.005250785 -0.012633167 0.015994137 -0.027872054

bias f4 [64]
000000 9e b7 9d bc 80 01 24 3d c7 2f 81 3c 1c b4 b5 3c
       -0.019252595 0.040040493 0.015769852 0.02218061
000010 4e 93 fe 3a 7c 77 83 bc 8f f5 d9 3c 10 c3 c6 ba
       0.0019422562 -0.016048186 0.02660635 -0.0015164334
000020 b4 e2 7f bb 6a 1a bd bb 3c df 19 3c b9 1f 4a 3c
       -0.0039045038 -0.005770971 0.009391602 0.012336665
000030 4d 0f 70 bd 73 f2 2e b9 c1 c7 c5 3c 19 1b 21 bb
       -0.058608342 -0.00016684252 0.024143102 -0.0024582802
000040 d1 98 d5 3c c1 26 ee bc d8 4b 03 bd 4d 73 95 bb
       0.026073845 -0.029071214 -0.032054752 -0.004560864
000050 db 03 95 3c c3 63 37 bc f3 09 b3 bc 4d 88 28 bc
       0.018190315 -0.011193219 -0.02185533 -0.010286403
000060 23 33 84 3c de d2 88 bc f6 2e a4 3a 1f ec 5c bc
       0.016137665 -0.016702112 0.0012526202 -0.01348403
000070 a2 78 81 3c 4a 94 95 bb ba d0 cc 3b f0 43 39 b9
       0.015804593 -0.0045647966 0.006250468 -0.00017668284
000080 7f b5 07 3c 22 07 24 3b df 02 0d bd f5 59 3e bd
       0.008283018 0.0025028666 -0.034426566 -0.04647251
000090 90 c9 95 3c 69 93 10 3d 91 79 c2 bc 95 f2 40 bc
       0.018284589 0.03529683 -0.023739608 -0.011776586
0000a0 64 65 f8 3c b5 6d 6b 3c 43 f7 dc bc 9b 32 21 3c
       0.030321784 0.014369418 -0.026973372 0.009838725
0000b0 94 72 97 ba f5 21 8d bc 4b cc 5c bd 0c 1c 67 3c
       -0.0011554533 -0.017228106 -0.053905766 0.014105808
0000c0 82 f7 15 3c 15 d5 9a 3c 20 ca 09 bd 15 98 14 3c
       0.009153249 0.018900434 -0.033640027 0.009069462
0000d0 bc 6a 53 bc 3a 88 88 bc 4d d0 b9 bc 67 78 b0 bb
       -0.012903865 -0.01666652 -0.022682333 -0.005385447
0000e0 e6 e8 2f 3a 39 92 23 3d b4 bd b4 bb 0f 17 07 3d
       0.0006710425 0.03993437 -0.0055157784 0.032980975
0000f0 f1 ee 17 bc 02 ba 4f bc 93 18 ff 3c 30 a7 83 3c
       -0.009273277 -0.012678625 0.031139648 0.016070932

weight f4 [64, 1024]
000000 8b 73 ab bc a1 54 c6 bb 5c 35 c3 3c c1 25 4a bc
       -0.020929119 -0.006052569 0.023829155 -0.012338103
000010 93 c1 3f bc d8 b9 3b bc 1e fb 18 bc 04 87 d2 3c
       -0.0117038665 -0.011457883 -0.009337215 0.025699146
000020 73 cd 2d 3c ca 91 9c bc 12 83 5e 3c 15 f6 99 3c
       0.010608065 -0.019112486 0.013581054 0.018794099
000030 a8 1f fd 3b 09 9c 43 3c 15 4f 76 bb a2 ea 25 bd
       0.007724721 0.011939057 -0.0037583758 -0.040506966
000040 b8 64 e9 3b 3b 23 3d bc 17 f3 a6 bc 9a 58 a2 bc
       0.0071226023 -0.011544044 -0.020379586 -0.01981764
000050 b2 6f df bb 1b 7c 80 bb 66 6f 95 bc 72 ce fb bb
       -0.006818735 -0.0039210445 -0.018241595 -0.0076845223
000060 1d 8e 47 3a bd f2 03 3c 1d 90 d4 3b 94 4a 24 bc
       0.0007612424 0.008053479 0.006486906 -0.010027546
000070 4e 83 87 bc 85 6c 03 3d 1d b9 9b 3b a0 d7 fe bc
       -0.016542103 0.032085914 0.004752292 -0.031108677
000080 98 10 38 3c 9d 2b 9e 3c da 33 e7 bb 88 69 e2 bc
       0.011234425 0.019307906 -0.0070557417 -0.027638212
000090 90 4b c2 bc 93 54 c4 bc fc 61 89 bc b3 03 ab bc
       -0.023717672 -0.02396611 -0.016770355 -0.020875787
0000a0 5d 94 70 bc 52 22 9e 3b 92 24 68 bc d0 50 c8 bc
       -0.01468381 0.0048258686 -0.014168875 -0.024452597
0000b0 9d c0 83 bc f4 14 82 3a aa 0e 2e bb b4 99 a5 3b
       -0.016083056 0.0009924457 -0.0026559033 0.005053723
0000c0 00 2c 9f 3c af a7 5f 3c 56 cb c3 bc 64 ee 4a 39
       0.01943016 0.013650819 -0.023900669 0.00019353029
0000d0 c0 09 2d bc c0 75 cb 3c e9 c5 21 bc 10 44 85 3c
       -0.010561407 0.024836421 -0.009873846 0.016267806
0000e0 3d 00 b2 bb dc 08 60 3c b0 32 b7 bb 94 3d ce bc
       -0.0054321573 0.013673987 -0.005590759 -0.025175847
0000f0 a4 6f 9e bc ea ff 62 3c 8c c0 84 3b ac e8 ee bb
       -0.019340344 0.01385496 0.0040512737 -0.0072909202
000100 92 c2 a5 3c f6 fc d9 3c b4 d2 5c bc 97 0c 45 bc
       0.02023438 0.026609879 -0.01347797 -0.012026927
000110 4b 1e bf bc b4 c2 72 bc b0 22 ec ba 1d 42 61 bb
       -0.023329875 -0.014816929 -0.0018015709 -0.0034371682
000120 05 60 f8 bc ba b7 cb bc b2 54 93 bc 2f df 3f 3c
       -0.030319223 -0.024867881 -0.017984722 0.011710926
000130 90 54 87 bc 73 45 4f bb 17 b7 85 3c 55 d5 9f ba
       -0.016519815 -0.0031627088 0.016322656 -0.0012194315
000140 67 a1 0d bc 28 19 9c 3b f6 61 e4 bb c6 10 03 bd
       -0.008644438 0.004763741 -0.0069696857 -0.03199842
000150 0a cf f9 3c 9c ee fe bc 29 44 e5 bb 59 11 4b 3a
       0.030494232 -0.031119637 -0.0069966507 0.00077464205
000160 dc 2a fd 3b 88 12 06 bd 14 4d 18 bd d4 d1 f1 3c
       0.0077260565 -0.032732517 -0.037182882 0.029519
000170 67 fe 6f 3b 33 4b 77 bc 96 24 8c bb 51 ac 94 bc
       0.0036620141 -0.0150936125 -0.0042768223 -0.018148573
000180 c6 f0 2e bb d6 55 82 3c 3c 1f 96 3a 82 b9 23 bc
       -0.0026693805 0.01591007 0.00114534 -0.009992959
000190 4f 7d 11 bc 92 fc d8 3c 97 87 48 3c 2b 2e 12 3c
       -0.008879974 0.026487622 0.012239358 0.00892214
0001a0 c1 82 13 bc 90 84 a9 3c 54 da 88 bb 56 74 79 bc
       -0.009003342 0.020693094 -0.0041764174 -0.015225491
0001b0 ba cd e0 3c 53 1d fe bc 31 2c cb bc 05 0d 09 3d
       0.027441848 -0.031019842 -0.024801346 0.033459682
0001c0 fc aa 86 bc e6 da ef 3b d6 76 a3 3c 51 63 b1 3c
       -0.016438954 0.007319796 0.019954126 0.021653803
0001d0 8b 5c ca 3c de 27 b9 3c 91 15 42 bc 2f 6d a7 3c
       0.024702331 0.022602018 -0.011845962 0.020437805
0001e0 31 ab 9e 3c df 3a ea 3c 76 e5 03 3c 2e 1d 60 bc
       0.01936874 0.028592525 0.008050313 -0.013678832
0001f0 1f d1 41 bc 7f 9d d7 bb 06 42 b3 3c 43 20 e9 bc
       -0.0118296435 -0.0065800543 0.021882068 -0.028457766
000200 be c1 35 bc b8 16 ae bb b8 6a 98 3c 40 07 ad 3c
       -0.011093555 -0.005312767 0.018605575 0.021121621
000210 d1 c2 94 39 73 69 28 3c fe 0b 05 3c e5 34 15 bc
       0.0002837391 0.010279047 0.008120535 -0.009106849
000220 f8 c8 4d bc d8 a7 ff bc 8a 58 be bc a1 f3 d6 ba
       -0.012560122 -0.031207964 -0.023235578 -0.0016399511
000230 6b 1b e0 3c 8f a1 b6 3c ba cc fd bb 07 50 89 bc
       0.027356824 0.022293834 -0.0077453526 -0.016761793
000240 3f 62 89 bc 4d 2f a4 bc 31 8d 13 bb c9 d8 41 bc
       -0.01677048 -0.020042086 -0.0022514577 -0.011831471
000250 ae 7b d2 3a 66 e1 22 3b 51 1a ec bc a7 c3 e6 3c
       0.0016058588 0.0024853586 -0.028821142 0.028169466
000260 f0 c4 5d 3c 79 36 32 bc 07 c9 ec 3c b4 37 bd bc
       0.013535723 -0.010877245 0.028904451 -0.02309785
000270 de 6e a3 3c df 93 1b bd ba 2a 34 3c 81 43 0b bd
       0.019950327 -0.037982818 0.010996515 -0.033999924
000280 4e 63 03 bd b9 91 3c bc 43 54 2d bc 0c 48 bd 3a
       -0.032077126 -0.011509352 -0.010579172 0.0014441027
000290 d9 7f e5 3b 79 dc b6 bc d9 71 b9 bc cd bd 06 bc
       0.007003766 -0.022321926 -0.022637295 -0.008223963
0002a0 1a 24 0f 3c 80 31 ba bb b1 86 0d bc 39 46 3f bc
       0.008736635 -0.0056821704 -0.00863807 -0.011674457
0002b0 37 d2 08 3d 7f 6f df 3c b5 b0 ae 3c e7 04 d7 bc
       0.0334036 0.027274845 0.021324495 -0.026247455
0002c0 23 c9 c4 bc 13 06 9c bc 49 36 d0 bc 23 a2 69 3c
       -0.02402169 -0.019045865 -0.02541651 0.014259848
0002d0 d9 2c 51 bc b3 51 fc 3c 0c 69 0b 3c 03 44 11 bd
       -0.01276704 0.030800676 0.008508932 -0.03546525
0002e0 ac 77 80 3a 20 b0 5b 3c df 3d 6d bb 06 e3 ec 3c
       0.000980129 0.013408691 -0.0036200208 0.028916847
0002f0 2e 95 88 bb 70 da f1 bb 31 5a ac 3c 8d 59 cb 3a
       -0.004168174 -0.007380776 0.0210391 0.0015514359
000300 b0 01 9b ba 12 a2 26 bc 6e c7 a0 3c 45 0f 79 3c
       -0.0011826064 -0.0101704765 0.019626345 0.015201394
000310 5b f4 90 bc b8 24 e0 3b d4 c5 1f ba c3 14 19 3c
       -0.017694643 0.0068403147 -0.00060948473 0.009343329
000320 70 ed b4 bc 52 00 e6 bb ba c0 4f bc 26 d6 9e 3c
       -0.022085875 -0.007019081 -0.012680227 0.019389223
000330 48 ba 9a 3c bc dc 8b bc 2b 06 9c 3c 9e 58 98 bc
       0.018887654 -0.017073028 0.01904591 -0.018596943
000340 13 55 bd bc 47 99 70 bc 80 51 af bc d0 97 f2 bc
       -0.023111856 -0.014684982 -0.021401167 -0.029613405
000350 f4 a5 66 3b 1e b5 bc bc 3b 00 a6 bc 75 3f 0e bd
       0.003519413 -0.023035582 -0.020263782 -0.034728486
000360 77 09 bd bb 44 59 f7 bb 61 8f ff 3c d2 f9 b3 3c
       -0.0057689506 -0.007548483 0.031196298 0.02196971
000370 29 89 84 3c 46 bc dc 3a ac b9 cf ba 46 73 91 3b
       0.016178684 0.0016840778 -0.0015848181 0.0044387905
000380 49 f8 c7 3c af f3 e8 bc a0 a0 e1 3c c6 f6 5e bc
       0.024410384 -0.02843651 0.027542412 -0.01360864
000390 28 75 f0 3a 65 81 5d 3c 25 49 ca bb 47 ec 64 3c
       0.0018345462 0.01351962 -0.0061732703 0.0139723485
0003a0 84 58 8b bc 66 d6 cd 3b 66 48 37 3c 31 b4 23 3c
       -0.017009981 0.006281662 0.011186695 0.009991691
0003b0 b8 95 88 3c 19 0a ad bb 70 d2 cf 3c 40 ad 62 3c
       0.016672954 -0.0052807448 0.0253689 0.013835251
0003c0 67 af 0b 3c 3d 19 10 bc 2b 68 49 3c 25 51 b6 3c
       0.008525706 -0.00879508 0.012292902 0.02225549
0003d0 33 95 29 3c 8d 8a c1 bc 35 b5 de bc 55 dd b1 bc
       0.010350513 -0.023625636 -0.027186016 -0.021711985
0003e0 e5 fa d0 3b 48 1f 93 bc 80 da ba bc 30 e1 bd 3c
       0.006377565 -0.017959252 -0.022809267 0.023178667
0003f0 b0 7d a9 bc 4c 89 1d 3d 08 87 44 3c f1 d4 27 bc
       -0.020689815 0.038461015 0.011995085 -0.01024364

bias f4 [64]
000000 a9 14 95 3c dd 33 95 bc df e0 04 3d 98 1b ab bc
       0.018198328 -0.018213207 0.032441016 -0.020887181
000010 e0 ff 91 bc cd f6 c4 3c 1c 70 3d 3c 3a 21 fe bb
       -0.017822206 0.024043465 0.0115623735 -0.0077554258
000020 5e 23 cf bb 68 d6 9c bb b7 a4 ce 3c c8 55 a0 bb
       -0.006321355 -0.0047863014 0.025225027 -0.0048930384
000030 28 b1 1d 3d e5 4d be 3b db 16 d1 b9 05 7d 0c bd
       0.038499027 0.0058076256 -0.00039880615 -0.034298915
000040 ac 68 49 bc 44 52 e8 bb 97 69 18 bd 05 e9 df 3c
       -0.012293022 -0.007089885 -0.037210073 0.027332792
000050 39 46 0d 3c 81 70 03 bd fd 0c f3 bb bf 61 c2 bc
       0.008622699 -0.032089714 -0.00741732 -0.02372825
000060 6c 8b 2d bc ad 76 bd 3c 6a 1c 0c 3c 9b ef 1c 3d
       -0.010592323 0.023127878 0.008551696 0.038314443
000070 be e8 a9 bc 81 e9 c0 b9 bf 63 02 3c d2 cf 02 bd
       -0.020740863 -0.00036795068 0.007958352 -0.031936474
000080 eb 14 e7 bc be 2b 6d 3c ce 0d 9d bc 0f 43 55 3c
       -0.028208217 0.014475761 -0.019171622 0.013016476
000090 28 2b 3a 3d c3 ec ca bc 52 2b 74 3b 9b e4 c8 3c
       0.045451313 -0.0247711 0.0037257266 0.02452307
0000a0 ba 94 30 3c 97 20 15 39 a4 4b ce bc 9f 9c 37 bc
       0.010777647 0.00014221888 -0.025182553 -0.011206775
0000b0 ab 92 c8 3c b8 b5 5a bc 0e ed b2 bc 8c 23 c1 bc
       0.024484 -0.013348989 -0.021841552 -0.02357652
0000c0 26 67 d1 3b 6d d7 86 bc c4 ed ba 3b 47 2d d5 bc
       0.00639047 -0.016460145 0.0057046134 -0.026022566
0000d0 1b f9 ea 3c ed 5f bb bb 04 f5 94 bc d3 32 e5 bc
       0.028683236 -0.0057182224 -0.018183239 -0.027978336
0000e0 5e 15 d2 bc 9a 60 c5 b9 09 18 d1 3c 8f 82 02 3d
       -0.025644954 -0.00037646742 0.025524156 0.03186279
0000f0 eb de ab bb 96 25 ad 3c 8d 82 c8 3c 1a a4 2c bd
       -0.0052450798 0.021136086 0.024476314 -0.042148687

weight f4 [10, 64]
000000 58 77 2e bd 36 d7 b2 bd bf 30 2a 3c 32 48 d9 3d
       -0.042594284 -0.087324545 0.010387599 0.10609473
000010 99 0d 13 3c 55 50 df 3d 10 95 d5 3d 29 90 88 3c
       0.00897541 0.10903994 0.10428822 0.016670303
000020 78 6a 76 3d 58 a4 ec 3d f0 36 ef 3d e3 c9 28 be
       0.06016013 0.115547836 0.116804 -0.16483264
000030 34 74 09 be 57 65 cf bd 30 b8 a3 3d bc 0d 71 3d
       -0.13423234 -0.10126751 0.07994115 0.05885099
000040 69 a0 93 bd cb a1 13 3e b6 ec 8e 3c 0a c9 ff bd
       -0.0720833 0.14417188 0.017446857 -0.12489517
000050 c7 20 1b 3e 08 f6 6e bc 25 66 ea bd 2b ea f8 bd
       0.15149222 -0.014585026 -0.11445264 -0.12154039
000060 b2 3c 4a bd ee 40 b6 bd 46 a6 a3 bd bf 18 0b be
       -0.04937429 -0.08899103 -0.079906985 -0.13583659
000070 1e 76 dd bd e6 3d fd bc d7 51 7e 3d 11 3f ab bd
       -0.10813545 -0.030913305 0.062089767 -0.08361638
000080 cb 81 dd 3d 9b 84 a3 3d d0 6a 47 3d 82 53 e0 bd
       0.10815772 0.07984277 0.04868585 -0.10953428
000090 48 ba aa bd 95 d2 08 3e 41 03 f5 bc e0 55 1c 3e
       -0.083363116 0.1336158 -0.029908778 0.15267134
0000a0 21 2f a0 3c 0b e4 2c bd a6 90 ae bd 0a cc 10 3e
       0.019553723 -0.042209666 -0.08523683 0.14140335
0000b0 39 cb e6 bd ba cd c0 3d 2a e3 19 3d c3 d8 94 bc
       -0.112692304 0.09414239 0.037570156 -0.018169766
0000c0 44 4a 24 3d 91 3f 0e bc f6 8f cf bd cb 3f ff 3d
       0.040109888 -0.008682148 -0.1013488 0.124633394
0000d0 1f aa 9c 3c ec 19 e8 bd 7b 08 dc 3c 06 32 b1 3d
       0.019124089 -0.11333069 0.026859513 0.08652119
0000e0 60 2f ec bc cd ea 2c 3d 6f f4 c3 bd 48 35 ca bd
       -0.028831184 0.04221611 -0.095681064 -0.09873444
0000f0 15 e9 a1 3d 6c 74 c1 3d be fc f7 bb 22 f5 e4 3c
       0.07905785 0.09446034 -0.007567971 0.02794892
000100 2e 99 36 be 36 cd 83 bd da 4f d8 3c 0e ea f8 3c
       -0.17831871 -0.06435625 0.026405264 0.030385043
000110 f4 c0 27 be 5e 99 41 3d 12 3e dd 3d 96 63 df 3d
       -0.163822 0.047265403 0.108028546 0.109076664
000120 0e 0b 67 3d 1b 12 77 bd 52 d9 93 bd 31 41 00 bd
       0.056407027 -0.06032 -0.07219185 -0.03131217
000130 f4 1b ec bd 79 32 9a bd a3 6e d3 3d 29 8a 38 3e
       -0.11528769 -0.07529158 0.10323837 0.18021454
000140 ed 10 93 bd 9d 1f 02 3e b7 58 a3 bb a9 04 3a 3e
       -0.07180963 0.12707372 -0.004984941 0.1816584
000150 34 be 8e 3d 02 dd b8 3d 0d 7e 99 3d a8 f0 c5 bd
       0.06969872 0.09026529 0.074947454 -0.09665042
000160 21 31 f8 3d 27 77 cd bc 94 bc 42 be 97 1b 74 be
       0.121187456 -0.02508123 -0.1901725 -0.2383865
000170 42 eb a6 bc e0 fd 36 3e 66 34 bc bd b7 82 8f 3d
       -0.020375852 0.17870283 -0.09189682 0.07007354
000180 6f d7 d6 bd 61 89 9b 3d 9a fd 75 bd d6 e5 26 3e
       -0.104903094 0.07594562 -0.060056306 0.16298613
000190 94 68 2f 3e 24 26 b6 3c 81 bc c0 3d 75 53 93 bc
       0.17129737 0.022234984 0.09410954 -0.017984131
0001a0 21 de 11 be 6a 59 96 bb f7 b6 07 be 2e fa 07 3d
       -0.14244892 -0.0045882957 -0.1325339 0.033197574
0001b0 8d e9 9c 3d a6 c2 61 3d e5 d5 29 bb 76 d9 45 bd
       0.07661734 0.05511727 -0.0025914845 -0.04830309
0001c0 e4 b0 54 3e 04 38 c7 bd a1 c7 fa bd 8b f9 75 3d
       0.20770603 -0.09727481 -0.122451074 0.060052436
0001d0 ac 9c 44 bc a1 1d 32 bc 81 75 e3 3d 70 81 14 3e
       -0.012000244 -0.010871322 0.111063965 0.14502501
0001e0 9a e2 92 bd 33 01 b6 3d 06 f2 06 3e 56 9c 15 bd
       -0.07172127 0.088869475 0.13178262 -0.036526047
0001f0 a0 07 ab 3c 8a 03 17 3d f2 d3 28 3d 34 ae b3 bd
       0.02087766 0.03686861 0.04121775 -0.08773461
000200 95 2c a7 3d c4 58 02 3e 60 a7 1b be a5 49 5f bd
       0.081628 0.12729174 -0.15200567 -0.054513592
000210 51 f6 e0 bd 1b 7e 4b bd 7f 96 9b bd 38 aa 4b 3d
       -0.10984481 -0.04968081 -0.07597064 0.04972288
000220 be b7 08 3e be 47 bb 3d ab 61 30 3e 8b c8 de 3c
       0.13351342 0.09144543 0.17224757 0.027195236
000230 93 a9 06 be f2 a2 cc bd 17 b7 7d bd 74 11 3a bc
       -0.13150625 -0.09992017 -0.061942186 -0.0113567
000240 66 24 0b be d7 9f fc bd eb 55 bb bd 91 7c 83 bd
       -0.13588104 -0.123351745 -0.09147247 -0.064202435
000250 76 ac 96 3b 2e d9 b6 3d 84 a9 90 bd 54 f6 be 3d
       0.0045981957 0.089281425 -0.070635825 0.09324327
000260 22 d1 d7 3d 50 03 4d bc a2 b1 f5 bc cd 90 bb bc
       0.10537936 -0.012512997 -0.029991928 -0.022896195
000270 3d 00 3e bd 22 af ff 3b 3b 0f 26 3e 34 9c 50 bd
       -0.046386946 0.00780286 0.16216747 -0.050930217
000280 55 a5 e6 3d 33 ae e5 bc 3c 88 e8 3d fe f2 a1 bd
       0.11262003 -0.028037166 0.1135411 -0.07907675
000290 fa 32 53 3d cb 73 d7 bc 83 6b 07 be d6 80 7b 3d
       0.051562287 -0.026300332 -0.13224606 0.061402164
0002a0 eb e1 8c ba 89 7f 81 bd 1b 11 a8 3d b4 41 41 be
       -0.0010748481 -0.063231535 0.082063876 -0.1887272
0002b0 a4 bc c3 3c 2e 29 f2 3c 9b ed a8 bd 47 90 b2 bd
       0.023893662 0.029560652 -0.08248445 -0.08718925
0002c0 6e 7d e4 ba 0b 11 c7 bd d4 91 03 bc 4b ee ce 3d
       -0.00174324 -0.097200476 -0.008030374 0.101040445
0002d0 b5 e1 d5 3b b8 f0 60 3d 65 a8 62 bd 33 92 52 be
       0.0065271505 0.054917067 -0.055336375 -0.20563583
0002e0 c5 70 dd 3b cb c5 ad bc 76 c3 6e b9 94 c2 9f 3d
       0.006757828 -0.02121248 -0.00022770264 0.07800785
0002f0 fa af 67 3d 05 c3 1a 3e de 93 97 bb d8 59 98 bd
       0.05656431 0.15113457 -0.0046257814 -0.07439011
000300 6c df 0d be 27 94 2f 3d 7f 64 26 bd b1 67 1d be
       -0.1385476 0.0428659 -0.040623184 -0.15371586
000310 aa e4 05 be d9 36 f2 bd 1d 96 c2 bd 80 18 32 3b
       -0.1307551 -0.118268676 -0.09501288 0.0027175248
000320 cb 16 26 bd 20 42 0b bd 25 00 a6 3d 7a fc 3a bc
       -0.04054908 -0.03399861 0.08105496 -0.011412734
000330 85 95 ba bd 93 64 d1 3d 37 a9 fc bb 4b 36 5e 3d
       -0.0911055 0.10224261 -0.0077106017 0.054250997
000340 d4 6c 91 3d ee 95 b5 bd 0c a4 78 3d f4 30 a0 bd
       0.071008354 -0.088664874 0.060703322 -0.07821837
000350 ad 6c 24 be c9 c3 c3 bd 14 2d bb 3d 74 a9 d1 3d
       -0.16057082 -0.095588274 0.09139457 0.10237399
000360 e8 9d d6 bd 55 fc 15 3e ab c1 85 3b ff bf d0 3d
       -0.10479337 0.14647038 0.004081925 0.1019287
000370 f2 50 b4 3c 6e 56 12 3d e3 c4 0d bd 90 17 da bc
       0.022011254 0.035726957 -0.034611594 -0.026622564
000380 05 a0 38 be 1a d9 e0 bd 3e 2d 82 3d 4f 37 92 bd
       -0.18029793 -0.10978909 0.063562855 -0.071394555
000390 82 e8 b2 3d e0 2b 87 3b a6 a7 d1 bb 43 f7 19 be
       0.087357536 0.0041251034 -0.006398159 -0.15035729
0003a0 b7 bd 30 bd 51 20 bf bd 80 0d f5 3d e2 52 ba bd
       -0.043149676 -0.09332336 0.119654655 -0.0909784
0003b0 37 5a f1 bd 75 67 2b 3d a0 10 75 3d 4d 41 ec 3d
       -0.11784785 0.04184671 0.059830308 0.11535893
0003c0 54 a7 4d 3d f0 55 48 3c 91 9d e2 3c e8 f2 e0 3c
       0.050208405 0.01222752 0.027663024 0.027459577
0003d0 a9 00 21 3d 58 89 bf 3d b5 4b 19 3d f2 03 11 be
       0.03930727 0.09352368 0.037425715 -0.14161661
0003e0 1c f9 4d 3c db 35 8a 3c c8 1e 39 bd 92 04 d8 3d
       0.012571599 0.016871383 -0.04519537 0.10547747
0003f0 7f c1 20 3d 0b 1e 88 3d 14 aa 9b bd a2 15 6a 3d
       0.039247032 0.06646355 -0.07600799 0.057149537

bias f4 [10]
000000 ca 68 87 bd 95 13 f8 bc ab 66 d2 3d a9 d6 8b 3d
       -0.06611784 -0.030282775 0.102734886 0.068280526
000010 5b 4d b7 3b e1 11 cb ba b9 e2 13 3e 28 6f 99 bd
       0.0055939383 -0.0015492999 0.14441957 -0.074919045
000020 a4 80 06 be 34 b8 fb bc
       -0.1313501 -0.030727483
