chaoyang_5.pth (torch, 588587 bytes, 10 tensors)

weight f4 [32, 3, 5, 5]
00000000: 5afc 51bd 3c57 073e 491a cb3d 2a76 103d
00000010: 8c15 f83c e469 8dbd ad88 f73d ed05 d23c
00000020: d7a4 f53d 1a67 053c 9e5e 103e f4a9 263e
00000030: 925c 763d 28b1 3a3d bfa4 a2bd 85b5 aa3d
00000040: 343d 063e 7e86 ba3d 7608 1a3d 82ba d13d
00000050: a6d1 bb3d c5b4 88bc 25c4 cc3d b3c4 c73d
00000060: 4951 2ebd 9c14 b03d 2f7f 72bd b820 4d3b
00000070: 6892 d5bd 69c5 ebbd f928 bb3d 60ef b83c
00000080: d7ea 4fbd 7676 a8bd 509f 153d b321 e23d
00000090: 9bf6 8d3d e5bc 2e3d 6b31 efbb 8a9b 9fbc
000000a0: bde5 9bbb b847 33bc 4ff6 003e 10df 86bd
000000b0: 2cd6 cebd c46b 6b3d 6a47 293d 7220 993d
000000c0: e075 9fbd 47fc 3a3d ec0b ee3c 18ee 00bd
000000d0: 5c56 23bd ca1d 75bd f543 05be 9f58 b7bb
000000e0: 59e4 5cbd 233c 1cbe 3871 06bd 2be8 dcbd
000000f0: 7290 9cbc 24b8 4b3d feda 18be 2a02 b9bd
00000100: c8b3 123d 91ef e03c 69a9 843d b688 e13b
00000110: 4c28 9ebd 77f7 43bd 05bf 01be 2bc0 663d
00000120: b5f6 fabc b2bf 89bd fca5 ebbd 7427 c5bd
00000130: 4ac8 f4bd 4cae a6bd ffca 08bd 0ee0 a7bd
00000140: 9997 babd ebbb 27be 5251 4c3d 956b f3bd
00000150: 81c1 95bc f9f3 ebbd d301 e73d 43c3 63bc
00000160: d1f7 3c3d 80b7 c13b 94bd 713d 3b3e 023e
00000170: fa7d 243e 9dbd 0e3e 2ee6 1c3e 655e 9bbd
00000180: 1cab df3d d1fa 833d d3bb 883d 6700 093e
00000190: dc11 0bbe e777 d6bd a13b 77bd 1c98 e33c
000001a0: 9d17 3d3a 5fdb 87bc 7d79 abbc 312c 0bbe
000001b0: 93b3 aabd ee7c 863a 53e7 94bd 64de dd3d
000001c0: 7b3f a3bd ffce aa3d a4b3 6d3d 73ce 2abc
000001d0: fef9 023e ffbf ea3d 35c9 f33d a071 9a3d
000001e0: f7cb e93c 98f3 9abd 00b5 973c 47ab ddbd
000001f0: c1b1 853d 18e7 6fbd a1c7 99bd 3c14 4fbc
00000200: 46bf 7abd a484 62bd 0cd9 8b3d 3397 833d
00000210: ffcf 673d 64d5 333d e24c c13d f513 e53d
00000220: 0f78 943d 4d0f 093e 51d2 cd3d 044e 8f3d
00000230: 29de 073e 83ed 763d e384 2d3e fe43 7dbc
00000240: a564 673d 97b5 ebbd ebef cd3d edcc a33d
00000250: 2188 a83d f0ae f0ba dc08 b13d 77e7 9fbd
00000260: 9404 ab3d 5b01 0d3d 2818 15be 7c63 a8bd
00000270: 84c4 f43c 55c5 f23c dc89 44bd 5ff6 03be
00000280: e674 943d 714d 7b3d 2335 dd3d 695b a03d
00000290: ba20 c03d 483a bc3d f9bc a23d 8137 fd3b
000002a0: 54e9 043e dcfa 3dbb 84b6 a1bd eff9 c63d
000002b0: c709 d0bc fcb7 4b3d de4b a23d 9b8b c13d
000002c0: 8641 9dbb 5a03 b5bd 12c9 a83c 93df f7bd
000002d0: a051 e8bc b12a 43b9 87ef a8bd 6f78 bb3d
000002e0: e1cd 41bc 81dd c8bc ad92 44bd 5fb5 e83d
000002f0: 38f5 e3bc 842f 81bd edc8 e1bd f55d 45bd
00000300: 95df 7dbd d44b e43b 5828 9a3d 7203 acbd
00000310: d6e7 abbc dbca a33c 3b29 24bd 6197 a8bc
00000320: 04b3 70bd 9b29 a4bd 2473 8b3d 3c90 ac3d
00000330: 6f4f efbc 83ea 753d b9d1 febc 7554 c23d
00000340: 4e88 44bd d5f7 623c 95b5 cc3d e21f e7bc
00000350: 66f9 f43d b029 7dbd a9db d9bd 4513 bcbd
00000360: ec8f e93c d8c5 663d cc67 743b 5327 f63d
00000370: dbba c93c c361 64bc 88d4 773d eb30 f43c
00000380: c3b4 093d a23d 7dbd 9deb 1ebd 269e 2eba
00000390: 13bd dabd d93e 0cbd 15a2 c63d 856b 2d3d
000003a0: c625 1bbd 8c6f 89bd fd72 903d f654 743d
000003b0: 85a5 953d 8d73 aa3d f0fc fe3c 70da 573d
000003c0: 89cc e3bd 97a8 cfbd 9c69 36be 61a8 23be
000003d0: cc6c bcbd 9f4e 37be 3ab3 b2bd 02b1 2cbe
000003e0: c517 dc3b c1da b3bd 3992 bc3d 04d3 9ebc
000003f0: 348e cf3d d8be 39bb 031f 9a3b 9c7e 033e
-0.05126605 0.13216871 0.09917123 0.03526894 0.030283712 -0.06904963 0.12086616 0.025637591
0.11994331 0.008142257 0.14098594 0.1627577 0.060146876 0.045579106 -0.07941579 0.08335403
0.13109285 0.091076836 0.037605725 0.10240652 0.09170847 -0.01668776 0.09998349 0.09754314
-0.04255799 0.08597681 -0.059203323 0.003130002 -0.104283154 -0.115122624 0.09138674 0.02257508
-0.05076107 -0.0822572 0.036528885 0.11041584 0.06931802 0.042660613 -0.0072995923 -0.019483346
-0.0047576115 -0.010942392 0.1259396 -0.065855145 -0.10099444 0.05747582 0.04132787 0.074768916
-0.07786155 0.045650747 0.02905842 -0.031477064 -0.03987728 -0.059842862 -0.13014205 -0.0055952813
-0.053928707 -0.15257315 -0.032822818 -0.1078647 -0.019111846 0.049736157 -0.14927289 -0.09033616
0.035815984 0.027457984 0.06477625 0.0068827523 -0.0772253 -0.047843423 -0.12670524 0.05633561
-0.030635217 -0.06726016 -0.115062684 -0.09626666 -0.119522646 -0.08138713 -0.033396717 -0.08197032
-0.09110946 -0.16380279 0.04988224 -0.11885754 -0.018280746 -0.115211435 0.11279645 -0.0139015345
0.046134774 0.0059117675 0.059018686 0.12719052 0.16063681 0.13939519 0.15322182 -0.07586364
0.109213084 0.06444324 0.066764496 0.1337906 -0.13581032 -0.10472088 -0.0603596 0.027782492
0.00072132965 -0.016584096 -0.020931954 -0.13591076 -0.08335032 0.0010260621 -0.07270684 0.10833433
-0.07971092 0.083402626 0.058032647 -0.010425198 0.12790677 0.114624016 0.119036116 0.075412035
0.02853964 -0.07565993 0.018518925 -0.10823684 0.065280445 -0.058569998 -0.07508779 -0.012639102
-0.06121757 -0.055302277 0.06828508 0.06425323 0.056594845 0.043904677 0.09438492 0.11185447
0.07249462 0.13384743 0.1004988 0.06997302 0.13268341 0.060285103 0.16945224 -0.015458105
0.056492466 -0.11509245 0.10055526 0.07998071 0.082290895 -0.0018362682 0.08644268 -0.0780782
0.083504826 0.03442512 -0.14559996 -0.082221 0.029878862 0.02963511 -0.047983035 -0.12886952
0.07248859 0.06135315 0.10801151 0.07829935 0.09381242 0.09190804 0.079462 0.007727564
0.12979633 -0.0028988635 -0.0789614 0.0971564 -0.025395287 0.049736008 0.07924627 0.09450456
-0.004799071 -0.0883853 0.02060369 -0.1210319 -0.028359234 -0.00018612553 -0.08248811 0.0915383
-0.0118288705 -0.024519684 -0.047991443 0.11362719 -0.02782689 -0.06307891 -0.11024652 -0.048185308
-0.061980803 0.006967047 0.07527226 -0.08399095 -0.020984571 0.01999419 -0.040078383 -0.020579996
-0.058764473 -0.08015748 0.06809071 0.08425948 -0.029212682 0.0600381 -0.031105863 0.09488765
-0.047981553 0.013853033 0.099955715 -0.028213445 0.119616315 -0.061807334 -0.106376 -0.09183363
0.02851101 0.056341022 0.0037293313 0.12019219 0.024625232 -0.013939324 0.06050542 0.029808482
0.033619653 -0.061826356 -0.038798917 -0.0006661139 -0.10680594 -0.034239624 0.096988834 0.042338867
-0.03787782 -0.06710729 0.07053182 0.059651338 0.07306961 0.08322821 0.03112647 0.052698553
-0.11122996 -0.10139578 -0.17813724 -0.159822 -0.09200439 -0.17901085 -0.08725591 -0.16864398
0.0067167007 -0.08781958 0.09207577 -0.01938773 0.10134545 -0.0028342512 0.004703404 0.12841266

bias f4 [32]
00000000: c73d 8dbd 17a6 8cbe d16c 17be 0c5b a3bc
00000010: 7867 d5bd a86b 663d 150b 41be 904e 39bd
00000020: f1e8 423e d76a 2bbc 92ee 293e 482e 21be
00000030: d449 2a3e 03be 1e3e dc55 35be 428b d63d
00000040: bbb5 10be fe75 80be 40d4 373e a663 213d
00000050: 2ec9 39bd 400d 17be 6371 0c3e c908 0c3d
00000060: ae2c 433e 38af 1c3b 916d 0dbe 9296 1e3e
00000070: 1d84 48be 0e28 923c 3084 b6bd 7172 0cbe
-0.06896549 -0.27470466 -0.14787604 -0.019940875 -0.10420126 0.056255013 -0.18851884 -0.04524094
0.19034173 -0.010462484 0.16594914 -0.15740311 0.16629726 0.15502171 -0.17708534 0.1047578
-0.14131825 -0.2509002 0.1795206 0.039401673 -0.045357876 -0.14751148 0.13715129 0.034188066
0.19060013 0.002390815 -0.13811328 0.15487126 -0.19581647 0.017841365 -0.089119315 -0.13715531

weight f4 [32, 32, 5, 5]
00000000: 48b0 23bd 5b7a 0dbd 6a8c 98bc 7eda d73c
00000010: 4dd1 a3bc 95a9 0fbd 37e1 31bd 065a 1cbd
00000020: 3bbd 59bc e382 93bc dfa7 08bd 7c55 93ba
00000030: bd3e d0bc 09d0 bcbb 1f7b b83c 41d3 a53b
00000040: eb9d 37bb 95fd 1bbd 629e 1b3d cdbc a3bc
00000050: 9cda c93c 7c31 3a3c b453 80bc 0fe9 97bc
00000060: ba29 ed3b 0ccd dcbc 4bbd 13ba 8f2c 053d
00000070: 5a87 993c 9410 163b bf06 5b3b fad4 89bc
00000080: 49db 2bbc 757f bf3a d3fd 30bc 20f4 bf3c
00000090: 7041 8c3c 174c 4a3d d00c a13c 7987 393b
000000a0: 5379 ae3c 2547 6c3d bc8d 703d ea5f 0d3d
000000b0: 78ca a33c 186d 24bc d1b7 093d 89ef 8bbb
000000c0: 4216 383d c1d6 363d 00c2 933b 533d e8bc
000000d0: 0135 ef3c 1ff2 ec3c a948 8cbc 4f3b a43c
000000e0: 6742 09bc c330 4bbc d5b8 e93c 7560 8dbc
000000f0: 397e be3c 900a c8bc 2e2d bc3c f19c 173d
00000100: 5a3e 043d c118 b4bb 48b8 98ba 4e0c fa3c
00000110: 3275 2f3c 72d9 b6bc 2ab4 053d 7b50 0a3d
00000120: fdd9 a0bc 743b 213d c4ac dabb 6529 693c
00000130: ad8a 9cbc 256c 4cbc 6af9 8abc 7702 bdbb
00000140: 7b4b 253c 5990 0bbc 9e31 103a 41bb ebbc
00000150: 3e7c 123c aa07 88bc 88ea acbc 1930 70bc
00000160: ea3a 823c ab09 fabc 09af c13c b6eb 283c
00000170: b41b 9bbb 2619 33bb 9e16 01bd 31bb c03b
00000180: 5f3e d7bb 99b4 fe3b 27d0 0fbd b698 8dbc
00000190: 99ec fc3c d064 983c 5ec4 d3bc 7d4a 8c3b
000001a0: 2040 97bb 6b5f 3bbc 59a1 d63b 2f02 843b
000001b0: 2a3e 553c 0ce1 ee3c 10ae dcbc d212 223d
000001c0: d4a6 25bc f094 2a3d a2bc 17bc 3e9d d8ba
000001d0: 3e40 91bb 9273 b0bc bce3 06bc 00be 9b3c
000001e0: 59ad 103d dab8 d53a 28b0 de3c 1e63 193d
000001f0: a5c9 80bc 9cbe be3c e087 a4bc 4f41 3cbd
00000200: 89dd 453c 5de3 5fbc d8f9 a23c d99a b0bc
00000210: 35b6 1fbd b86f 1ebd 83dd 89bc 0ef0 573c
00000220: b6e5 88bc 16f2 06bd 0971 b7bc d806 d73c
00000230: 0d87 0ebd e6a3 e03b 04e2 19bd d9c0 b43c
00000240: 9ce5 ad3c 4061 efbc 4a32 0cbb d8d0 bfbc
00000250: 3fbb 1cbd b4e2 cabc 5de3 5bbc 9792 10bc
00000260: 3d76 f6bc e55f 00bd 0d1b c73c 13a8 c53b
00000270: 2402 c1bc 9f3d e9bc f2e4 f63c fa94 db3b
00000280: 3c1f 1c3d 2dd2 c5ba 8d96 e13c bea2 a63c
00000290: 820c 553c 4d50 e1bb 59b8 fc3b c28e 07ba
000002a0: 1aeb 12bc 3f2b 0d3d 07eb 62bc 5448 5fbb
000002b0: 2ead 0b3d 0d93 6a3a 12d5 eb3c 8311 acbc
000002c0: 30ba 69ba ece0 4f3c 1d4d cd3c e2f6 653c
000002d0: c045 113d 0b76 4b3d 5856 8bbc 8944 9c3c
000002e0: 26f1 fb3c 4d19 62bc f96c 213d 3657 3cbc
000002f0: a5a1 aa3c ceb8 a93b 9dca 133b 23b7 febc
00000300: 1e2c 6bbb d629 09bd 0a83 29bd 2f99 1bbd
00000310: b686 09bd 0c91 83bc 455a e5bc bbd8 fdbc
00000320: 67a5 fd3c 671f 94bc 0b4a dcbc 6632 823c
00000330: c1e8 d7b9 aa71 ad3b a21d 22bc e68f a4bc
00000340: cfed 463c 15ac 09bd c65e 5ebd 6998 323a
00000350: 06de 64bd 0739 83bc 5ed3 fcbb 7ae4 3dbd
00000360: 3d8f 41bd aec5 53bd 877e 57bd f2f6 52bd
00000370: 1ca6 d9bc fd7c 27bd 1c1c aa3c cae2 e4bc
00000380: 12ef fcbb 7355 a43c 88d8 0cbd bf34 b2bc
00000390: e094 8fbb 131b c1bc c224 d7bb 5b5c 2cbc
000003a0: 6a9b 80bb 4b62 91bb 3591 f83c e2aa 74bc
000003b0: ba62 c93c 3b9d 94bc 0c91 563c 9eed 91bc
000003c0: 8129 723c bbc8 a93c 14a9 c33c aa02 acbc
000003d0: 224e 39bc e930 ac3c 8a98 ddbb 9f35 17bc
000003e0: ee15 1dbd 3f53 99bc 2a3a e4ba b874 1d3d
000003f0: 0c4f 62bc b834 81ba 0e9c 2ebb 3fe9 c13c
-0.039963037 -0.034540515 -0.018621642 0.026349302 -0.019997263 -0.035073835 -0.043427672 -0.03817179
-0.013289745 -0.018006748 -0.03336322 -0.0011240686 -0.025420541 -0.0057621044 0.022519646 0.005060584
-0.002801771 -0.03808363 0.037992842 -0.019987488 0.024640374 0.011364337 -0.015664913 -0.018543748
0.00723764 -0.026953243 -0.0005635812 0.032513198 0.018741298 0.0022898065 0.003342077 -0.016825188
-0.010489293 0.0014610129 -0.010802704 0.023431838 0.017121047 0.04938897 0.01965943 0.0028309508
0.021298086 0.057685036 0.05872892 0.0345153 0.019994006 -0.010035776 0.033622567 -0.004270498
0.0449431 0.0446384 0.0045092106 -0.028349554 0.029200079 0.028924046 -0.01712449 0.020047812
-0.008377648 -0.012401762 0.028530518 -0.017257908 0.023253547 -0.0244191 0.022970762 0.037014905
0.032286026 -0.005496115 -0.00116516 0.030523445 0.010709094 -0.022320483 0.03264252 0.03376816
-0.019635195 0.03936334 -0.0066734273 0.014231061 -0.019109095 -0.012476956 -0.016964633 -0.005768116
0.010088797 -0.008518302 0.00055005576 -0.028775813 0.008940754 -0.016605217 -0.021107927 -0.014659905
0.015897233 -0.030522188 0.023643034 0.010310104 -0.004733527 -0.0027328222 -0.03151571 0.00588169
-0.0065687145 0.0077729938 -0.03511062 -0.017284732 0.030874537 0.018602759 -0.025850471 0.0042813406
-0.0046157986 -0.011436324 0.006549996 0.0040285806 0.013015309 0.029160045 -0.026938468 0.03956873
-0.010110576 0.041645944 -0.009261282 -0.0016526354 -0.004432707 -0.021539483 -0.008233007 0.019011497
0.035321567 0.00163057 0.027183607 0.03744804 -0.015721152 0.023284249 -0.020084321 -0.04596072
0.012076744 -0.0136650475 0.019894525 -0.021558212 -0.038992126 -0.038680762 -0.016829258 0.013179792
-0.016711097 -0.032945715 -0.022392767 0.02624838 -0.034796763 0.0068554757 -0.03756906 0.022064613
0.02122765 -0.029221177 -0.002139228 -0.023415014 -0.03826451 -0.024766304 -0.013420907 -0.008824012
-0.030085677 -0.031341452 0.024304891 0.006031999 -0.023560591 -0.028471766 0.030138467 0.006701109
0.038115725 -0.0015092544 0.027537609 0.020341273 0.01300347 -0.0068760277 0.0077124056 -0.0005171114
-0.008967185 0.03446507 -0.01384998 -0.003407021 0.034100704 0.0008948304 0.028788123 -0.021004444
-0.0008915989 0.012687903 0.025061185 0.014035912 0.03546691 0.04967312 -0.017008945 0.019075649
0.030754637 -0.0137999775 0.039410565 -0.011495402 0.020829031 0.005179501 0.0022551187 -0.031093186
-0.003588445 -0.033487163 -0.041384734 -0.037987884 -0.033575736 -0.016060375 -0.027997145 -0.030987134
0.030962659 -0.01808138 -0.026890775 0.015893172 -0.0004118141 0.005293091 -0.00989476 -0.020088147
0.012141659 -0.033611376 -0.0542896 0.0006812872 -0.0558758 -0.016018404 -0.0077156266 -0.04636047
-0.047255743 -0.051702194 -0.0526109 -0.051505037 -0.026568465 -0.040890682 0.020765357 -0.027940173
-0.007718929 0.020060277 -0.034386188 -0.021753667 -0.004381761 -0.02357248 -0.006565661 -0.010520066
-0.003924777 -0.0044367663 0.030342678 -0.01493332 0.02458321 -0.01814138 0.013096105 -0.0178135
0.014780403 0.020725599 0.023884334 -0.020997364 -0.011310132 0.021019416 -0.006762569 -0.009229093
-0.038350992 -0.018716453 -0.0017412354 0.03844139 -0.013812792 -0.000985763 -0.0026643309 0.02367079

bias f4 [32]
00000000: d8f5 d8bd c9a1 efbc b4d7 84bd ea04 063d
00000010: e74f 9ebc 17ea 0dbd 1071 343c 9e83 79bd
00000020: 12b7 d13c d660 d2bc 2bdf b8bc d066 3b3d
00000030: f75f 0abc f182 ca3c 37c7 2e3d 9ff8 80bd
00000040: 40f2 383d be26 45bd a315 53bc a115 773d
00000050: 0082 30bd f138 c2bd 7499 fdbc 4f75 353d
00000060: a499 4d3d 57dd 0abd b313 963c e673 cfbb
00000070: 9a66 65bc 872d a2bd 2abc 1d3c 871e 283c
-0.10593766 -0.02925195 -0.064864546 0.03271953 -0.01932521 -0.034647074 0.011013284 -0.060916536
0.02559999 -0.02568094 -0.022567352 0.045752347 -0.008445731 0.02472064 0.042670455 -0.06297421
0.045152903 -0.04813265 -0.012883577 0.06032336 -0.043092728 -0.09483517 -0.030956961 0.044301327
0.05019535 -0.033902492 0.01831994 -0.006330955 -0.014001513 -0.0791884 0.009627381 0.010261185

weight f4 [64, 32, 5, 5]
00000000: ba28 cfbc ecfc e1ba e6bc b03a 3544 c1bb
00000010: a50b 673c 6438 64bc 61e9 8abc ee35 2b3c
00000020: bfea b83c 4a3e 243d 48e7 143d 682c 0c3d
00000030: 4e40 4e3d 86a3 613c bd31 d43c 35c0 7cbc
00000040: b2da 2ebb 0249 0d3c 9be5 03bc e198 b83c
00000050: de7f 2cbb 3361 a03c 73e6 6b3b 893a 0c3d
00000060: d58e a83a 970d b03c c0c5 983c 91dd f1bc
00000070: e69e 123b cf50 bebc 510a 59bc e2eb eabc
00000080: c4c3 933a d6cf 3f3b ee1f a9bc 06ed fd3c
00000090: 4b85 603d 4832 363d bf3d b5bb 4201 2e3d
000000a0: 5bbb cd3c 3f07 91bb bc17 4a3d 2616 463d
000000b0: 7dea 3a3d 11a9 af3b 3dcf 1fbd dbd3 75bc
000000c0: 5d07 d03b babb 643c 88c1 6bbb 7a8a 9dbc
000000d0: 3856 603b fbbf 8c3b 1416 503c dfd1 023d
000000e0: 1459 d2bb 7155 fe3c abea 203c b148 0fbd
000000f0: f317 edbc 5d27 b33c 7979 803b e32e 803c
00000100: 899d c6bc 1f2f 0e3d 17bc b03b 7847 f83c
00000110: f219 81bc ccdc 063d e23c e43c 4ecf ac3c
00000120: 149b e73c c8a1 e83a 17bf 81bb fc73 023d
00000130: d1e7 8c3b d9e4 84bc 6cf3 993c 6e8c 7e3c
00000140: 7209 cdb9 6d5f 083c d614 c0bc 2692 503c
00000150: 6886 22bd 460f 1e3d 5cda 363d 255f 3e3d
00000160: f112 b93c 1610 3a3c ae6b 723c f2b7 c0ba
00000170: d207 143d a757 0fbc 2067 55ba 9822 40bb
00000180: c1dc a93c 7c93 b5bc 236f 8bbc 11c9 9a3b
00000190: 87ec 60bc 7154 183c 1835 b03b 1288 8f3a
000001a0: 8bf2 ce3b c474 53bc 2d47 1f3c 5ed7 64bc
000001b0: 2d51 f73c d389 a53c 7f1c 253b 12bb b13c
000001c0: 2139 edbb 7f8d 2e3b b0cb 94bc f802 263c
000001d0: b103 6ebc d24a 163c 5649 c8bc b21a 0b3d
000001e0: 6a8a 573c b19f 103b 1e79 eebc 8122 06bd
000001f0: f9f2 abbc 09e7 f03c 8464 06bb 3d14 acbc
00000200: 2701 083b 5992 b6bc 2ec4 fabb 5b3e 69bc
00000210: 9018 853c 9afa 32bc e2dd e7bb 2162 493d
00000220: 86ba f93c d0d0 0e3d 6a3f 1d3c 09ae 9f3c
00000230: 41e5 863c 10de 043d 0a4b aa3c 0f22 1b3d
00000240: 33b4 99bc 879a a03c 4554 d4bc 07b6 acba
00000250: 04e4 cd3b ab49 afbc c637 f83c f4d9 41b9
00000260: ac2c 3abc 2cc0 e9bb 9ed4 92b9 2f11 9aba
00000270: e398 b93c b4ef 653c a9f0 d53c 700d 79bb
00000280: e438 4cbc 5c6f ff3b 41bb 263d bef8 173d
00000290: ac75 f43c 44c1 253c fad3 7cbb 494b dfbc
000002a0: b936 e9bc d0be edbc e547 e5bc 9941 d5bc
000002b0: e212 adbc f89f ac3c 43f0 b63c de7f c13b
000002c0: 099b 0d3c 23c2 a93c 7c10 d3bc 0d5a f4bc
000002d0: bf15 bd3c 2eb7 e5bc 8d1d 84bc 68c9 29bb
000002e0: 037e aebc 0754 bb3c 904d cf3c 71de 26bc
000002f0: 332b b63c bcdc 99bc 493f c8bc 8d78 1c3c
00000300: 2e64 b73c fa14 0cbc 62d3 31bc 5566 b7bc
00000310: 24e9 ab3c 9014 c33b a645 513c bd6a 08bc
00000320: 2805 673c c78d c43c 7325 123d b0a8 9f3c
00000330: 84fb 44bb 2191 32ba 8fab 0fbc 376c 09bc
00000340: 1ce1 753c cc38 81bb 35ac 8f3c ec1d f1b9
00000350: 9506 ed3c f36f d2bc e896 023d de52 453c
00000360: d88e d13c e902 2b3c cbe2 203c b004 ffbc
00000370: a0bf afbc dd48 143d 4dc7 11bd c564 05bd
00000380: 7117 22bd 762e db3c 0b32 d33c dd16 53bc
00000390: fd83 853c 804e ec3c 0e06 863c cf3c 093b
000003a0: 7d36 ca3c 56d2 d3bc 2051 e03b a968 cdbc
000003b0: bca7 9d3b e4de 4ab9 9b8e 113d f325 e73c
000003c0: ad55 1c3d 4058 1f39 d2ed b33c ad66 cebc
000003d0: 15d3 293d eea6 123d 7a33 0f3d 77ed 4ebb
000003e0: 1821 71bc 1f16 cabc 4a52 b63c 2c9c 8cbc
000003f0: 8b6a 0e3c bfb0 0fbc 408a 903c b3b1 01bd
-0.025287975 -0.0017241514 0.001348403 -0.0058980235 0.014101897 -0.01392946 -0.016956987 0.01044987
0.022572873 0.040098466 0.03635338 0.034222037 0.050354294 0.013771897 0.025902623 -0.015426685
-0.0026680646 0.008623363 -0.008050348 0.022533836 -0.0026321332 0.019577598 0.0035995513 0.03423551
0.001285995 0.021490855 0.018648982 -0.029524596 0.0022372543 -0.023231892 -0.0132470885 -0.02867693
0.0011273553 0.0029268167 -0.020645108 0.03099681 0.054814618 0.044481546 -0.0055310423 0.04248167
0.025113752 -0.0044259126 0.04933904 0.048360966 0.04563378 0.0053607305 -0.039015997 -0.015004124
0.006348534 0.013960773 -0.0035973508 -0.01923107 0.0034231078 0.004295347 0.012700576 0.03193843
-0.0064193103 0.031046601 0.009821574 -0.034981433 -0.028942084 0.021869356 0.0039207307 0.015647357
-0.02424504 0.034712907 0.005393516 0.030307516 -0.015759442 0.032925412 0.027861062 0.021094944
0.02827219 0.001774841 -0.0039595473 0.031848893 0.0043000956 -0.016222404 0.01879283 0.015536411
-0.00039107684 0.0083235325 -0.023447435 0.012730157 -0.03967896 0.038588785 0.044641837 0.046477456
0.02259204 0.011356374 0.014796181 -0.0014703257 0.03614027 -0.008748925 -0.0008140672 -0.0029317494
0.020735146 -0.022165053 -0.017020768 0.004723676 -0.0137282675 0.009297476 0.005377423 0.0010950586
0.0063155345 -0.012906257 0.0097215595 -0.013967363 0.030190075 0.020207321 0.0025193987 0.021695647
-0.0072394763 0.0026634631 -0.018163532 0.010132544 -0.014527247 0.009173112 -0.024449032 0.033961006
0.013155559 0.002206784 -0.029110488 -0.03274775 -0.020989882 0.029407041 -0.002050669 -0.021005744
0.002075264 -0.02228658 -0.007652781 -0.014236058 0.016247064 -0.010924006 -0.007076011 0.04916585
0.03048445 0.034867108 0.009597639 0.019492166 0.016466739 0.032438338 0.020787735 0.037874278
-0.018762683 0.019604934 -0.02591909 -0.0013176807 0.006283285 -0.021397432 0.030300032 -0.00018487108
-0.01136319 -0.0071335044 -0.00028005702 -0.0011754389 0.02265591 0.0140342 0.026115732 -0.0038002394
-0.012464736 0.0077952575 0.040705923 0.037102453 0.029841267 0.010116879 -0.0038578496 -0.027257578
-0.028468477 -0.02902165 -0.027988384 -0.026032256 -0.021127168 0.021072373 0.022331363 0.0059051355
0.00864292 0.020722454 -0.025764696 -0.029828096 0.023081658 -0.028041448 -0.016127372 -0.00259074
-0.021300321 0.022867216 0.02530554 -0.01018487 0.022237396 -0.018782012 -0.02444424 0.009550226
0.022386637 -0.008549923 -0.01085362 -0.022387663 0.020985194 0.005953379 0.012772953 -0.00832623
0.01410035 0.023993386 0.035680246 0.019489616 -0.0030057142 -0.0006811787 -0.00876893 -0.008387617
0.015007284 -0.0039435383 0.01753817 -0.00045989396 0.028933803 -0.025688147 0.031882197 0.012043683
0.025580809 0.010437706 0.009819697 -0.031130165 -0.021453679 0.0362023 -0.03559046 -0.032566804
-0.039573137 0.026755553 0.025780698 -0.012883869 0.016298288 0.028846025 0.016360309 0.0020940786
0.024684185 -0.025857132 0.0068456084 -0.02507432 0.0048112553 -0.00019347254 0.03553639 0.028216338
0.038167644 0.00015196297 0.021963987 -0.025195444 0.04146107 0.035803728 0.0349612 -0.0031574646
-0.014717363 -0.024668751 0.022256035 -0.017164312 0.008692394 -0.008770167 0.017644048 -0.031663608

bias f4 [64]
00000000: 9530 28bd 5f46 193d beb1 c03b 6dff d63c
00000010: 3504 d43b d258 54bc e45d 983c cbd1 22bc
00000020: c47c acbc 50d6 08bc 4d24 bb3b fb55 0d3c
00000030: 08ae 95bd 6da4 c23b 2611 553c c053 34b9
00000040: d88a e53a 8289 22bd 3006 36bd 6428 bcbc
00000050: d82c 35bc 297e 87bc 4386 2fbd 9e4d 65bc
00000060: b9d4 3abb 9986 e8bc 139e 70bc bd68 87bc
00000070: bb21 573c b103 a1bc b48e dd3a c893 ccb9
00000080: c2d4 2e3b 7d1a 07bc 1da6 07bd de42 86bd
00000090: 4034 8a3c 7d7e 1d3d 9aec d2bc 7972 abbc
000000a0: 95a8 e83c 369a 5e3c 8aa9 39bd 228d 0d3b
000000b0: f9e3 19bc d162 f7bc cfd1 99bd 6e73 1dbc
000000c0: 3835 0abb e328 8a3c 017e 28bd cc89 6d3c
000000d0: 1ff5 ac3b f039 d5bc 7a5b e0bc 194c 23bc
000000e0: 314f 3bbc 46c1 1e3d a396 83bb 9976 bd3c
000000f0: ba4a b8bc bfa8 b7bc 00fe cc3c 9ead 263c
-0.041061956 0.037420627 0.0058805635 0.026244843 0.006470228 -0.01296063 0.018599458 -0.009937714
-0.021055587 -0.008351877 0.0057111145 0.008626456 -0.073085845 0.0059400112 0.013004577 -0.00017197337
0.0017512692 -0.03968192 -0.044439495 -0.022968479 -0.011058055 -0.01653965 -0.04285265 -0.013995556
-0.002850814 -0.028384494 -0.014686125 -0.016529435 0.013130601 -0.01965508 0.0016903491 -0.00039020018
0.0026677107 -0.008246061 -0.033117402 -0.06555723 0.016870618 0.038450707 -0.025747586 -0.020928608
0.028400699 0.013586571 -0.0453277 0.0021599014 -0.009392732 -0.030198487 -0.07510721 -0.00961004
-0.002108885 0.0168652 -0.04113579 0.014498185 0.005278244 -0.026028603 -0.02738737 -0.009966874
-0.011432455 0.03875854 -0.00401576 0.02312784 -0.02249657 -0.022419332 0.02502346 0.0101732295

weight f4 [64, 1024]
00000000: 73c1 c8bc 9678 c2bb addd ca3c cdc7 10bc
00000010: 3d3a 72bc f179 16bc 0ac7 07bc 11b3 ef3c
00000020: 2e34 223c 37d9 a3bc 02a5 363c 36a5 bd3c
00000030: e40f 1e3c 53a9 a43c abd5 963b e8d4 1bbd
00000040: c867 ee3b bb61 7abc cb18 bdbc c4a0 c5bc
00000050: 4067 a7bb 35ad 193b 2255 c6bc b9b8 2fbc
00000060: ce0e ed3b 8bbd 6a3c d193 6b3c c107 3abc
00000070: 464c 84bc c638 2a3d a997 843c 7e74 07bd
00000080: 3aa5 7e3c c5f3 ae3c b934 88bb f07e bdbc
00000090: bc36 92bc a35a b4bc 5710 8fbc 742b c7bc
000000a0: 154a 3fbc 534f 3c3c 259e b2bb 73f5 a3bc
000000b0: 8837 56bc 928b 8fbb 0b87 2cbc f09f fe3a
000000c0: 6bb6 a93c fd18 373c 5b87 cabc acd8 65b9
000000d0: 9fe9 e7bb 07ba eb3c 42fe fcbb 18fe bf3c
000000e0: b862 83b8 ac07 513c 1628 23bc fd8c c8bc
000000f0: 2c95 9bbc d885 613c 3aa3 8b3b 40c1 26bc
00000100: 26b4 9c3c d383 db3c 5d91 9bbc 65f4 6ebc
00000110: 4dda dbbc 1e7b 75bc 622c 3e3c 7ead 9cbb
00000120: efbb 0fbd 5eaa babc 80fa b0bc 7a97 743b
00000130: d1d0 47bc 69fb 2f3b 641e 963c 218a 7abb
00000140: 03db dbbb a043 803b de01 22bc 5600 0ebd
00000150: 240a 153d 0817 fdbc 444b dbbb 38e6 27ba
00000160: 0e82 803b ca32 f0bc b52e 1cbd 46e5 083d
00000170: cf5d 783a 6684 22bc cd2e 3fba 4ce8 b0bc
00000180: 9cae 15bc fb68 903c 21e7 063b 494f 8abc
00000190: 434c 66bc 0486 0b3d 64d0 8e3c 0683 9a3b
000001a0: f386 79bc 2ce2 e33c 9c4d 1dba 58f8 61bc
000001b0: bd5e 5c3c 019b 1fbd 584d dcbc ea1d 153d
000001c0: 19b7 84bc 0166 3e3c e940 c63c 26d7 b73c
000001d0: 9d0d c23c 1bf3 dd3c ff76 12bc 772f a23c
000001e0: 5810 9f3c 660d 0f3d 3b0b 413c fb36 5fbc
000001f0: 9add 29bc 72c8 d93a 1403 c13c 59df dcbc
00000200: f4c5 0dbc c6c3 01bc 9004 5f3c 9367 b63c
00000210: ff8d f03b a659 7a3c 8e93 7e3c af2f 1cba
00000220: 00a2 c0bb 534d bdbc 3463 e0bc 411d 0bbb
00000230: 6766 9b3c 5265 363c a32e 6bbc 6efb b5bc
00000240: 9a26 8cbc e756 b8bc b2d2 22bb f4b6 4ebc
00000250: 8cee 213c 5e18 db3a bd5a adbc d99b f23c
00000260: 765d 553c 022a 82bc f2a3 cd3c 098e c1bc
00000270: fa62 8a3c 6f87 30bd 1a09 df3b 53c4 10bd
00000280: a428 f0bc cd6e ccbb 9765 84bc e854 43bb
00000290: 303c b93b f2aa a0bc a030 a5bc efe7 cfbb
000002a0: aa6c fd3b 8e33 8fbb 1db0 daba 5d13 d2bb
000002b0: 095a 0a3d 1028 e33c e9e9 ae3c 83d8 dcbc
000002c0: 4997 d5bc 61a2 94bc 3170 cebc 1ccc fa3b
000002d0: 680c b9bc 3c00 ee3c ea98 033c b841 2bbd
000002e0: 6c7c 9e39 a433 553c 187f 013c c776 163d
000002f0: 0b95 d6bb 84af 9bbb c9eb da3c 6afc 553b
00000300: 40fa 1eb8 1977 07bc 4515 bf3c 7ea9 1e3c
00000310: f832 c5bc d4ec 963c 9171 163c 19d2 1c3c
00000320: 0a88 cdbc 97fe 143b 28d7 e9bb 9d41 aa3c
00000330: 954e b23c b049 30bc dd43 903c 80de b5bc
00000340: 66ee cebc 458c 9cbc 2a9c 9cbc d5f5 f3bc
00000350: 225d ff3b d4a7 debc b37c 9fbc 8b07 15bd
00000360: 7049 ef39 3d1e 30bc 88c4 f13c bf00 7d3c
00000370: 4b86 613c 33d4 323b a6bd f4bb a229 b7ba
00000380: 7b94 d13c 6ff2 c0bc cd70 033d 2f9d 16bc
00000390: 3ede cc3a a94b 803c cb63 0ebb 49b4 783c
000003a0: ad30 9cbc 863d 0c3c 1bbd 743c 956a 083c
000003b0: e2d1 823c 4351 0ebb de4d e43c ddd8 6f3c
000003c0: 7da2 3a3c 2d1e 90bb dcce 8c3c 9d46 d33c
000003d0: 74e7 2c3c f353 b5bc fa57 ccbc f18a acbc
000003e0: 49c7 083c 6f44 97bc 449e c6bc 4465 8e3c
000003f0: 8511 91bc 40ff 2a3d f3c8 703c 568c 2abc
-0.024506306 -0.005934785 0.024763906 -0.008836699 -0.014784393 -0.0091843465 -0.008287201 0.02926019
0.009900136 -0.020001037 0.011147739 0.023150068 0.009647343 0.020100271 0.004603108 -0.03804484
0.0072755553 -0.01528209 -0.023083111 -0.02412451 -0.005108744 0.0023449187 -0.024210516 -0.010725194
0.007234431 0.014327417 0.014378504 -0.011354388 -0.016149651 0.04155805 0.016185598 -0.03307008
0.015542323 0.021356473 -0.0041566757 -0.023131818 -0.017848365 -0.022015875 -0.017463846 -0.024312712
-0.011675377 0.011493522 -0.005450981 -0.0200145 -0.013074763 -0.0043806517 -0.010530244 0.0019426327
0.020716866 0.011175391 -0.024722746 -0.00021919858 -0.0070774104 0.028775228 -0.0077207396 0.023436591
-6.2649546e-05 0.012758177 -0.009958288 -0.024481291 -0.01899203 0.013764821 0.0042614015 -0.01017791
0.01912887 0.026796257 -0.018990213 -0.014584635 -0.026837492 -0.014982967 0.011607261 -0.004781424
-0.035091337 -0.022786316 -0.021603823 0.0037321732 -0.012195782 0.0026852733 0.018325038 -0.0038229304
-0.006709458 0.0039143115 -0.0098881405 -0.03466829 0.036386624 -0.030894771 -0.006692322 -0.00064048497
0.0039217537 -0.029321093 -0.03813048 0.033421777 0.0009474428 -0.009919262 -0.00072930456 -0.021595143
-0.009135868 0.017628184 0.002058454 -0.01688351 -0.014056268 0.034063354 0.017433353 0.0047153262
-0.015229928 0.027817808 -0.00060006394 -0.01379212 0.013450322 -0.038966183 -0.02689235 0.03640548
-0.016200589 0.011620999 0.024200873 0.022441458 0.023688132 0.02709346 -0.008939504 0.019798024
0.019416973 0.034924887 0.011782463 -0.013623948 -0.010367775 0.0016615523 0.023561038 -0.02696197
-0.008653153 -0.007920211 0.013611928 0.022266185 0.007341146 0.015280163 0.0155381095 -0.0005958033
-0.005878687 -0.02310816 -0.027391054 -0.0021227153 0.018969728 0.011132555 -0.014354381 -0.022214618
-0.01710825 -0.022502376 -0.0024844822 -0.012616862 0.009883534 0.0016715636 -0.021161431 0.02961533
0.013022771 -0.015889172 0.02510259 -0.023627298 0.016892899 -0.04309791 0.006806505 -0.03534348
-0.029316254 -0.0062387944 -0.016161723 -0.0029805247 0.005652927 -0.019612763 -0.020164788 -0.0063447873
0.007733901 -0.0043701595 -0.0016684566 -0.0064109997 0.03377727 0.027729064 0.021351771 -0.02695871
-0.026073115 -0.018143835 -0.025199981 0.0076537263 -0.022588924 0.029052846 0.008032063 -0.04181072
0.0003022881 0.0130128 0.007903837 0.03673437 -0.006548529 -0.0047511477 0.02672376 0.0032651671
-3.79032e-05 -0.008268141 0.023325572 0.009683965 -0.024072155 0.018423475 0.00918235 0.009571576
-0.025089283 0.0022734755 -0.0071362443 0.02078324 0.021765986 -0.010759756 0.017610485 -0.022200823
-0.025260162 -0.019109854 -0.019117434 -0.029780308 0.0077930847 -0.027179636 -0.01946864 -0.036384147
0.00045640348 -0.010749397 0.029512659 0.015442072 0.013764928 0.0027287125 -0.007468897 -0.00139742
0.025583496 -0.023553101 0.032089997 -0.009192749 0.0015630198 0.015661078 -0.0021726962 0.015179702
-0.01906618 0.00855959 0.014937664 0.008326192 0.01596922 -0.0021715916 0.027869161 0.014639107
0.011391279 -0.0043981285 0.017188482 0.025790507 0.01055323 -0.022134757 -0.024944294 -0.021062346
0.0083482945 -0.018465249 -0.024245389 0.017382272 -0.01770855 0.04174733 0.0146963475 -0.010409435

bias f4 [64]
00000000: 257e 9c3c 2d7f 4ebc bb02 213d 9e9a 03bd
00000010: db58 6fbc f3b7 9c3c 3ef6 5e3c 540a 94bc
00000020: 3776 0ebc 9062 84bc 8010 bc3c 02ad 943b
00000030: 4952 393d 9d62 b73c e9ac 85bb 7166 37bd
00000040: 3a1d 75bc 847f a8bb 2bbd 0abd 2253 163d
00000050: 082f 8bb9 fa34 15bd a622 5c3b 3f4e 6bbc
00000060: 5118 9bbc ba3a b33c 1fc2 6f3c bcdb 483d
00000070: 7210 aabc 9f8c 2cbc 3a46 afba 55fd 2abd
00000080: 2e07 2bbd a8d0 2b3c 7288 91bc 5ae2 af3c
00000090: 638b 793d bbca fbbc 6f2e dc3b 111f 843c
000000a0: 48c2 6f3c 5dcd 4c3c 1430 d0bc 0985 52bc
000000b0: af68 c73c c17c 6bbc 47ec aebc cad0 c4bc
000000c0: c875 36bb 2eef 8fbc c9c0 4e3c 701a 18bd
000000d0: a930 e83c ad40 883b 6314 f7bc 534c febc
000000e0: 834a dbbc aed3 55bc 4591 d93c 1ac1 203d
000000f0: 3f1a 61bc 3afd 5e3c 03d8 fc3c 75d0 29bd
0.01910312 -0.012603563 0.039309245 -0.032129876 -0.014608587 0.019130683 0.013608513 -0.018071331
-0.008695177 -0.01616028 0.022957087 0.0045372257 0.04524449 0.02238589 -0.0040794504 -0.04477543
-0.014960581 -0.005142154 -0.03387181 0.036700375 -0.00026547187 -0.036427476 0.0033589988 -0.014361917
-0.018932493 0.021878589 0.014633684 0.04903768 -0.020759795 -0.010531574 -0.001337237 -0.041745503
-0.041754894 0.010486759 -0.017765258 0.021470238 0.060923945 -0.030736318 0.0067194025 0.016128095
0.014633723 0.012500134 -0.02541355 -0.012849101 0.02434191 -0.014373005 -0.0213529 -0.02402534
-0.00278412 -0.017570104 0.012619206 -0.037134588 0.028343515 0.0041581006 -0.030161088 -0.031042254
-0.026768928 -0.013050957 0.026558528 0.039246656 -0.013739168 0.013610179 0.030864721 -0.041458566

weight f4 [10, 64]
00000000: 2e7a 2dbd 706c d0bd 8ee7 3f3c d396 023e
00000010: ec5d 993c 75d4 073e 0afc fa3d f517 05bc
00000020: a37c a23d d216 eb3d 52fe 1c3e 858e 45be
00000030: d034 16be db21 11be ff86 d33d 12b1 983d
00000040: f759 adbd 00ce 1e3e 52b2 723c 2f14 40be
00000050: 99ed 393e d0a0 48bc 0f2a 05be 1c89 0cbe
00000060: ef07 a2bd 111a a9bd 5ce9 b7bd c6e1 12be
00000070: dea4 e8bd 84ee 1ebd 83c0 7f3d 34e7 dcbd
00000080: 5d21 fe3d da9b 893d b560 c83d a707 e4bd
00000090: e4c7 eabd a0e4 373e 3bf4 6cbd e7cc 403e
000000a0: c2aa e53c ee13 4fbd 0ac5 cabd 3577 263e
000000b0: 872e 1fbe a00c e03d d9b9 ed3c 1c94 283b
000000c0: de2c 8c3d 6232 0dbd 24c4 00be d8ef 243e
000000d0: c209 133d 5c48 0cbe 8faa 043d bded a03d
000000e0: 4577 19bd fd83 853d 31d9 cfbd 2eb5 d1bd
000000f0: 2529 ba3d c33b ec3d bb4b 62bc 341c 1c3c
00000100: fe93 65be c271 9cbd 2fd7 263d 2406 e23c
00000110: 8398 4bbe 237f 6d3d a258 113e a70b 253e
00000120: 6b13 2c3d 9642 d9bd 1b11 c4bd c35b 06bc
00000130: 6046 0bbe e203 bdbd f457 033e 5614 4b3e
00000140: e3b0 b9bd ad26 1b3e 0a71 673b 332b 843e
00000150: 8891 9f3d 53bc f53d 21d3 ce3d 3ca1 dcbd
00000160: 033d 243e c5be dbbc 53d6 62be c317 9dbe
00000170: 87f1 c4bc bec1 563e aaf3 efbd 37d9 b53d
00000180: 3d97 08be c633 b53d 69cf b8bd 5fac 703e
00000190: 26ee 763e bf7d 7c3c 1a03 df3d 4e09 58bc
000001a0: bf0e 2dbe 1aba 99bb 31de 1abe cbdc e93c
000001b0: e728 e13d 0f41 253d 7c4b b0bc 6f34 8ebd
000001c0: f252 7b3e 643b cbbd f529 0ebe 233f ad3d
000001d0: 40a3 9fbc 281a 48bc 28d1 f63d 9acb 383e
000001e0: 204b c7bd 02b6 fc3d bf34 413e df2e 12bd
000001f0: 86ae ac3b 0437 0e3d 63f5 693d 5509 c1bd
00000200: 04f5 b93d d154 133e 6067 2abe 292c 8cbd
00000210: f53d fbbd 41a2 89bd 65b1 cebd a449 603d
00000220: beae 1c3e a31f bc3d a38b 283e 6264 453d
00000230: dd05 02be a0a9 fcbd 1074 82bd 214c afbc
00000240: 2143 0ebe b541 11be 1405 e5bd beaf bfbd
00000250: 812f d6bb 5f7e b03d 7e38 cbbd 4b3d eb3d
00000260: e5da fb3d 7c8d 93bb 3e9a c7bb c017 8739
00000270: 36c5 cbbc 02f1 2bbb 8d83 363e 21da 44bd
00000280: 4a56 023e dd93 06bd 8648 0c3e e7f9 a1bd
00000290: 763c 653d 627b 84bc 843f 1dbe 0e6e 8f3d
000002a0: 3057 30bc d4d5 91bd 323b b53d 29ae 43be
000002b0: 70c4 ae3c 979d c33c 0e9f bcbd 7b13 aebd
000002c0: ff0a 1cbc fe9c e4bd c200 91b9 2a67 e13d
000002d0: 29f9 933c 7241 6d3d 0913 6ebd d0d4 63be
000002e0: 4142 dc3b 20e5 04bd 57e8 abbb ef68 b63d
000002f0: 208d 873d f004 273e 78ff 0cbc d2ab b1bd
00000300: 6ff4 0cbe 0385 003d 2fdf 15bd de65 14be
00000310: 95ed fcbd a56e eabd bd73 bbbd 9efc d7bc
00000320: bf61 0bbd c8dd 37bd 9c2c b93d ef87 ccbc
00000330: d7c8 b9bd b33d ed3d bda0 e13b 18ca 763d
00000340: 2cfd ab3d d504 96bd 9590 993d 5838 c4bd
00000350: 249c 1fbe 9cc7 cbbd efc2 d63d 5600 d73d
00000360: 89b7 0ebe 14c6 183e 5f65 a53c 33f0 d53d
00000370: ca98 123c d27d a53c ba2c 5cbd 7f62 3ebd
00000380: 9a9b 44be f648 e8bd ad85 b53d 6c4b 9abd
00000390: d194 a43d 7475 f13c a719 f33a 5db2 1ebe
000003a0: cce5 41bd 7501 bebd ed30 f53d ec1f a0bd
000003b0: dcd6 19be 1345 653d ee4d 8e3d 8bcf 053e
000003c0: 07fe 3a3d bb11 ef3b 09f0 203d eef3 7c3c
000003d0: 66ca 4f3d feb5 ac3d 1c92 113d e5e4 1dbe
000003e0: f8b0 1f3a dce0 ff3b e770 65bd 1d18 e63d
000003f0: 75dc f93c 5f67 943d 788c 98bd 2700 973d
-0.042352848 -0.10176933 0.011712922 0.12752847 0.018721543 0.1326464 0.12255104 -0.008123388
0.07933929 0.11478962 0.1533139 -0.19292648 -0.14668584 -0.14173071 0.10328483 0.074556485
-0.08464425 0.1550827 0.014813023 -0.187577 0.18157043 -0.012245372 -0.13004325 -0.13724178
-0.079116695 -0.08256925 -0.08980057 -0.14343938 -0.11359571 -0.038801685 0.062439453 -0.10786286
0.12408707 0.067191795 0.097840704 -0.11134272 -0.11463907 0.17958307 -0.057850104 0.18828164
0.028035525 -0.050556116 -0.099008635 0.16256411 -0.15545093 0.10939908 0.029019283 0.0025723046
0.06844495 -0.034471877 -0.12574822 0.16107118 0.035897978 -0.13699478 0.03238922 0.07857845
-0.03746726 0.065193154 -0.10148848 -0.102396354 0.09089879 0.11534836 -0.013812001 0.0095282085
-0.22419736 -0.07638885 0.04073256 0.027590819 -0.19882397 0.057982575 0.14193967 0.16117726
0.042010706 -0.106084034 -0.09573575 -0.008200589 -0.13601065 -0.09229256 0.1282652 0.19831976
-0.090669416 0.15151472 0.003531518 0.25814208 0.0779143 0.119988106 0.100988634 -0.107729405
0.16038899 -0.026824364 -0.2215207 -0.3068219 -0.02404095 0.20972344 -0.11716397 0.08879321
-0.13338943 0.088477656 -0.09023935 0.23503254 0.24114284 0.01541084 0.108892635 -0.013185812
-0.16900156 -0.0046913745 -0.15123822 0.028547665 0.1099413 0.040345248 -0.021520369 -0.06943595
0.2454336 -0.09923437 -0.13883193 0.08459308 -0.019487023 -0.012213267 0.12051612 0.18046418
-0.09731126 0.12339403 0.18867777 -0.03568923 0.0052698283 0.034720436 0.057118785 -0.09425608
0.09079936 0.14387824 -0.16640997 -0.068443604 -0.12267677 -0.067204006 -0.10092429 0.05475773
0.15301034 0.09185722 0.16459517 0.048191436 -0.12697549 -0.12337041 -0.063697934 -0.021398606
-0.13892795 -0.14185221 -0.11182609 -0.09359692 -0.0065364246 0.086178534 -0.099228844 0.114863
0.1229761 -0.0045029502 -0.006091385 0.00025766902 -0.024874311 -0.002623618 0.1782362 -0.048059586
0.12728229 -0.032855857 0.1369954 -0.07908993 0.055965863 -0.016172115 -0.1535626 0.07003413
-0.010762975 -0.071208626 0.08849181 -0.19109406 0.021333903 0.023878856 -0.09210025 -0.08499809
-0.009524106 -0.111627564 -0.0002765712 0.11006005 0.018063145 0.05792374 -0.058123622 -0.2224915
0.0067217653 -0.032445073 -0.005246203 0.08906733 0.06618714 0.16310477 -0.00860583 -0.0867535
-0.13765119 0.03137685 -0.036589798 -0.14491984 -0.12350003 -0.11446885 -0.09152935 -0.026365574
-0.034028765 -0.04488924 0.09041712 -0.024967162 -0.0907151 0.11584034 0.0068856166 0.060251325
0.08397898 -0.073251404 0.0749828 -0.09581059 -0.15586907 -0.09950182 0.104863994 0.10498111
-0.139372 0.14919311 0.020189939 0.10446205 0.008947561 0.020201597 -0.053753592 -0.046480652
-0.19199982 -0.11342041 0.08863387 -0.07533917 0.08036197 0.029474951 0.0018547074 -0.15497728
-0.047338292 -0.09277622 0.119722225 -0.078185886 -0.15023369 0.055974077 0.06948458 0.13067453
0.045652416 0.007295815 0.039291415 0.015439017 0.05073013 0.0843315 0.03553973 -0.15419348
0.0006091739 0.0078087877 -0.056015875 0.11235068 0.03050063 0.07246279 -0.07448667 0.07373076

bias f4 [10]
00000000: cfef f7bd a3c9 19bd 2d93 c33d 1834 b63d
00000010: c844 293d 099f e2bc 0097 2e3e 514a a3bd
00000020: 5c1f debd 6465 12bd
-0.12106287 -0.03754581 0.09549556 0.08896655 0.04132536 -0.027663724 0.1704979 -0.07973159
-0.10845825 -0.035741225
