chaoyang_9.pth (torch, 588587 bytes, 10 tensors)

weight f4 [32, 3, 5, 5]
00000000: 13c2 62bd 9815 0e3e c976 c83d 90e6 bb3c
00000010: 0784 893c c06a 89bd d34f 0b3e e7fe e93c
00000020: c1d6 e63d 5833 08bb 7e6c 153e 0c08 3d3e
00000030: 6555 953d 895d 383d 2120 a9bd 38eb b63d
00000040: 1033 1f3e 7e8c e73d ed83 343d 8a20 d93d
00000050: ff90 bc3d ceb5 e8ba f343 ed3d 7be8 cf3d
00000060: fa53 30bd 5543 a73d 3a81 72bd a163 1cbc
00000070: 575e 03be 7029 10be 05da ac3d 8ab6 af3c
00000080: 5b25 8dbd 1a7c e1bd 530a e03b 5e5d c33d
00000090: 3bbb 853d 699c d43c b65f 13bd e3a2 47bd
000000a0: 852b b9bc 7c17 72bc 9522 f03d 6921 b6bd
000000b0: 2358 ffbd 07c7 1a3d 31a9 043d b741 833d
000000c0: 9195 c9bd cecb bd3c e31a 123d a6ce bfbc
000000d0: f929 36bd be38 95bd ac12 15be 2ba3 a6ba
000000e0: fe36 3fbd 181a 26be 8abb 47bd 9229 01be
000000f0: 7a41 bcbc a951 5a3d 118e 22be cb4b ddbd
00000100: 01af 8e3c fe59 c13c 4689 913d b297 e83b
00000110: 1e85 b4bd a4cb 74bd 1cbe 01be 7603 833d
00000120: 097b d9bc a0de 91bd 788e f9bd fff8 f6bd
00000130: 66cc 29be 7395 f5bd 137d 7ebd d63e e0bd
00000140: 05e8 eebd e2a3 4bbe b39d b33c cfae 0ebe
00000150: c63b 25bd 6077 05be 3a73 e73d b93d 2abb
00000160: 79aa 793d 83a3 be3a a6b4 8c3d 40bd 203e
00000170: 3e3f 523e 376b 3b3e c90e 313e 51d9 87bd
00000180: 6ad7 ff3d 21e3 b23d ce3e b63d 0c6b 113e
00000190: e31b 14be 5e6c 05be f2c4 9ebd 23dc a33c
000001a0: e2cd 0cbc a233 05bd 123c 2cbd ac81 1abe
000001b0: f1f9 bbbd ce8f 3bbc 3b59 b8bd a9df e13d
000001c0: c7e7 8abd 7d7f c73d 6c30 4c3d 5dd6 97bc
000001d0: 1ec0 123e 7a9b 133e 7443 153e 952d 9c3d
000001e0: f2a0 6a3c fdb1 a7bd 390c 943c 87bd e2bd
000001f0: 5f0b 453d e9ae 93bd 667f cbbd 266f f2bc
00000200: 50d6 90bd 08dc 8cbd 09d3 4a3d 817c 383d
00000210: e70a 323d 198c 103d 7855 a13d cdbb c03d
00000220: a2c1 9a3d 466e 163e 7419 e93d 5527 743d
00000230: b647 003e d71e 9c3d 8f84 4a3e 8d44 103c
00000240: 16ce 5c3d 7c04 00be 79a6 cb3d 9c8d a83d
00000250: 9272 a53d 038c 9dbc 2342 b53d 37c4 a8bd
00000260: a858 b43d a9db 003d 2208 2abe 0930 a8bd
00000270: 2516 043d 0e5a 333d 9768 33bd 7e4e 17be
00000280: 482e 7e3d d7da 7c3d 58b6 013e 8e34 bd3d
00000290: 04ec a53d 5051 953d 03d7 9a3d 0f6b c33c
000002a0: 3657 1c3e 92c9 673a 6529 cdbd 8ccb b43d
000002b0: 6b9a a6bc 07b4 7e3d 0a5d ae3d 1ec4 c83d
000002c0: ba26 fdbb 7a7b a6bd 8279 b83c cb3a 0cbe
000002d0: fbf1 fbbc 9beb 26ba 1bfe 8ebd 3561 c53d
000002e0: 4cf4 f6bc a9e2 31bd fd4f 65bd 8467 003e
000002f0: 7416 a4bc c706 a7bd e7f2 0fbe d1aa 82bd
00000300: 09b6 67bd 888f 9f3c 3674 903d e156 ebbd
00000310: ffcb 28bd da29 583c f72a 23bd 7739 cfbc
00000320: fc88 4fbd 7ad1 9cbd 3cc4 a93d 28de c03d
00000330: ab98 15bd 942e 843d b4e8 c8bc dd3e eb3d
00000340: 9258 10bd 7abe b13b 5bb6 b83d 0c1b e2bc
00000350: 8f68 0e3e bc50 40bd d7cb edbd 72ee dfbd
00000360: b9a2 ca3c 2714 933d 3aa1 c13c fa47 fb3d
00000370: f760 143c 0620 a1bc b1cc 883d 05c8 233d
00000380: 82f8 173d ea72 93bd 96e9 7fbd 16d1 6bbc
00000390: 805b efbd ed56 3fbd dccd e03d 1dd0 6d3d
000003a0: 5621 dabc 2843 95bd d370 5b3d 645e 963d
000003b0: db97 e33d 2742 f33d d898 5f3d 1465 4c3d
000003c0: a8c5 19be a115 16be 852f 66be 750f 40be
000003d0: be5c dcbd 9703 5bbe 7226 0dbe 2ff9 5cbe
000003e0: 156a a8bc 6f9f c7bd f416 c73d 29d7 ebbc
000003f0: 053c d43d 4114 233b 4926 d93b c530 293e
-0.055360865 0.13875425 0.097882815 0.02293709 0.016786588 -0.06709814 0.1360467 0.02856393
0.1127143 -0.0020782556 0.14592168 0.18460101 0.07291678 0.045011077 -0.08258081 0.08931583
0.15546823 0.11306094 0.044071127 0.106019095 0.09207343 -0.0017754377 0.11585226 0.10151764
-0.043048836 0.081671394 -0.05920527 -0.009545238 -0.12828957 -0.14078307 0.084400214 0.021449346
-0.068918906 -0.110099986 0.0068371682 0.09539293 0.06529852 0.025953488 -0.03597995 -0.048739325
-0.02260376 -0.014776107 0.11725346 -0.08893091 -0.124679826 0.037787464 0.032387916 0.064090185
-0.09842981 0.02316847 0.035670172 -0.023413967 -0.044473622 -0.07286213 -0.14557904 -0.0012713423
-0.046683304 -0.16220891 -0.048762836 -0.12613514 -0.02298044 0.053300533 -0.15874507 -0.10805472
0.017417433 0.023602482 0.07106261 0.0070981616 -0.088144526 -0.05976452 -0.12670177 0.063971445
-0.026547926 -0.071225405 -0.12185377 -0.12059211 -0.16581878 -0.11991396 -0.062131 -0.10949485
-0.11665348 -0.19886735 0.021925783 -0.13933872 -0.040340208 -0.13033819 0.113012746 -0.002597673
0.06095359 0.001454458 0.068703935 0.15697193 0.20531937 0.18302618 0.17290796 -0.06633247
0.12492259 0.08734728 0.08898698 0.14200991 -0.14463763 -0.1302962 -0.07752408 0.02000243
-0.008594008 -0.032519944 -0.042049475 -0.15088528 -0.09178532 -0.01144786 -0.09001394 0.11028988
-0.06782489 0.09741113 0.049850866 -0.018534834 0.143311 0.14414778 0.14576513 0.076258816
0.014320599 -0.081882454 0.018072234 -0.11071306 0.048106547 -0.07211096 -0.09936409 -0.029594015
-0.07072127 -0.06877905 0.049517665 0.04504061 0.04346743 0.035289858 0.0787763 0.0941082
0.07556464 0.14690503 0.11381808 0.059607822 0.12527356 0.0762307 0.1977713 0.008805406
0.053907476 -0.1250171 0.099438615 0.08230135 0.08078493 -0.019231802 0.08850505 -0.0824055
0.08805972 0.031459484 -0.16604665 -0.08212287 0.03224768 0.043787055 -0.043800917 -0.14776036
0.062055856 0.06173214 0.12667215 0.0923854 0.08101657 0.072909 0.075605415 0.02385476
0.15267643 0.0008841987 -0.10017661 0.08827886 -0.020337304 0.062183406 0.085138395 0.098030314
-0.007725564 -0.0812902 0.022518877 -0.13694303 -0.030755034 -0.00063675054 -0.069820605 0.096376814
-0.030145787 -0.04342905 -0.055984486 0.12539488 -0.020030238 -0.081555896 -0.14057504 -0.06380237
-0.056570087 0.01947762 0.070534155 -0.1149118 -0.04121017 0.013193572 -0.039835896 -0.025295956
-0.050667748 -0.07657142 0.08289382 0.09417373 -0.03652255 0.064541966 -0.024525024 0.114865996
-0.035240717 0.005424318 0.090191565 -0.027600788 0.13907073 -0.046951994 -0.11611145 -0.10934152
0.024735795 0.07181578 0.02363645 0.12269588 0.009056321 -0.01966859 0.06679667 0.039985675
0.03710223 -0.071996525 -0.062478624 -0.014393112 -0.11687374 -0.04671376 0.109767646 0.0580598
-0.026627224 -0.072882 0.053574394 0.07342222 0.111129485 0.11877852 0.054589123 0.049901083
-0.15016806 -0.14656688 -0.22479065 -0.18755896 -0.10759877 -0.21388088 -0.13784197 -0.21579431
-0.020558396 -0.097472064 0.09721175 -0.02878912 0.1036301 0.0024883898 0.0066268784 0.1652251

bias f4 [32]
00000000: fd7d 0bbe d47a aabe f8e5 44be 9c17 833c
00000010: a0d6 ecbd 07ae 003d d93e 5dbe 40fd 59bd
00000020: 0c0a 453e 4708 083c 16dd 503e 265e 42be
00000030: a611 053e d57d 493e 7bdf 6abe 3a3a ca3d
00000040: b2b9 1fbe 3d63 95be cfca 513e 0ca6 163d
00000050: 7517 85bd 80ba 17be ebaa 3a3e 2cdc 5e3d
00000060: e87d 703e 1331 f53c a4bc 1dbe d0fb 433e
00000070: 88cc 4cbe ff05 b63c 942c 9bbd 6ab7 21be
-0.1362228 -0.33296835 -0.19228351 0.016002469 -0.11564374 0.031415965 -0.21606006 -0.053220034
0.19242114 0.008302755 0.20396838 -0.18981227 0.12995014 0.19676907 -0.22936814 0.09874387
-0.15598181 -0.29177275 0.20487522 0.03677945 -0.06498615 -0.14817238 0.18229263 0.05440919
0.2348553 0.029930627 -0.15403992 0.19139028 -0.19999897 0.022219656 -0.07576862 -0.15792623

weight f4 [32, 32, 5, 5]
00000000: ec82 d8bc f11d f1bc ac7e 97bc 9add fc3c
00000010: cd9c 70bc 4a3e a4bc 4f5a 0cbd c87f 23bd
00000020: 6c81 e3bb def9 33bc ccc7 f1bc 2a20 ec3a
00000030: 3a84 e7bc 1d3b 02bb de11 e23c 54cc 1c3b
00000040: 5d36 d0ba e45d 1dbd bed2 273d 7505 77bc
00000050: c5d0 d13c 57c3 803c e3ae 33bc 8c00 25bc
00000060: 3865 913c 60af 04bd c085 1ebc a243 073d
00000070: a71f d03c 1229 c93b 8ccf 6a3b 5a9b 66bc
00000080: 9929 abbb efc0 9f3b c6e5 1ebc 227a be3c
00000090: ba13 ab3c faa0 543d 76ee a53c d8bc 343b
000000a0: 8677 f83c 0a3a 963d bf53 943d 9064 353d
000000b0: aaeb d13c 782d 17b8 09b5 313d 80d8 3a3a
000000c0: fe57 5b3d 5340 5e3d 97ff 163b d445 f7bc
000000d0: 297f 003d 0eb3 023d b0eb 7fbc fadf ad3c
000000e0: 144a 14bc cac3 3bbc 55d7 fd3c 66e4 82bc
000000f0: 5058 cd3c bcbf cebc 74f5 ba3c 5707 1b3d
00000100: be06 063d ccf5 7bbb 74e5 903a 7019 f93c
00000110: f517 473c 23d3 b0bc bafa 083d 45ca 123d
00000120: 44bf 91bc 5eb2 323d b590 84bb ecd9 44bb
00000130: 0337 0ebd 43fa bbbc 6440 d2bc 0416 3cbc
00000140: c482 643b 9b98 8abc 013b ddbb 0dd2 02bd
00000150: 18ac d33b 7b1b 89bc b1ab ccbc bfce 99bc
00000160: 20da 703c 7452 fcbc 58ff dc3c 71dc 903c
00000170: 98ed 1d3b f1ef 483b a19a e1bc 9c5c ab3b
00000180: 361d 09bb 17f0 883c f585 f5bc 445c 71bc
00000190: 7e5e e73c ae84 903c 383e edbc dbac 023b
000001a0: 7797 f7bb 0780 80bc 382c c93b 6b05 a43b
000001b0: db42 323c a368 e53c 4c9a edbc ed22 2c3d
000001c0: 15f0 8abb 41dd 343d c258 01bc 60ba afba
000001d0: be6f 59bb ee8f 8ebc 5018 91bb ceb8 bc3c
000001e0: 32c3 0a3d 82d8 543a 9d4a e23c 50f9 1a3d
000001f0: 4d78 5dbc 34c6 d83c 7703 b3bc 2656 55bd
00000200: 3563 0e3c 2d16 7dbc f01b c33c 5672 a9bc
00000210: f0ef 2ebd 70e7 29bd 300b 75bc c632 1a3c
00000220: bfbd 9dbc eeb1 14bd 3156 dcbc 8667 cf3c
00000230: a4fc 26bd 3e6c 563b cba7 1dbd c1a0 b23c
00000240: 4e4c bc3c 058d 07bd 7253 88bb e250 bcbc
00000250: a494 16bd 500a a5bc dbb9 55bc 70dc 43bc
00000260: 9aa4 0abd 3c67 04bd d38c cf3c 1be9 123c
00000270: e1ce c1bc 3493 01bd 0ffd fc3c cb23 173c
00000280: ada5 183d 067a 45b8 b55e ee3c 0657 ba3c
00000290: 6213 813c f643 1cbc 4510 193c 32ed 5f3b
000002a0: a123 d0bb b9ac 133d 6756 97bc 541f 85bb
000002b0: 91c1 0f3d ccf3 d33a 7f64 ef3c 5249 bcbc
000002c0: 698b 363b 2767 873c 47ec d83c 98a0 893c
000002d0: 3b57 fb3c b912 473d 417e 40bc 6bf5 a93c
000002e0: 2654 003d d4cd 80bc 3d18 1c3d f273 d3bb
000002f0: b180 d33c 21fd c33b 37c9 3b3b bc44 11bd
00000300: 1e2f b9bb 40a5 eebc f15b 22bd a035 19bd
00000310: ee67 0ebd b155 9fbc 2201 ccbc fc01 f8bc
00000320: 20bd 2b3d efab aabb b6e1 97bc eab7 9a3c
00000330: 5e12 873b e8ff 813c c108 edb9 fa1c 16bc
00000340: 8cae 893c 5db7 e3bc 5c58 5cbd ad07 eaba
00000350: 6542 66bd fe57 75bc 4df3 b5bb 6cef 3dbd
00000360: 7072 56bd b866 6abd ae20 53bd 93ef 3fbd
00000370: 8218 bbbc a631 19bd 6e8c ac3c 5cac aebc
00000380: 4e29 5cb9 9326 8e3c 41fa 12bd c358 babc
00000390: f0a1 ebba a989 b9bc e27c f0bb ed5c 29bc
000003a0: 3c03 29bb 6961 5fbb f356 f53c d217 62bc
000003b0: f6a4 cc3c 86ba 7fbc 15d3 503c 24f8 90bc
000003c0: 0c73 853c 35f0 a73c d322 cc3c 746c a7bc
000003d0: f8ba 3ebc 4c3a b43c 3bdb dfbb 49b9 1fbc
000003e0: 1b39 19bd c1a0 a9bc 02cd e23b 496e 343d
000003f0: f98f 64bc 6d89 52bb a969 85bb e76a cf3c
-0.026429616 -0.029433222 -0.018493019 0.030867387 -0.014685822 -0.020049233 -0.034265812 -0.039916784
-0.0069429185 -0.010984866 -0.029514216 0.0018014957 -0.028261293 -0.001987166 0.02759641 0.00239255
-0.0015885342 -0.03841962 0.040972464 -0.015076985 0.025612244 0.015718145 -0.010966989 -0.010070931
0.01774846 -0.032393813 -0.009675443 0.033023484 0.025405718 0.006138929 0.0035829274 -0.014075125
-0.0052234647 0.0048752944 -0.009698337 0.023251597 0.02088343 0.05191133 0.020255309 0.002757838
0.03033043 0.07335289 0.07242536 0.044285357 0.025625069 -3.604355e-05 0.04338554 0.0007127598
0.053550713 0.054260563 0.0023040527 -0.030184664 0.03137127 0.03190904 -0.015620157 0.021224964
-0.009050865 -0.011460254 0.030986467 -0.01597805 0.025066525 -0.02523791 0.02282212 0.037848797
0.032721274 -0.0038446067 0.001105471 0.030407637 0.012151708 -0.021585053 0.033442236 0.03583743
-0.017791398 0.043627135 -0.0040455707 -0.0030037118 -0.034720432 -0.022946483 -0.02566547 -0.011479858
0.0034867981 -0.016918471 -0.0067514186 -0.0319386 0.006459724 -0.016736737 -0.024984213 -0.018775342
0.014700443 -0.030801035 0.026977226 0.01768324 0.0024097916 0.0030660594 -0.027539553 0.0052295458
-0.0020921952 0.016716046 -0.029971102 -0.0147314705 0.0282433 0.017641392 -0.028960332 0.0019939456
-0.007555898 -0.015686048 0.0061393045 0.0050055287 0.010880197 0.028003996 -0.029004239 0.042025495
-0.004240046 0.044156317 -0.007894697 -0.0013406985 -0.0033178176 -0.017402615 -0.004427947 0.02303734
0.03387756 0.00081194204 0.027623469 0.03783542 -0.0135174515 0.026461698 -0.021852238 -0.05208411
0.008690645 -0.015447182 0.023817033 -0.020684402 -0.04270929 -0.04148048 -0.014956281 0.009411519
-0.019255517 -0.0363025 -0.026896568 0.025317919 -0.04076828 0.0032718326 -0.038490098 0.021805169
0.022985604 -0.03309347 -0.004160338 -0.022987787 -0.03676285 -0.020146519 -0.0130448 -0.011954412
-0.033848383 -0.032325014 0.025335705 0.0089667095 -0.023658218 -0.031634524 0.030882386 0.009224842
0.037267376 -4.7082103e-05 0.029097894 0.022746574 0.015756313 -0.0095376875 0.009342258 0.003416848
-0.0063519035 0.036053393 -0.018473817 -0.0040625725 0.03509671 0.001617068 0.029222725 -0.02298418
0.002785409 0.016528679 0.026479853 0.01680021 0.030681243 0.04860184 -0.011748851 0.020746907
0.03133025 -0.015723146 0.038109053 -0.0064530307 0.0258182 0.005981103 0.002865387 -0.03546594
-0.0056513688 -0.029131532 -0.039638463 -0.037404656 -0.034767084 -0.01945004 -0.024902884 -0.030274384
0.04192841 -0.0052084844 -0.018540245 0.018886525 0.0041220626 0.015869096 -0.00045210685 -0.009162182
0.016806863 -0.027797395 -0.053795204 -0.0017855071 -0.056215663 -0.014974592 -0.0055526854 -0.04637091
-0.05235523 -0.057226866 -0.051544838 -0.046859335 -0.022838835 -0.037400864 0.021063056 -0.021322422
-0.00020996222 0.017352378 -0.035883192 -0.022747403 -0.0017977338 -0.02264865 -0.007339106 -0.010337097
-0.0025789281 -0.003408516 0.029948687 -0.0137996245 0.024981003 -0.0156084355 0.012745638 -0.017696448
0.01629021 0.020500282 0.02491895 -0.020437457 -0.0116412565 0.022000454 -0.006831554 -0.009748765
-0.037407976 -0.020706536 0.0069214115 0.04405049 -0.013950341 -0.003212537 -0.0040714336 0.02531953

bias f4 [32]
00000000: 94c6 fdbd 4c49 bdbc 5581 bdbd 19a9 143d
00000010: a0e7 c9bb 75c7 5bbd f3fe 913b 023e 8ebd
00000020: bb3a a53c 0646 18bd dc69 48bd d7b0 853d
00000030: eacd 1a3c a793 b13b 659a ff3c 58cc a5bd
00000040: 9e13 913d 4279 83bd 504a 26bd 4f30 7b3d
00000050: 685d 7cbd 00de f5bd 85db 2bbd f498 663d
00000060: f542 2e3d 84fa 87bd 6fff 983c 9b03 febc
00000070: 58d5 10bd 9707 cbbd 848b b03b c130 c53c
-0.123913914 -0.02310624 -0.09253184 0.036294077 -0.006161645 -0.053657014 0.004455441 -0.06945421
0.020169606 -0.037176155 -0.04892908 0.0652787 0.009448508 0.005419213 0.03120155 -0.08095616
0.0708382 -0.064196125 -0.040598214 0.061325368 -0.061612517 -0.12005234 -0.041957397 0.05629821
0.042544324 -0.06639579 0.018676488 -0.031007579 -0.03535971 -0.09913557 0.0053877253 0.0240711

weight f4 [64, 32, 5, 5]
00000000: fb2f d6bc 7178 2bbc 51e1 d2bb 15df 37bc
00000010: fca3 8e3c 7772 76bc 21f8 b3bc 9e75 423c
00000020: bdef a93c e49a 283d 1fbd 0e3d f4b8 013d
00000030: 39ff 523d 8832 593c 1e47 cf3c a254 49bc
00000040: 3bb4 85bb 5cef 373c 30e0 f1ba 37d3 c13c
00000050: 9077 8236 a7e5 9b3c 547c 293b d6f1 1f3d
00000060: e017 74bb 0d86 863c fc7d 583c a18d f6bc
00000070: 0ac1 313b 72a4 b6bc 0f79 75bc baaa f7bc
00000080: e73a babb 10cc c438 8b6a 8cbc 98fa 023d
00000090: 09ca 803d 4054 693d 5ac0 953a c3bb 3e3d
000000a0: a8fe 8f3c 5ce4 11bc b67b 533d e907 4c3d
000000b0: fdb7 313d f50b 9bbb 2a23 3cbd a2c4 84bc
000000c0: e830 d63b bf14 3b3c ed5d a03b e3d7 7bbc
000000d0: 6fc4 a93b 5141 c53b 8537 683c 50d7 0e3d
000000e0: 051a 8abb 0999 e03c a99f 913b 2faf 0ebd
000000f0: d84b dbbc a6e8 e43c 928d f43b 533a 8f3c
00000100: 7d79 87bc b504 233d ad22 6a3c 1fe4 133d
00000110: 46c8 82bc 2d68 f53c 5142 d63c 474e 973c
00000120: e3d9 cf3c a0cc 82bb a9ad 21bc f8e2 053d
00000130: 0d6d bcb9 c410 e1bc 4914 063c a313 0d3c
00000140: 00ce 4a38 97a6 b23b 9ed2 e8bc 4384 313c
00000150: c5e6 24bd 6d1d 373d 9bb1 4a3d f3ed 533d
00000160: 8e31 de3c 0e21 4c3c 1b79 913c 6697 373b
00000170: fd6a 3f3d ed96 53bb d790 d53a 441b 113b
00000180: c996 d93c 0c82 13bc 7120 08bc 11fe 403c
00000190: 59f4 21bc af2a f13b 80c2 b63b f296 9e3b
000001a0: 18d9 733c 5b41 7fbc 9638 e73b f53c 68bc
000001b0: b591 ea3c 2e81 d53c aae8 9e3b e97d ce3c
000001c0: 0714 17bb 8090 f93b 1f5b 2bbc 12e8 c03b
000001d0: 2c5f 9dbc b183 1f3c 989c cebc b676 0a3d
000001e0: 12a3 5b3c b4f5 d8ba 7e21 d5bc 860b e4bc
000001f0: bae1 57bc 7836 0b3d 1bf4 b1bb 29f2 e5bc
00000200: 6c12 32bb 35f9 b1bc 8977 53bb 03f3 34bc
00000210: 6aad 833c 4eff 85bc 3530 f4bb 9906 583d
00000220: 9005 1c3d 9cc4 393d 035d 433c 2d5e ce3c
00000230: 2f32 583c 7d21 fa3c b607 bc3c d522 113d
00000240: 85f8 b8bc 3e75 b33c a41f ecbc 00ce c939
00000250: a518 db3b e89c babc e3c8 0b3d 7026 5a3b
00000260: d1a5 60bc 3c75 84bc 70e9 fbba 8805 efba
00000270: a211 cc3c 9adb 873c ee6c d93c 7247 0c3b
00000280: ed1e 50bc 87ae 003c 3de2 363d 08f9 253d
00000290: 19ac ec3c 89e7 4f3c 20db 05b7 5939 b1bc
000002a0: eb7c cdbc 934d e7bc e93c dcbc ffd6 d0bc
000002b0: ad51 87bc 6897 b93c 77a6 c93c e170 4b3c
000002c0: 04c5 66b8 2bb6 8e3c d2de 11bd 9e03 05bd
000002d0: 06b7 fe3c e199 c9bc 43d9 49bc 5118 17bc
000002e0: f553 9ebc 7405 d13c 4fff da3c cb3d c3bb
000002f0: a171 ec3c b0ee 53bc b825 9abc 66e4 313c
00000300: 9734 bf3c 36a7 76b8 f607 a0bc c538 97bc
00000310: da88 9c3c e020 113c 584a 8e3c b9e9 9fbc
00000320: 956d 853c 6025 cc3c bef5 163d 57cb 8b3c
00000330: 88a6 28bb 047d 443b 7e93 bcbb 0267 9bbb
00000340: 868c 873c 83ac fbba 8173 a33c 2017 053b
00000350: ff98 f33c 54b3 ddbc 3784 fc3c 9d43 753c
00000360: 0a31 eb3c 7de2 483c c231 133c d0b4 0bbd
00000370: b15c 9cbc 4c1f 193d 20a7 1cbd 7976 19bd
00000380: 3af0 34bd 7ec9 ba3c 1bab 603c 6d49 0fbd
00000390: cf90 c53b ab0e d43c d527 af3c dadb abbb
000003a0: 9e33 0b3c d979 f2bc 6991 553b 9d21 e4bc
000003b0: 3154 d4bb 34fd 51bc 8f8c b53c e215 633c
000003c0: 7309 183d d657 19bb b6e0 ad3c 3ecf c4bc
000003d0: 3c29 413d 47f2 4c3d 4bde 1c3d 8fc6 9fbb
000003e0: bd7c 78bc 1e34 bcbc c6f0 1f3d 2094 193a
000003f0: cc14 c63c c2b8 fa38 22e1 ad3c dc66 f7bc
-0.026145926 -0.010465727 -0.006435551 -0.0112226205 0.017412178 -0.015041939 -0.021968903 0.011868862
0.020744199 0.04116334 0.03484833 0.031670526 0.05151293 0.0132566765 0.025302466 -0.012288244
-0.004080323 0.011226501 -0.0018453654 0.023660285 3.888221e-06 0.019030405 0.002586146 0.039048992
-0.0037245676 0.016421342 0.013213631 -0.03009683 0.0027123117 -0.02229521 -0.014982476 -0.030232776
-0.0056832912 9.384018e-05 -0.017140647 0.031977266 0.06288535 0.056965113 0.0011425123 0.046565782
0.017577484 -0.008904543 0.05163165 0.04981223 0.043388356 -0.00473165 -0.045931973 -0.016207043
0.006536592 0.0114185205 0.0048940093 -0.015371296 0.0051808874 0.006019749 0.014173393 0.034873307
-0.0042145276 0.027416723 0.004444082 -0.034835037 -0.026769564 0.027942967 0.0074631656 0.017483866
-0.016537422 0.03979941 0.014290494 0.036106225 -0.015964638 0.029956901 0.026154669 0.018469943
0.025372451 -0.0039916784 -0.009868064 0.032687157 -0.00035939403 -0.027473815 0.008183547 0.008610639
4.8352405e-05 0.005451988 -0.028420743 0.010834756 -0.04025914 0.044705797 0.049485784 0.051740598
0.027123239 0.012459053 0.017757943 0.0028013824 0.04673289 -0.0032286004 0.0016293776 0.0022141496
0.026561158 -0.009003174 -0.008308516 0.011779324 -0.009884917 0.0073598246 0.0055773854 0.0048397714
0.014883302 -0.015579547 0.007056306 -0.01417469 0.028633932 0.026062574 0.004849513 0.025206523
-0.0023052709 0.0076161027 -0.010458737 0.00588704 -0.01921042 0.0097359875 -0.025221154 0.033804618
0.013405578 -0.0016552717 -0.026016947 -0.027837526 -0.013176376 0.033987492 -0.005430711 -0.028069573
-0.0027171625 -0.021725276 -0.0032267293 -0.011044267 0.016073901 -0.01635709 -0.007452036 0.052740667
0.038091242 0.045353517 0.011924031 0.02519139 0.013195558 0.030533547 0.022952896 0.03543361
-0.02257944 0.021906491 -0.028823681 0.0003849119 0.0066862875 -0.022779897 0.034127127 0.003328707
-0.013711409 -0.016169183 -0.001921935 -0.0018235901 0.024910752 0.016584206 0.0265412 0.002140489
-0.012702686 0.007854111 0.04464935 0.040520698 0.028890656 0.01268948 -7.978437e-06 -0.02163379
-0.02508398 -0.028235232 -0.026884513 -0.025493143 -0.016518438 0.022655204 0.02461551 0.012417049
-5.501976e-05 0.017420849 -0.03561289 -0.032474153 0.031093132 -0.024609508 -0.012319866 -0.009222106
-0.019327143 0.025515296 0.026733069 -0.005958294 0.028862776 -0.0129353255 -0.018816814 0.010857677
0.023340506 -5.8806698e-05 -0.019535046 -0.018459687 0.019108225 0.008857936 0.017369434 -0.019520627
0.016287604 0.024920166 0.03685545 0.017064733 -0.0025734026 0.0029981742 -0.005754887 -0.004742504
0.016546499 -0.0019201193 0.019952537 0.0020307973 0.02973604 -0.02706305 0.030824764 0.014969734
0.028709907 0.01226103 0.008984031 -0.034107983 -0.019087167 0.037383363 -0.03824532 -0.0374665
-0.04417441 0.022801157 0.01371267 -0.034982134 0.0060292254 0.0258859 0.021381298 -0.005244714
0.008496193 -0.029599117 0.0032587892 -0.02784806 -0.006479763 -0.012816716 0.02216175 0.013860198
0.037118386 -0.0023398302 0.021225315 -0.024024602 0.047158465 0.05003574 0.038297933 -0.004875965
-0.015166459 -0.02297407 0.03904798 0.0005858559 0.024179839 0.00011955343 0.021225516 -0.030200414

bias f4 [64]
00000000: c10a 70bd d9fe e03c e1a6 40ba 4c4b 9d3c
00000010: 8d27 553c 7c24 3ebc a7ee 383c e15c f6bc
00000020: 44a5 07bd 459d 54bc fd6b 07bc 8e18 0ebb
00000030: 13e1 c6bd 1fbf b63b fd81 c1ba b7d3 e4bb
00000040: 24a5 86bc c7b0 57bd 7f86 51bd 5713 26bd
00000050: a1fe 1abd 22e1 b4bc cf8a 80bd 705f c7bc
00000060: a608 c6bc fcd0 2ebd 21ae d3bc ea32 cbbc
00000070: 80e6 483c 4e91 34bd 5a14 33bc d750 45bb
00000080: b85c a8ba b94b 8ebc bd5f 28bd 4794 9dbd
00000090: cabf 7f3c fae7 1d3d 87b2 13bd 68c5 06bd
000000a0: 7111 a93c 298a 573b 6fde 61bd a461 e0bb
000000b0: ec68 c2bc 7e71 35bd a9dd c1bd 5842 acbc
000000c0: e699 84bc fe95 383c f754 68bd e335 883c
000000d0: 5b18 ac3c 2c57 24bd 98a8 2cbd 2893 7fbc
000000e0: 4513 84bc afb4 1a3d 5e3a 48bc 0b3b 4a3c
000000f0: 59ed 0bbd 33d7 0dbd 71e4 aa3c 5861 3b3b
-0.058604006 0.02746527 -0.00073490856 0.019200943 0.013009918 -0.011605378 0.011287368 -0.030073585
-0.033116594 -0.012976949 -0.0082654925 -0.0021682116 -0.09710898 0.0055769826 -0.0014763471 -0.006983246
-0.016436167 -0.052658822 -0.051153656 -0.040545788 -0.03784049 -0.022080008 -0.06276476 -0.0243375
-0.024174046 -0.04267977 -0.025839867 -0.024804551 0.012261987 -0.044083886 -0.010930145 -0.0030107999
-0.0012845015 -0.017370092 -0.04110693 -0.07694297 0.015609691 0.03855131 -0.03605893 -0.032903105
0.0206382 0.0032888746 -0.05514377 -0.006847577 -0.023731671 -0.044297688 -0.094661064 -0.021027729
-0.016186666 0.01126623 -0.056721654 0.016627258 0.021007707 -0.040122196 -0.04215297 -0.01559905
-0.01612247 0.03776997 -0.012220947 0.0123431785 -0.0341619 -0.034629058 0.020860882 0.0028591957

weight f4 [64, 1024]
00000000: e8e5 b8bc 3d98 b0bb 45ef c33c 44ea a0bb
00000010: 4651 95bc b93d 15bc 8b0e 3abc eeef 2b3d
00000020: 84fc 0e3c 4f67 bcbc 13a8 4d3c defa f33c
00000030: d256 fb3b 1df2 db3c 4077 173c 1c2f 16bd
00000040: 7e40 a73b 1691 9fbc 037b 9ebc 7735 f0bc
00000050: 18be 0abc df9d ca3b 01b4 edbc 989e 23bc
00000060: e438 693c a685 813c 7b25 8c3c df1a a9bb
00000070: d365 66bc bd76 3f3d 74a6 aa3c db61 08bd
00000080: 2d2c a73c 94e9 cb3c 96a6 01ba 1a03 b0bc
00000090: f5e0 61bc 071c f1bc 4b31 87bc a3c0 e7bc
000000a0: 04bf adbb 969e 8e3c 3bb6 ba3b 8429 87bc
000000b0: 939e e4bb d632 78bb 83c5 37bc 87e4 023c
000000c0: f7fc d03c 6539 163c f043 f1bc ce12 a33a
000000d0: e14c 8c3b c30c 083d 01e2 b0bb 1fef fd3c
000000e0: 7c47 993b 0b5b 083c 96e0 93bc c8c4 e1bc
000000f0: 43db adbc 7a35 523c b858 f33b 80e6 29bc
00000100: d20c 813c 6c19 d23c 193b a2bc c3dd 8abc
00000110: 73f8 00bd 3e1f 54bc b06b 5f3c 2878 d539
00000120: 2459 3ebd 416a dabc 8dbe afbc 619a b8ba
00000130: 5a69 56bb 6454 f93b d55f 943c 4ef5 66bb
00000140: b67b e5bb d2d9 2fbb 0c09 4cbc 19cc 1fbd
00000150: 3817 373d afba febc 41c8 acbb 43f2 8eb9
00000160: 54db 85bb 2bd1 fcbc b8fd 20bd 40c2 1d3d
00000170: 8bb0 6b3a f531 3dbb e9f6 893b 49e8 cbbc
00000180: 402e 85bc ea9c 8d3c 74d4 84b9 89bf 95bc
00000190: 39da a3bc 4d07 0d3d c1c3 623c fd03 553b
000001a0: aa88 6dbc 7599 153d de27 d1b9 a75e 6bbc
000001b0: bca4 11bc 7f0a 43bd 558a 0bbd 9a52 1a3d
000001c0: beb1 4bbc 52dc 583c 96f8 da3c f190 ae3c
000001d0: 7395 033d 4814 fe3c 35a8 97bb e3f4 ba3c
000001e0: 916d d03c 57b1 0b3d d3c7 503c 27de bebb
000001f0: a911 cbbb 7758 3f3c c775 c83c ad60 d2bc
00000200: cef2 03bc 57e7 70bc c79d 113c 78a0 983c
00000210: fcb4 8b3c 357c 8e3c 8327 e93c 6b4e 343c
00000220: 0254 8fbb 801f adbc 74d0 09bd 9e35 4c38
00000230: b536 873c 1012 a63b dfb6 a6bc c69c d4bc
00000240: 4468 8fbc 5159 c8bc 40fd a6bb a1f6 87bc
00000250: f4e4 7d3c 6811 01bc bf4c 1cbc 9419 d63c
00000260: 4b0c 193c 2f75 a2bc b921 d83c 7903 98bc
00000270: c147 8d3c ae31 51bd ad05 a73b 3290 06bd
00000280: fd76 ddbc a952 333b 3d41 97bc 15ff d0bb
00000290: 27b2 1b3c 79e7 a1bc 80d3 5abc ffbd bd3a
000002a0: 2620 d13b 7b8e 1fbc a91d c73b 3ff0 8cbb
000002b0: 09d2 153d 9729 ef3c c6da c63c 7007 eabc
000002c0: b071 d7bc 2a5e 8dbc 486a b9bc 2b3d 053c
000002d0: 91c2 05bd 2fd8 db3c 805c be3a 1940 37bd
000002e0: afe3 8439 eab2 8d3c 5a3b f83b 5f53 2f3d
000002f0: afba ccbb f7bd 80b9 4a0a e63c 707d 0b3b
00000300: 1c59 433c 27da 37bc 099f d73c 81b7 353c
00000310: 5bb4 8ebc 9fdf d43c 1679 513c 3f9a 943c
00000320: 10ae c5bc 7a2e dbba 54ae 1dbc fdb8 ba3c
00000330: b892 d23c 50f8 08bc dfcc 813c 8ee7 debc
00000340: 9a23 9bbc 496c cabc 234b aabc a0d4 e8bc
00000350: ccbb 723c c3ed 07bd b269 acbc ce09 fcbc
00000360: 0cfe e63b 10d9 87bc b7ec 073d ae4a ee3b
00000370: 7d57 473c 7390 2d3c 0423 b2bb bb12 c7bb
00000380: cfd6 df3c a80c a0bc bb0c 183d 3790 eeba
00000390: 569f cc3a 59c4 883c 6c25 90bb 8b13 673c
000003a0: 5612 a7bc 45d1 1a3c 25cd 6c3c 9501 c43b
000003b0: 0745 9d3c 3889 3db9 a365 f63c 39b5 943c
000003c0: f094 4e3c 7b9a 633b 5d61 b33c 8129 c83c
000003d0: 279e 293c 4751 99bc 6188 c4bc f53d e1bc
000003e0: e5b0 503c cc7c 39bc 3a5c a9bc a77b 2f3c
000003f0: ad76 71bc 9ae4 363d 95f3 ac3c 2616 ecbb
-0.022570565 -0.005389242 0.023917804 -0.004910739 -0.01822723 -0.009108954 -0.011356006 0.04197686
0.008727197 -0.02299848 0.012552279 0.029782709 0.007670262 0.026848847 0.00924474 -0.03666602
0.0051041236 -0.019478362 -0.019345766 -0.029322369 -0.008468173 0.0061833705 -0.029016497 -0.009986542
0.014234755 0.015810799 0.017107716 -0.005160674 -0.014062363 0.046744097 0.020831324 -0.033296447
0.020406807 0.024891652 -0.0004945783 -0.021485854 -0.013786544 -0.02943231 -0.016502997 -0.028290099
-0.005302312 0.017409604 0.005697993 -0.016499288 -0.0069769113 -0.0037872097 -0.011216524 0.0079890555
0.025511248 0.009168957 -0.02945134 0.0012441517 0.0042816256 0.033215296 -0.0053980355 0.03099781
0.004677711 0.008322488 -0.018051427 -0.027559653 -0.021222716 0.012830133 0.0074263476 -0.010369897
0.015753184 0.025646888 -0.01980357 -0.016951447 -0.03148694 -0.012946902 0.013636515 0.0004071605
-0.04647173 -0.026661994 -0.021453166 -0.0014084094 -0.0032716603 0.007608937 0.018112103 -0.0035241428
-0.007003273 -0.0026832712 -0.012453329 -0.039013002 0.044699878 -0.031094877 -0.0052728956 -0.0002726485
-0.004084984 -0.030861458 -0.039304465 0.03851533 0.00089908455 -0.0028868888 0.004210342 -0.024891036
-0.016257405 0.017286737 -0.00025335292 -0.018279808 -0.020001518 0.03443079 0.013840617 0.0032503598
-0.014497915 0.0365233 -0.0003989329 -0.014365829 -0.008889373 -0.04761743 -0.03406747 0.03767643
-0.012432514 0.013236122 0.026729863 0.021309348 0.032124948 0.03101553 -0.004628206 0.02282185
0.02544287 0.03410467 0.012742954 -0.0058248225 -0.0061971736 0.0116788065 0.024470223 -0.025680864
-0.008053495 -0.014703593 0.008887715 0.018631205 0.017054074 0.01739321 0.028461223 0.011005024
-0.004374028 -0.021133184 -0.033646062 4.8687325e-05 0.016505579 0.005068071 -0.020350872 -0.025953662
-0.017505772 -0.024456652 -0.0050961077 -0.016597094 0.015496481 -0.007877685 -0.009539782 0.026135243
0.00934131 -0.019831268 0.026383268 -0.018556343 0.017246129 -0.05107277 0.005097112 -0.03285236
-0.027034277 0.0027362502 -0.018463725 -0.0063780644 0.009502924 -0.019763695 -0.01335609 0.0014476179
0.006382006 -0.00973856 0.006076534 -0.0043011005 0.03657726 0.029194636 0.024274241 -0.028568
-0.026299328 -0.017256815 -0.022633687 0.008132259 -0.032656256 0.026836483 0.0014523417 -0.044738863
0.0002534664 0.017297227 0.0075754346 0.04280412 -0.0062478404 -0.00024555597 0.028081078 0.0021284483
0.011923101 -0.011221445 0.026320951 0.011091114 -0.017419985 0.025985537 0.012785217 0.018139957
-0.024130851 -0.0016722225 -0.009624083 0.022793287 0.025704727 -0.008359984 0.01584476 -0.027210023
-0.018937875 -0.024709838 -0.020787781 -0.0284217 0.014815282 -0.03318573 -0.021046493 -0.030766394
0.0070493277 -0.016582996 0.033184733 0.007272086 0.012166855 0.010593521 -0.005436303 -0.006075231
0.027324108 -0.019537285 0.037121516 -0.0018200938 0.0015611451 0.016695188 -0.0043989923 0.0141037805
-0.020394485 0.009449308 0.014453207 0.005981634 0.019197954 -0.00018075563 0.030077761 0.01815282
0.012608752 0.0034729529 0.021897012 0.024433853 0.010352648 -0.018715514 -0.023990812 -0.027495364
0.012737487 -0.011321258 -0.02067386 0.010710633 -0.014737767 0.044651605 0.021112243 -0.0072047887

bias f4 [64]
00000000: 2a88 913c 0dba 87bc ea06 393d 86a2 14bd
00000010: 62d5 2bbc 8c64 b23c b703 8f3c d1e3 f4bc
00000020: 7328 e7bb 2419 a9bc 2696 bc3c 2431 133c
00000030: 1c0e 433d 7d34 fe3c a912 5cbb 9036 4cbd
00000040: a4f7 7ebc 9582 ad39 92fa fbbc 353c 183d
00000050: f00a 33ba 61ff 2cbd 51d0 fe3b 95cb 53bc
00000060: 2421 e8bc 836e 963c 5dd1 9f3c 5f19 553d
00000070: 5396 c4bc 546b 97bc 7efa 47bb e201 4ebd
00000080: ec28 47bd 356a 323c 5b8d 6fbc d46c de3c
00000090: bf20 8d3d 2a4b d1bc 0892 1e3c 4600 443c
000000a0: bd7c 933c 3d62 b93c 876d dfbc 66cc 40bc
000000b0: ccb4 9c3c 89ba 37bc 0429 91bc e40e a7bc
000000c0: 3e96 1fbc 2067 b8bc 7f46 813c c808 36bd
000000d0: 230f 053d 9320 b53b c10c 16bd 10a1 01bd
000000e0: 57f3 fabc f150 91bc eeff ca3c 5292 353d
000000f0: c62a a9bc ede2 3e3c 178b 0f3d a5f5 2bbd
0.017765123 -0.016568208 0.04517261 -0.036287807 -0.010487886 0.02177646 0.017457826 -0.029893788
-0.0070543825 -0.02064187 0.023020815 0.008983884 0.047620878 0.031030888 -0.0033580458 -0.049856722
-0.015561972 0.00033094423 -0.03075913 0.037166793 -0.0006829938 -0.042235736 0.007776298 -0.012926956
-0.028336115 0.018363243 0.019509012 0.05202615 -0.023997461 -0.018483795 -0.0030514295 -0.050294764
-0.04862301 0.01088958 -0.014621104 0.027151503 0.068910114 -0.025548536 0.009678371 0.011962956
0.018003816 0.022629851 -0.027273906 -0.011767482 0.01912918 -0.011213907 -0.017719753 -0.020392843
-0.00974041 -0.022510111 0.015780685 -0.04444197 0.03248514 0.005527565 -0.036633257 -0.03164774
-0.030633612 -0.017738791 0.02478024 0.044328995 -0.020650279 0.011650783 0.035044756 -0.04198231

weight f4 [10, 64]
00000000: 565c f8bc 10e5 f4bd 63c3 673c 2943 1a3e
00000010: a00f 963c c582 0c3e 3be7 fc3d ea28 c3bc
00000020: a05c b53d 8e0c 043e a47c 343e 5dd9 59be
00000030: 68c2 15be 54b8 35be b481 023e 48c8 b03d
00000040: 0004 94bd 259b 1c3e 397b 6039 fc8d 82be
00000050: dbb2 3c3e e205 63bc 295a 28be fd0f 21be
00000060: e1f4 c0bd 7c98 8dbd 2f41 c1bd 16c6 11be
00000070: f7c7 e9bd efc9 2dbd e0cb b13d a0e9 edbd
00000080: 68a8 183e 0bdb 7d3d d7d0 f23d 5961 00be
00000090: 295e 26be a10d 5c3e aab4 8bbd 70f1 673e
000000a0: 233f f93c 5818 9bbd 84c7 cfbd 5d6d 3f3e
000000b0: fbb5 40be a8b5 ec3d 8c49 3b3c c5f3 823c
000000c0: 9525 b03d 131c 4fbd 75dd 1ebe 7ca2 503e
000000d0: df7f 233d 5f4c 2abe 65ae 163d d385 9f3d
000000e0: af6c 2ebd 183f b23d 5e44 f8bd 8c0d e6bd
000000f0: 4c07 f43d 15ad fb3d adcb 8dbc eda3 c739
00000100: 97f9 87be 89f4 c3bd b162 653d 1e23 953c
00000110: 03e7 66be e532 933d 3673 213e 80b9 2b3e
00000120: b441 473d f5d9 06be e350 08be f0f6 623b
00000130: 9150 09be b95e c2bd a8f3 0f3e 49d1 5b3e
00000140: f63c cabd 08be 293e 26eb 9cbb 797e a03e
00000150: 9a27 b03d 7084 133e 5a7a 123e 43ba 00be
00000160: 5207 3a3e 48d4 f6bc ae16 7fbe 6d87 b3be
00000170: ac4d 89bc 4a06 773e bf98 05be 3891 ef3d
00000180: 848f 2bbe 51ce ea3d cf83 dcbd 9f69 9a3e
00000190: e9cf 953e 5ad6 6c3c bf37 0b3e 6cb1 ecbc
000001a0: 2441 53be d451 9b3c 28a4 22be 4d46 a53c
000001b0: f3ce 093e efda 613d 7916 cabc 7d54 aabd
000001c0: 3b91 8b3e f1c9 f3bd 1b0b 23be dac6 9d3d
000001d0: f96c d0bb fca4 e3bc 8f61 133e dc09 5b3e
000001e0: ec09 e9bd 74cb 123e 0616 633e 18a8 8fbc
000001f0: 3645 42bb 6aa8 313d 12a5 803d ed0c e5bd
00000200: d3e7 c13d d322 203e 89ce 47be 5a27 9cbd
00000210: edff 05be ed29 aebd 3c41 fcbd 9acc 813d
00000220: eeb4 3d3e ef77 a93d 981d 3f3e b988 c13d
00000230: ff1f eebd 9909 2cbe 7a95 8cbd efd0 16bd
00000240: 6628 19be d6eb 37be 3b33 0abe 6a18 07be
00000250: 5d48 08bc 9f18 953d 1d14 f5bd 276c 223e
00000260: 8e43 023e 54ea cfbb 0525 173d b039 7a3c
00000270: c8d0 21bc 01ae 04bd 3342 493e 6b96 54bd
00000280: c42c 2a3e a3d0 69bd e63b 573e c947 a2bd
00000290: 4f3b 643d 765c ab3b efd6 57be 53ef e03d
000002a0: fce4 c13b beed bdbd 8d03 c73d 09b1 46be
000002b0: e821 743c 89de bc3c bad3 dbbd 455f a7bd
000002c0: 5efa 16bd 9b11 1bbe cd02 8f3b 9de0 063e
000002d0: b663 913b fb01 a13d 66dc b3bd bc6f 8fbe
000002e0: 9ec9 073c 849f 27bd bb0c c039 f17c 043e
000002f0: ffd2 893d a7aa 3f3e 4894 b8bc a9e4 c9bd
00000300: f215 16be 270b 943c 86d5 22bd 2fdd 05be
00000310: 8ee5 ebbd 0c20 f7bd 2f98 afbd b7df 32bd
00000320: c548 2ebd a5f7 85bd b5c8 b63d 1685 e2bc
00000330: 3bb4 cdbd 8319 0b3e 7b4f f23c d865 953d
00000340: 1ac3 bf3d aa34 7cbd e36e b93d 01fb d9bd
00000350: 31fb 21be ffa1 c5bd 6e4b e83d 40a5 e13d
00000360: c103 27be 959d 1a3e 2d4e f63c c58d cb3d
00000370: 7d97 70bb c615 8b3c 950e aebd f858 5abd
00000380: fd5c 54be efbf 02be a233 ca3d 4597 9fbd
00000390: 11db a03d d9aa 633d f003 acbb f8a4 3bbe
000003a0: 431a 74bd 32d9 bdbd 29b2 013e c0d9 70bd
000003b0: 64fc 31be 707a 8d3d cbde ae3d 9c33 163e
000003c0: ccfa 803d cb27 a93c a96b 2e3d 2947 d93c
000003d0: 6a13 7b3d 0503 913d 017a 333d 8820 33be
000003e0: 9655 ccbb 6a3f 803c af6a 7abd 133d eb3d
000003f0: d1eb 993c 7745 913d cda2 91bd a6d9 d93d
-0.030317467 -0.11957753 0.014145705 0.15064682 0.018317997 0.1372176 0.12348791 -0.02382322
0.088555574 0.12895414 0.17625672 -0.21274324 -0.14624941 -0.17746097 0.1274479 0.086319506
-0.072273254 0.15293558 0.00021408209 -0.2549895 0.18427603 -0.013856383 -0.16440643 -0.15728755
-0.09421707 -0.0691385 -0.09436261 -0.1423572 -0.114150934 -0.042428907 0.08681464 -0.11616826
0.14907992 0.061976474 0.11856239 -0.12537135 -0.16246857 0.21489574 -0.06821568 0.22650695
0.030425614 -0.075730026 -0.101454765 0.18694063 -0.1881942 0.11558086 0.011431109 0.015985379
0.08600918 -0.050563883 -0.15514167 0.20374483 0.03991687 -0.16630696 0.03678741 0.07789197
-0.042584118 0.087034404 -0.12122415 -0.112330526 0.11915454 0.12288872 -0.017309034 0.00038078372
-0.2655761 -0.09568126 0.056002323 0.018205222 -0.22549061 0.07187442 0.15766606 0.16769981
0.048646644 -0.13169082 -0.13312106 0.003463205 -0.1340964 -0.09490723 0.14057791 0.21466555
-0.098749086 0.16576397 -0.004788774 0.3134649 0.086013034 0.1440599 0.14304486 -0.12571053
0.18166855 -0.03013052 -0.24910995 -0.3506426 -0.01676067 0.24123493 -0.1304655 0.1169762
-0.16753966 0.11465133 -0.10767328 0.30158707 0.29260185 0.014455402 0.13595484 -0.028893195
-0.20630318 0.018959917 -0.15882933 0.020175124 0.13457851 0.055140432 -0.024668919 -0.08316896
0.2725924 -0.11903752 -0.15922205 0.077039436 -0.006360647 -0.027788632 0.14392684 0.2139048
-0.113788456 0.14335424 0.2217637 -0.017536208 -0.0029643304 0.043373503 0.06281485 -0.11184106
0.09468045 0.15638284 -0.1951238 -0.07624693 -0.13085909 -0.085040905 -0.1231713 0.06337853
0.1852605 0.08274829 0.18663633 0.09449906 -0.116271965 -0.16800536 -0.06864448 -0.03682035
-0.14956817 -0.17961058 -0.13496105 -0.13192907 -0.008318034 0.07280087 -0.11966727 0.1586157
0.12721083 -0.0063450728 0.03690054 0.015272543 -0.0098764375 -0.032392506 0.19654159 -0.051901262
0.16618639 -0.057083737 0.21018943 -0.07923848 0.055720624 0.005229528 -0.21078084 0.109831475
0.0059171896 -0.09273861 0.09717474 -0.19403471 0.014900662 0.023055332 -0.10733743 -0.08172468
-0.036859863 -0.15143435 0.0043643476 0.1317162 0.0044369353 0.07861706 -0.08782272 -0.28014934
0.008287815 -0.04092361 0.0003663058 0.12938286 0.067296974 0.18717442 -0.022531644 -0.098580666
-0.14656809 0.018071724 -0.039754413 -0.13072656 -0.115183935 -0.12066659 -0.085739486 -0.043670382
-0.042549867 -0.06541375 0.089250006 -0.027651351 -0.10044142 0.1358395 0.029578915 0.07294816
0.093633845 -0.061573662 0.09054353 -0.10643578 -0.15818478 -0.09650039 0.11342512 0.11017847
-0.16310026 0.15099175 0.030066574 0.0993915 -0.0036711388 0.016978156 -0.08498875 -0.053307503
-0.20738597 -0.1276853 0.098731294 -0.07792524 0.078542836 0.055582855 -0.005249493 -0.1832465
-0.059595358 -0.09269942 0.12665619 -0.058801413 -0.17381436 0.06908119 0.08538588 0.14668125
0.06297836 0.020648858 0.04258314 0.02652319 0.06129781 0.07080654 0.043817524 -0.17492878
-0.0062357886 0.015655238 -0.061136898 0.11486258 0.018789204 0.070933275 -0.0711113 0.10637216

bias f4 [10]
00000000: 31a4 03be 96f0 23bd 5a6d a73d 76b8 c73d
00000010: 6e4d 803d a4f1 19bd 318b 443e 73cb b5bd
00000020: 1710 d8bd 3eeb 41bd
-0.12855603 -0.040024363 0.08175154 0.0975198 0.062647685 -0.037583962 0.19193722 -0.088766955
-0.10549944 -0.047343485
