chaoyang_3.pth (torch, 588587 bytes, 10 tensors)

weight f4 [32, 3, 5, 5]
00000000: 980c 3ebd 5d67 023e 0699 c83d d580 323d
00000010: bbb0 313d f713 8bbd 5a2f e43d 6733 b83c
00000020: 2d77 003e 3433 903c 3a23 113e 8407 1b3e
00000030: b1d1 5e3d c533 4d3d bb48 91bd d585 a43d
00000040: 004a ed3d 334d a23d 8709 1e3d 0a30 da3d
00000050: 5ee6 b83d a7f3 e1bc a08b bb3d b1ed ce3d
00000060: 63e4 14bd e722 bc3d 6d97 74bd 1679 0c3c
00000070: eff6 b6bd 4d63 c3bd 970d c93d 072f b93c
00000080: 43af 2bbd 90c9 85bd 8e7f 683d aa27 fb3d
00000090: dbab 943d 46e1 5a3d 0300 523c 947e 5f3b
000000a0: b31c dd3b c19f 16bc f483 073e 9dec 41bd
000000b0: 97e2 a4bd d57a 8e3d 0291 3d3d 7ef4 aa3d
000000c0: 8684 6ebd 5deb 883d c66a fe3c d457 0abd
000000d0: da4c 17bd b0a3 4bbd 0f54 ebbd 7ee8 41bb
000000e0: 5e0e 65bd 2fe8 15be 96a9 acbc 40aa bdbd
000000f0: 6b15 20bc db2c 563d 5b01 0fbe f784 97bd
00000100: 0f85 613d 8d4c 123d acbd 853d c94c 433c
00000110: ada8 7fbd 17af fbbc e70f f7bd 8939 683d
00000120: fc98 dabc a62c 5ebd e496 ccbd e1f8 7abd
00000130: 828b a6bd f5ca 50bd aa08 e6bb 3828 52bd
00000140: 5bf3 6abd d239 08be 9627 933d 35b1 cabd
00000150: e632 f73b 74f3 cbbd a3da ef3d 0198 9dbc
00000160: dae9 283d 8991 603c 6a49 633d 9218 e83d
00000170: 6d7e 0e3e 013a f23d ec6d 153e 9cb8 a5bd
00000180: aa32 cf3d 3272 5a3d 12c3 5d3d aea6 063e
00000190: 052a f2bd 10b4 b0bd 8a34 4cbd ff7a 093d
000001a0: 9ad3 363c 98ad 9d3b a744 94bb bab8 02be
000001b0: 081a 9fbd 2cd6 553c 5b56 7fbd 42ca d73d
000001c0: 32fb bbbd cfcd 923d b1cf 743d 129d 06bc
000001d0: 64b0 f13d 37e3 c63d 7e42 d13d ea3f 953d
000001e0: 2b80 143d a8d8 92bd 2791 a03c c726 debd
000001f0: 890f 9a3d d1da 26bd aa0c 73bd eb4f 8dbb
00000200: 60eb 67bd 5ca4 35bd 6e75 b73d d097 a03d
00000210: 179e 803d 5b47 463d 42fb da3d 6e11 fd3d
00000220: b17c 8f3d 786b fa3d 120f b83d c309 973d
00000230: 3159 0d3e 244a 5a3d e304 1f3e 9e96 ebbc
00000240: cdb9 6c3d eb51 d7bd 2270 d93d d558 aa3d
00000250: 4a65 ac3d 193f 293c 4620 b63d e2f5 94bd
00000260: 10a0 ac3d 9d0b 1f3d d872 07be ec45 a4bd
00000270: 007a f83c b87e ce3c bc30 43bd a366 f2bd
00000280: 896b 9a3d b9ad 743d 2386 ce3d 7dd8 953d
00000290: c3b8 cb3d 505f c23d aeb4 9f3d 14ab f6ba
000002a0: 29ee f43d 41db 8abb 943c 97bd 3dbc c93d
000002b0: bd41 fbbc 64d8 2f3d 7901 9f3d 37e5 c13d
000002c0: 096c c5ba 956c b7bd d133 b23c 29a7 e3bd
000002d0: 6dc5 d2bc 6735 b63a 3b39 b0bd 3db0 bb3d
000002e0: 996f deba a996 88bc ad7a 36bd 5335 e33d
000002f0: 84dd ebbc 13dd 5bbd c3c8 cabd e8a7 29bd
00000300: 0b31 83bd 2ea3 763b bb6d a33d e5d2 90bd
00000310: 333a 33bc 05c7 be3c 6585 1ebd f75b 73bc
00000320: 7304 73bd 1cc8 a1bd 924f 843d 7918 aa3d
00000330: 9231 b4bc 363c 773d ea57 05bd d882 b53d
00000340: cad7 4ebd 06ea a93c caae d73d eaa9 e2bc
00000350: a5f6 ea3d 2423 84bd d0ec cabd 8790 adbd
00000360: 6c08 fd3c e0b0 503d 5d97 00bb f1be fa3d
00000370: 1219 033d cb6d 21bc 6b0e 713d 606e df3c
00000380: f600 143d 9cd7 49bd f9c0 9cbc 2f27 513c
00000390: 638b c3bd dcf1 c2bc 3d09 b73d 2aa5 123d
000003a0: 600d 36bd 0e3c 88bd 8eac 973d 52e8 463d
000003b0: bfb8 603d a4d8 853d 7ca6 8a3c 91c2 473d
000003c0: 9eb6 adbd f756 91bd cf17 16be 2163 0cbe
000003d0: c82a 9abd 0e95 18be 5e4f 51bd c9ac 08be
000003e0: b8a8 063d 2e13 8dbd ac57 b83d 3e8e 5fbc
000003f0: 7717 cb3d 300d 03bc 6430 44ba eed1 d23d
-0.04639873 0.12734742 0.09794812 0.043579895 0.043381434 -0.06790917 0.11141844 0.022485448
0.12545462 0.01760254 0.14173594 0.15139586 0.054399196 0.0500982 -0.0709395 0.08033339
0.1158638 0.07924881 0.038583305 0.10653694 0.09028314 -0.027582003 0.09157491 0.1010393
-0.03635062 0.091863446 -0.059714723 0.008573791 -0.089338176 -0.095404245 0.09817045 0.022605432
-0.04191519 -0.065325856 0.05676227 0.12263425 0.07259341 0.053437494 0.012817386 0.0034102546
0.006747806 -0.009193362 0.1323393 -0.047344793 -0.08051031 0.06957022 0.04628087 0.083474144
-0.058231853 0.06685517 0.031056773 -0.033775166 -0.036938526 -0.04971665 -0.11490642 -0.002958804
-0.055921905 -0.14639352 -0.021076959 -0.09260988 -0.009770731 0.05228887 -0.13965361 -0.07398408
0.055058535 0.035717536 0.06530318 0.0119201625 -0.06241672 -0.030723138 -0.1206358 0.056695495
-0.026684277 -0.0542418 -0.099897176 -0.061272506 -0.08132078 -0.050974805 -0.007020076 -0.051307887
-0.057360988 -0.13303307 0.07185285 -0.09897081 0.0075439094 -0.099585444 0.117116235 -0.01923752
0.041238643 0.013706573 0.055489935 0.113328114 0.13915415 0.118274696 0.14592713 -0.08091852
0.10117085 0.05333156 0.05414111 0.13149521 -0.11824421 -0.08628094 -0.049854793 0.033564564
0.011158848 0.0048119538 -0.0045247856 -0.1276578 -0.07768637 0.013051551 -0.062338214 0.105366245
-0.09178771 0.07168161 0.059768382 -0.008216159 0.11801222 0.097113065 0.102177605 0.07287581
0.036255043 -0.0717023 0.019600464 -0.1084724 0.07522494 -0.040736023 -0.05933825 -0.0043125055
-0.056620955 -0.0443462 0.08957945 0.07841456 0.06280153 0.048407894 0.10692455 0.1235684
0.07006205 0.12227529 0.089872494 0.07374909 0.13803555 0.053293362 0.15529208 -0.028758343
0.05779438 -0.105136715 0.10617091 0.083177246 0.08417757 0.010329985 0.088928744 -0.07273461
0.08428967 0.038829435 -0.13227403 -0.08021149 0.030331612 0.025206909 -0.0476539 -0.11835983
0.07540042 0.059735987 0.10084178 0.073166825 0.0994735 0.09490836 0.07798134 -0.0018819296
0.11959488 -0.004237563 -0.07384601 0.09850357 -0.030670995 0.042930976 0.07763953 0.094675474
-0.0015062104 -0.08956257 0.021753224 -0.11115868 -0.025728906 0.0013901413 -0.08604666 0.09164474
-0.0016970515 -0.016673403 -0.044550586 0.11094155 -0.02879215 -0.05367763 -0.099015735 -0.041419894
-0.064058386 0.0037633884 0.07979914 -0.07071475 -0.010939169 0.02328826 -0.038701434 -0.014853469
-0.059330415 -0.07899496 0.06460489 0.08305449 -0.021996293 0.060360156 -0.032554545 0.08862847
-0.05049876 0.020741474 0.10531385 -0.027668912 0.11472825 -0.06452015 -0.0990845 -0.08474832
0.030887805 0.05094993 -0.001962147 0.122434504 0.03200633 -0.009852837 0.05885164 0.02727431
0.03613373 -0.049277887 -0.019134985 0.01276569 -0.0954807 -0.023796968 0.08937309 0.035802044
-0.04444635 -0.066520795 0.07405959 0.0485614 0.054863688 0.065354615 0.016925089 0.048769537
-0.08482097 -0.07096665 -0.1465752 -0.1370969 -0.07527691 -0.1490061 -0.05110108 -0.13347162
0.032875746 -0.06888424 0.09001097 -0.013644753 0.09916585 -0.00799875 -0.00074840174 0.10293947

bias f4 [32]
00000000: 247f cbbc 8603 55be 3a3f dfbd 6e1b 1fbd
00000010: e47a cbbd fda2 833d 7e12 2ebe c4ac 64bd
00000020: d21c 2e3e 2140 b2bc bd55 013e f86e 01be
00000030: 6b05 283e cb56 f83d 6b83 12be 185c a13d
00000040: 4847 02be 89c4 4ebe ef51 173e c1b5 403d
00000050: ac1c 44bd 66fe 18be 114b d33d 54da c23c
00000060: dce8 153e b91a c8bc 397d eabd 224e 093e
00000070: 4b36 3abe e376 b03c 1067 c1bd e46b e6bd
-0.024840899 -0.20802125 -0.109007314 -0.03884452 -0.09935549 0.06427572 -0.16999242 -0.055828825
0.17003182 -0.021759095 0.12630363 -0.12639987 0.16408317 0.121259294 -0.14307944 0.078788936
-0.12722504 -0.2019216 0.14777349 0.047048334 -0.047878906 -0.14940795 0.10317052 0.023785748
0.1463961 -0.024426805 -0.114496656 0.13408712 -0.18184774 0.021541065 -0.09443486 -0.11251047

weight f4 [32, 32, 5, 5]
00000000: 3c72 34bd c233 10bd 4103 8ebc 892a b83c
00000010: 3976 d8bc 4880 1dbd f41d 38bd 3fc8 15bd
00000020: 6410 8cbc ef28 c5bc 2227 03bd 6494 5b3a
00000030: 782d b5bc 9f6a 03bc a366 933c 124a f33b
00000040: b7cd 99ba 6200 13bd 25df 133d 56e7 cbbc
00000050: 896f c43c f066 223c 6c1c 8dbc f8e4 bbbc
00000060: 1204 583a aa72 bbbc 3e1a 3e3b f5d5 f53c
00000070: ca7e 5a3c d63f 6c3a 0a71 c73b d1e8 95bc
00000080: deb5 79bc ebf2 51bb 3abe 37bc b64f ce3c
00000090: d97c 723c 108c 373d 7366 743c d2c7 573b
000000a0: 4a09 953c 30f2 523d 90b0 513d 165e e43c
000000b0: fc19 973c 07b8 62bc 77c7 e93c 8b04 15bc
000000c0: 98a0 253d 9d47 2a3d 021d b83b de02 e1bc
000000d0: 5b39 e43c c932 d43c 543b 98bc 22cb a03c
000000e0: c6e0 0cbc 2881 5dbc a3f9 d23c 5b50 99bc
000000f0: 5a71 c73c c249 c0bc 2383 b63c 1e74 103d
00000100: 195f 033d f5b9 9bbb 4067 81ba 3824 f63c
00000110: 6b65 0c3c 9044 bebc 9e0a 063d fd89 073d
00000120: 4170 aabc 268c 163d 0ca2 13bc d7b9 ac3c
00000130: dd5d 43bc 96df ecbb 4a2a 4abc 4712 61bb
00000140: b07a 2e3c 7884 d9bb 790f 143b 2fe1 ebbc
00000150: 8502 033c e651 80bc c8a7 aabc 329b 7bbc
00000160: c930 6f3c 616e 08bd 3d85 ce3c 68db 193c
00000170: f3b7 efbb 64d1 dabb 7962 10bd 9f34 1e3c
00000180: 1ae0 7fbb 8e46 0b3c 368f 0dbd 1dd1 8fbc
00000190: 8854 013d 289a 923c 94b2 d8bc f497 903b
000001a0: 4940 90bb feb3 1dbc 626a da3b 7bb5 3b3b
000001b0: 8613 5f3c d689 ed3c 52db debc b78e 1c3d
000001c0: ba42 4fbc a7bf 243d 075d 32bc b1c0 29bb
000001d0: 3ec1 b0bb 9ea7 bebc af43 18bc d729 883c
000001e0: 1910 163d e38c 163b c1b9 d93c deae 163d
000001f0: 4a44 8dbc dc52 ba3c 08b9 9cbc 1609 2fbd
00000200: f2e6 5a3c 8a72 71bc 8bf1 a83c d239 a6bc
00000210: 1b28 12bd 88ef 17bd d00f 96bc e27a 8a3c
00000220: a416 53bc d05b e7bc 910b a2bc 37de d43c
00000230: c4d0 f7bc 55dc 373c c8ce 08bd cbc1 c63c
00000240: 6958 a73c 98dd d3bc 03f9 723a c12a a9bc
00000250: 2ed4 17bd 7dde d9bc e16e 60bc 0e0b 00bc
00000260: 5d55 ecbc e4c0 03bd 4a15 b03c c43d cd3b
00000270: fcea babc ac44 e1bc 0028 ed3c cc60 793b
00000280: bd48 223d 3aee 9cba 14a5 e13c 5f5e 983c
00000290: 6775 173c 7f4c a7bb cc19 143c 704e 1bba
000002a0: 7a71 2cbc 8cdd ff3c dbce 43bc 21a4 1abb
000002b0: a94c 0d3d 6cda 97b8 4db8 d83c d19b afbc
000002c0: 1357 9abb dadd 053c dd25 c13c c402 643c
000002d0: 63db 123d 83a4 443d ced1 a4bc edb7 963c
000002e0: d2d2 023d 89c9 83bc bf1f 1a3d d866 6fbc
000002f0: dbf3 a03c 32b3 cf3b b520 da39 51d0 01bd
00000300: a410 83bb 929c 09bd 98fa 25bd 5b61 17bd
00000310: acbf 07bd 39c3 80bc 578f e6bc 6df5 f3bc
00000320: c7b7 d63c 2295 c9bc 420f 02bd 5583 623c
00000330: cfab 30bb 7436 5739 db97 68bc cb72 c6bc
00000340: 363b 2d3c 6145 10bd 14ee 66bd d6b8 8d3a
00000350: abcd 5dbd 54f3 65bc 135f d3bb 488c 40bd
00000360: c7da 3bbd 53c3 47bd 7b67 4dbd ac90 4abd
00000370: 97f7 e2bc dfa7 29bd b926 b03c 99f7 e6bc
00000380: 3389 f1bb d16f b33c 00ef 0abd c103 b2bc
00000390: 5bd4 9ebb 0d35 bbbc 58c0 b1bb 58dc 2fbc
000003a0: 05a2 9fbb 6ea9 94bb 122a 003d 637e 73bc
000003b0: 6f6a c63c d27b 9ebc efbc 583c 1530 89bc
000003c0: e9d0 7b3c 6716 ae3c 9d91 c43c 515c a6bc
000003d0: 7b73 1abc 4e34 ba3c 6db5 b1bb e6ed 02bc
000003e0: 38ba 17bd 5f2f 81bc 6963 f9bb dada 073d
000003f0: 5a61 68bc ef12 b13a 48cf 33bb 90d5 ab3c
-0.044054255 -0.03520561 -0.017335536 0.02248122 -0.02642356 -0.038452417 -0.04495044 -0.036567923
-0.01709766 -0.02406737 -0.03201974 0.0008376299 -0.022116408 -0.008021026 0.017993277 0.0074246014
-0.0011734281 -0.035889037 0.03610148 -0.024890583 0.023978965 0.0099122375 -0.017225467 -0.02293633
0.00082403526 -0.022881825 0.002900734 0.03000925 0.013335893 0.0009012198 0.0060864734 -0.018299492
-0.015241114 -0.003203566 -0.011214787 0.025184494 0.014800274 0.04481131 0.014917004 0.0032925499
0.018192906 0.0515005 0.051193774 0.027876895 0.018445008 -0.013837821 0.028537495 -0.009095321
0.040436357 0.041572202 0.0056186924 -0.027467187 0.02785938 0.025903122 -0.018582977 0.019628111
-0.008598512 -0.013519563 0.025753802 -0.018715074 0.024346042 -0.02347267 0.022279328 0.035266988
0.032073114 -0.0047523924 -0.000987269 0.030046567 0.008569102 -0.023226053 0.03272497 0.03309058
-0.02080548 0.03675475 -0.009010803 0.02108471 -0.011924234 -0.007228802 -0.012339184 -0.003434317
0.010649368 -0.006638106 0.002259223 -0.0287939 0.007996206 -0.015664052 -0.020831957 -0.015356826
0.014599034 -0.03330839 0.025210017 0.009390689 -0.0073156296 -0.0066777933 -0.03525016 0.0096561005
-0.0039043487 0.008500708 -0.034560405 -0.017555768 0.031574756 0.017895773 -0.02645234 0.0044126455
-0.0044021946 -0.009625433 0.006665514 0.0028642106 0.013615495 0.02899639 -0.02720419 0.03822204
-0.012650186 0.040221836 -0.010886437 -0.0025902207 -0.00539413 -0.023273285 -0.009293481 0.016621513
0.036636446 0.0022972159 0.026577832 0.03678786 -0.017244477 0.022744589 -0.019131199 -0.042733274
0.013360726 -0.014736781 0.02062299 -0.020291243 -0.03568278 -0.03709367 -0.018318087 0.016904298
-0.012883816 -0.028242022 -0.019780906 0.025984867 -0.030250914 0.011221965 -0.033400327 0.02426233
0.0204279 -0.0258625 0.0009268673 -0.02065027 -0.037067585 -0.026595348 -0.013698311 -0.007815136
-0.028849298 -0.032166377 0.021494526 0.0062634666 -0.022817127 -0.027498566 0.028949738 0.003805208
0.03962015 -0.0011972853 0.027544536 0.018599687 0.0092442995 -0.0051055546 0.009039354 -0.0005924469
-0.010525102 0.031233571 -0.011951174 -0.0023596364 0.034496937 -7.240925e-05 0.026455069 -0.021436604
-0.004710087 0.008170569 0.023577625 0.013916675 0.035853755 0.048008453 -0.020119574 0.01839825
0.031939335 -0.01608731 0.03762793 -0.014611922 0.01964753 0.0063385004 0.0004160457 -0.031692807
-0.0039997865 -0.033596583 -0.040522188 -0.03695808 -0.033141777 -0.01571809 -0.028144522 -0.029780114
0.026210679 -0.024607245 -0.031752832 0.013825257 -0.0026957875 0.00020524283 -0.014196361 -0.02422466
0.010573199 -0.035222415 -0.056379393 0.0010812532 -0.05415122 -0.014035065 -0.0064505427 -0.047008783
-0.04586294 -0.04877026 -0.050147515 -0.049454376 -0.02770595 -0.04141986 0.02150284 -0.028194236
-0.0073710917 0.021903904 -0.033919334 -0.021730306 -0.004847092 -0.022852445 -0.0054245405 -0.010733686
-0.004871609 -0.004536799 0.03129012 -0.014861676 0.024220673 -0.019346152 0.013228639 -0.01674656
0.015369632 0.021250917 0.023995215 -0.020307692 -0.009426947 0.022730019 -0.005423239 -0.00799129
-0.037042826 -0.015769659 -0.0076107276 0.033167697 -0.014183367 0.0013509671 -0.0027436782 0.020975858

bias f4 [32]
00000000: 3894 b5bd 9ebc d6bc 3d92 4ebd 3520 e03c
00000010: 8d37 bebc c89d d2bc 73c9 483c 9a60 5cbd
00000020: 1522 d13c e757 9fbc 212d 35bc d097 193d
00000030: 2173 82bc 7757 073d a54c 2f3d b520 4fbd
00000040: d4b8 ac3c ae57 1bbd 25ce 9c3b 2ec6 3c3d
00000050: 1e7c 11bd 2fa6 9bbd ed4d f5bc a5e9 2b3d
00000060: b592 4c3d 245b c3bc d93e 2c3c 5816 453c
00000070: 1f71 64bc 265f 8fbd 42a7 423c 0023 ec3b
-0.08866161 -0.026212987 -0.050432432 0.027359108 -0.023219848 -0.025710002 0.0122550605 -0.053803064
0.025528947 -0.019451095 -0.011058123 0.037498295 -0.015924038 0.033042397 0.042797703 -0.0505683
0.021084227 -0.037925415 0.0047853165 0.046087436 -0.035518758 -0.076000564 -0.029944384 0.041970868
0.0499446 -0.02384717 0.010513031 0.012029253 -0.013942986 -0.0700057 0.011880698 0.0072063208

weight f4 [64, 32, 5, 5]
00000000: 930c dbbc ca75 d03a 0908 c63b f59d 7fbb
00000010: 47d9 413c 9b4e 88bc 21d9 86bc a877 2e3c
00000020: 16ed b23c 4fbd 1c3d 51f0 083d acf8 0a3d
00000030: 4345 3e3d 5197 083c e52b b03c b107 85bc
00000040: 5c40 45ba 21de 9f3b cfd8 5dbc d4b6 953c
00000050: 4914 9eba 9d52 bd3c b3c9 903b 2882 063d
00000060: 0dad 5f39 e7b8 cf3c 5cf0 d23c ffe2 c5bc
00000070: 3cd8 ce3b 60cc acbc 06ed 42bc 1010 b7bc
00000080: 32dc 1a3c b07e f33b 4631 90bc fbad ea3c
00000090: 9993 543d 98c4 293d f72b f6bb 0e74 283d
000000a0: 351a b33c de99 cfbb 097b 2b3d 6bbb 213d
000000b0: d33b 1b3d dddb 3e3c 5a64 e4bc 3284 12bc
000000c0: 2b41 133c a131 783c 632d cfbb 973c a7bc
000000d0: 684a 6c3b aa75 3f3b e914 323c 0494 043d
000000e0: 2893 a0bb c6de 0f3d ee1b 563c 8842 07bd
000000f0: 88a8 d7bc b96f ba3c 68d8 823b 10b6 753c
00000100: e47f c7bc ae1e f83c 8f56 b3ba 7517 b93c
00000110: 1677 aebc 926f f23c 845b e93c ca7c b23c
00000120: 8052 e73c 5d86 b63a e21e 9ebb 5e1d 143d
00000130: 6dbe e23b 0c6f 36bc 7912 d13c 50af ba3c
00000140: 33c8 7c3b 9260 313c daf7 babc 840e 623c
00000150: 5c6e 18bd 94b1 0f3d cb70 273d 85ab 283d
00000160: a904 953c 4811 133c 3f4e 803c d0c5 db38
00000170: 4177 173d e308 0abc d4b0 c3b9 8e6d 3fbb
00000180: e3bf af3c 9105 b7bc 0c30 89bc 969a 823b
00000190: 5b50 42bc d790 603c 2389 0e3c 7a4b 443b
000001a0: 0b8a d03b 3681 2fbc decd 483c f354 42bc
000001b0: 3359 003d 8293 a03c 7179 423b 7270 b73c
000001c0: a291 e6bb ae83 093a 42b7 afbc 38c1 083c
000001d0: 980e 6ebc bcb8 ce3b 9cca e7bc 9d92 f13c
000001e0: 9bac 713c ede4 143c 6813 c6bc 8812 ffbc
000001f0: 3ece b2bc 03bf f23c ed6c b53a 3f33 7cbc
00000200: 5b46 e33b 9d8b a8bc 04f8 09bc d832 66bc
00000210: 2376 9f3c 097d ddbb 43c4 95bb 677d 373d
00000220: f44f cd3c 258c ee3c e7ee ac3b e949 6c3c
00000230: 96fe 6d3c 26ea fd3c 4b9d 903c ddc0 063d
00000240: 5cff c3bc ad54 ba3c 130b 95bc 854d b83b
00000250: 282e 303c 0540 9abc 6bfb 063d b1a2 dfba
00000260: 1458 46bc 72f2 1dbb d379 733b 751c 203b
00000270: 3f0b b13c 934a 0c3c eeea bc3c e174 e7bb
00000280: 35c3 6ebc 724f a83b 4bd3 133d fa0e 033d
00000290: 3c16 de3c be56 4c3c af63 1eba f0dc b9bc
000002a0: d60c d3bc 628c e1bc 85fc eabc 3c2d d0bc
000002b0: 12e2 a3bc 3f2a b53c 2845 b83c f31c dc3b
000002c0: 612e 693c 751c d83c 612b b6bc bc12 f2bc
000002d0: e487 a83c cd2f d4bc 5299 67bc 23ad ebba
000002e0: 962d adbc 6e6b c23c 4d42 e23c 185f 2ebc
000002f0: 630b 9b3c ada3 aabc 10b4 d8bc 1acc 0c3c
00000300: 89c0 943c 5ae6 51bc bd1e 46bc a823 b8bc
00000310: 3a92 bd3c 21fb a43b cba7 3d3c 509c f4bb
00000320: c5f5 703c a5ba ca3c 3835 0f3d ddec a43c
00000330: bc13 22bb 1a79 0bbb 146b 2abc a639 43bc
00000340: 5f7d 433c 0c11 d2bb ba6f 8b3c 3e99 80b9
00000350: ef17 e83c 8a46 dbbc 39ae fc3c 7256 583c
00000360: 29d8 df3c b646 443c fb88 313c 0bce f1bc
00000370: 49fc b7bc b96d 123d 139e 11bd 18d8 01bd
00000380: f737 1dbd 3532 e83c 23fc dd3c 3715 17bc
00000390: 8304 9c3c a93a f53c 4526 543c f4b8 bdba
000003a0: 1fee bf3c eb8e ddbc 0141 b93b e1e2 e4bc
000003b0: 41c6 2e3b 8964 233b 1d05 203d ee0e 033d
000003c0: c983 183d 805d a53a b71a d43c 23a7 d1bc
000003d0: 2d7c 1e3d ea1a 013d b1a9 153d 26da 1b3b
000003e0: 1829 3cbc cef2 b2bc cf02 913c 480c aebc
000003f0: c0a6 843b 34ed 4fbc 9262 753c bdce f6bc
-0.026739394 0.0015904245 0.0060434383 -0.0039004062 0.011831588 -0.016639045 -0.016460957 0.010648645
0.021841567 0.038266476 0.03343231 0.03392856 0.046452772 0.008336858 0.021505306 -0.01623902
-0.0007524544 0.0048787748 -0.013540461 0.018275656 -0.0012060489 0.023110682 0.0044185757 0.03283897
0.00021331404 0.025356723 0.025749378 -0.024156092 0.0063123982 -0.021093547 -0.011897331 -0.022346526
0.009451913 0.007430874 -0.01760162 0.028647413 0.051898573 0.041447252 -0.0075125652 0.041126303
0.021863082 -0.006335481 0.041865382 0.039485376 0.03789885 0.011649099 -0.027879883 -0.008942651
0.008987705 0.015148551 -0.006322549 -0.020414634 0.0036055092 0.002921442 0.010869243 0.03236772
-0.004900355 0.035124563 0.013068182 -0.033022434 -0.02632548 0.022758352 0.003993083 0.01499702
-0.024352975 0.030288067 -0.0013682413 0.022594193 -0.021297019 0.029594216 0.02848602 0.02178802
0.028237581 0.0013925541 -0.004825459 0.03616082 0.006919673 -0.011134874 0.025521504 0.022788674
0.0038571476 0.010826247 -0.022823263 0.013797406 -0.037214622 0.03508146 0.040879052 0.0411792
0.018190699 0.008976288 0.01566231 0.00010479579 0.036978964 -0.00842497 -0.00037325046 -0.0029209587
0.021453803 -0.022341521 -0.016746543 0.0039857132 -0.011859979 0.0137064075 0.008699688 0.0029952214
0.0063641123 -0.010711959 0.012256114 -0.011861074 0.031335067 0.019601587 0.0029674436 0.022392485
-0.0070364038 0.0005245757 -0.021449689 0.008346848 -0.014529847 0.006308643 -0.028294854 0.029488856
0.014750625 0.009087783 -0.024179175 -0.031136766 -0.02182686 0.029632097 0.0013841667 -0.015393077
0.0069358773 -0.020574385 -0.008420948 -0.014050208 0.019465512 -0.00675929 -0.0045705154 0.044797327
0.025062539 0.02911956 0.005277503 0.014421918 0.01452603 0.03099544 0.017653128 0.032898773
-0.023925476 0.022745455 -0.018193757 0.0056244754 0.010753192 -0.018829355 0.032954615 -0.0017062036
-0.01210596 -0.0024100807 0.003715147 0.0024431024 0.021611808 0.008562702 0.023061242 -0.0070634936
-0.014572908 0.0051364237 0.036090177 0.031996705 0.027110212 0.012471853 -0.00060420757 -0.022688359
-0.025762957 -0.02753276 -0.028684864 -0.025412194 -0.02000526 0.022114871 0.022493914 0.006717318
0.014232249 0.026380757 -0.022237482 -0.029549949 0.02057261 -0.0259017 -0.0141356755 -0.0017980676
-0.021139901 0.023732867 0.027619505 -0.010642789 0.018926328 -0.02083 -0.026453048 0.0085935835
0.018158214 -0.012811268 -0.0120922895 -0.02247794 0.023141015 0.0050348197 0.0115756495 -0.007464923
0.0147070335 0.024747202 0.034962863 0.020132476 -0.0024731 -0.00212819 -0.010401506 -0.0119156
0.011931746 -0.0064107236 0.017021049 -0.00024528237 0.028331725 -0.026767034 0.030844795 0.013204204
0.027324753 0.011979749 0.010835881 -0.029517194 -0.022459166 0.03574917 -0.035551142 -0.031700224
-0.03838345 0.028344253 0.027097767 -0.009221367 0.01904512 0.029935198 0.012948577 -0.0014474676
0.023428975 -0.027045688 0.005653501 -0.027940216 0.0026668462 0.002493175 0.039067376 0.03199666
0.037235055 0.0012616366 0.025891645 -0.025592392 0.038692642 0.031519808 0.036538783 0.002378115
-0.011484407 -0.021844294 0.017701535 -0.02124609 0.0040481985 -0.012690831 0.014977114 -0.030127877

bias f4 [64]
00000000: afea d9bc 92d5 223d 15c7 273c e879 c23c
00000010: a2e4 f33a 6919 81bc f3ef c53c f6e7 88bb
00000020: 17b9 44bc ca21 f4bb 87b5 f93b ef8c 2f3c
00000030: 56cb 83bd 36ae ff3a 03ed a63c c98f e9ba
00000040: 4e75 993c d8f1 06bd 0d00 19bd 6292 44bc
00000050: 60fa 273c 1468 4ebc fa96 e2bc d947 3abc
00000060: fa9e 2d3c 723e aabc 544e a3bb d5b6 80bc
00000070: fbeb 723c cc9f 02bc 7ddd 9d3b 82c6 74ba
00000080: 7bbf c63b e0a7 51bb 9b8b 0ebd eb2a 5dbd
00000090: df8c 8a3c ecf8 123d b886 c7bc 378c 7abc
000000a0: 30b6 fa3c 0155 733c f884 0bbd 1da3 093c
000000b0: effe 44bb 4dfb acbc c55a 77bd e7d8 ae3b
000000c0: 1692 b93b 6a04 9c3c 7084 1abd 76d2 363c
000000d0: 9cba 13bc ddaf a9bc 430c c4bc bc91 fcbb
000000e0: 34e5 93bb c0a7 1e3d 5dde 89bb 57f3 fe3c
000000f0: db91 78bc 7282 84bc 9b1d ea3c 8221 693c
-0.026601164 0.039754458 0.010240336 0.02373977 0.0018607567 -0.015759187 0.024162268 -0.0041780425
-0.0120070195 -0.007450317 0.0076205167 0.0107147535 -0.064352676 0.0019506875 0.020376688 -0.001781934
0.018732693 -0.032945484 -0.037353564 -0.011997791 0.010252565 -0.012598056 -0.027659882 -0.011369669
0.010596985 -0.02078173 -0.0049837027 -0.015712181 0.01482677 -0.007972669 0.004817663 -0.00093374413
0.0060653067 -0.003199093 -0.034801107 -0.053996008 0.016912876 0.03588192 -0.024356231 -0.015292219
0.030604452 0.0148518095 -0.034062356 0.008400706 -0.0030059179 -0.021115923 -0.0603893 0.0053359154
0.0056631668 0.019045074 -0.03772396 0.011158576 -0.009016659 -0.020713741 -0.023931628 -0.0077078026
-0.004513407 0.038734198 -0.004207416 0.031121893 -0.015171493 -0.016175482 0.02857857 0.01422918

weight f4 [64, 1024]
00000000: 520f babc 5d2c c0bb 7b2f d13c 349b 41bc
00000010: 8ea9 5ebc 3383 2fbc efee 07bc 3aa2 d23c
00000020: 7f74 243c 9060 90bc 9c09 773c 7d9a a13c
00000030: 8d6c 0d3c 43b4 763c 330c 9b39 f4b9 22bd
00000040: 52db 043c 2551 47bc bb37 adbc 6bf5 abbc
00000050: dffd b2bb c958 a8ba dab3 9dbc 2619 0dbc
00000060: 08fd 273b 45bd 2a3c 74c6 143c 6be1 38bc
00000070: 57fd 8ebc 9d31 0d3d 4e9e 073c 4f9b 03bd
00000080: 5013 583c 65c4 ac3c 895f d4bb 78f6 d5bc
00000090: 26e3 b2bc 169d b4bc a9a3 91bc a79d babc
000000a0: 48d0 63bc 152a 0c3c ffb6 47bc 562c c7bc
000000b0: 2d0f 75bc 8158 32ba c803 bbbb 67c3 583b
000000c0: b4b8 9d3c 58df 643c 85aa c0bc fe65 30ba
000000d0: b4d5 2dbc 86b9 da3c 4ec7 1fbc da72 923c
000000e0: a71a 8abb 5bd4 723c d3c5 f7bb d4f0 ccbc
000000f0: 4aae 99bc ee20 6f3c 6d2c 603b f3fa 05bc
00000100: 922e a93c 7ddb dc3c 3b6f 80bc 1417 55bc
00000110: 6d8c c7bc ee7f 75bc 7ef0 a23b 2dd7 9ebb
00000120: f1a8 fbbc e27e bebc 8854 9dbc 2bcf 193c
00000130: 7015 78bc c7ca 7cba a09c 913c 871e 03bb
00000140: ed0f f0bb a75b ab3b 5ede 0bbc 4faa 06bd
00000150: 0afa 063d 699a ffbc 3195 debb 8be2 c839
00000160: c3d5 023c af3e fbbc e479 17bd 15e3 003d
00000170: 9943 4f3b ef34 61bc f606 37bb c3a8 98bc
00000180: dfd5 92bb 5ec7 8d3c b09c ff3a 2ecc 51bc
00000190: 6d3f 30bc 6e3a f63c 6099 733c b526 f43b
000001a0: 41bb 48bc 967f bf3c c4b5 00bb 9f86 79bc
000001b0: 2339 c33c 2a5c 0abd 7b83 ccbc df4f 0e3d
000001c0: d47f 86bc 7779 0f3c 965a ab3c 8465 b63c
000001d0: 7c3e c13c 187a c33c 8316 42bc cf38 a03c
000001e0: 686a 953c 73c4 ff3c c96c 1a3c a757 6bbc
000001f0: 223c 4bbc 07a5 5dbb 8b40 bf3c fd53 e3bc
00000200: f78f 1cbc c1ce c5bb 3720 8a3c 65c8 b73c
00000210: 3779 273b 393d 503c 6ea7 153c 6722 e6bb
00000220: 2e1a 1ebc b2e5 e4bc 503b ccbc 33e9 f2ba
00000230: f51d c63c b845 9a3c af07 29bc 2443 9dbc
00000240: 0721 86bc b2d4 a7bc 95ea f5ba c136 3fbc
00000250: 98a5 9c3b 84d2 d83a 1a72 e2bc 3bfb eb3c
00000260: 77a5 5e3c f541 57bc 35c3 df3c 7ddb bdbc
00000270: c77e 9d3c 1f12 21bd 9bd5 233c 00b8 0cbd
00000280: 52b9 fdbc 9140 19bc 5737 5abc f872 f7b9
00000290: 1a24 d83b 7955 9fbc d482 b2bc f530 0ebc
000002a0: 5931 f93b 388a 8fbb 098f dabb 0f08 1fbc
000002b0: c183 073d eaf6 e43c 13dc b03c 4263 d8bc
000002c0: 30ac cbbc 97c3 94bc 869b c6bc e6fc 433c
000002d0: e1f3 7abc 2970 fe3c d09e 423c 6752 1bbd
000002e0: c073 1339 91bd 5a3c 1f1b f53a 95cc fa3c
000002f0: 4f7b bfbb 92bd f5bb 7cc3 c73c e062 e53a
00000300: cef0 c2ba 9ba9 25bc f088 ac3c e1d9 5b3c
00000310: ef6b aabc c019 283c c648 7f3b d5e5 143c
00000320: 6011 c9bc 6076 36bb 649e 0dbc 7469 993c
00000330: a001 9e3c cd37 60bc a4c2 a93c 3092 a1bc
00000340: b3d5 c7bc d5c6 6dbc 63ff a8bc a04b f3bc
00000350: 3467 963b be79 c9bc 6101 9fbc d01b 11bd
00000360: fa5f 99bb 5cba 1abc 1896 ed3c 61cb a43c
00000370: 9bac 853c bf7a 973a 8df5 8bbb 190f 403b
00000380: 7114 d23c e34b d5bc 3ddb ef3c 2cac 41bc
00000390: 015b d13a 7c43 5f3c cb18 98bb 42f8 743c
000003a0: d928 96bc 3049 d13b dab1 3b3c 1898 0e3c
000003b0: b0a5 803c a8c8 a0bb 2aea d53c eeb2 643c
000003c0: 5404 253c d2cb 00bc 4d41 653c 309d c73c
000003d0: dd90 2a3c ccaa c9bc be0b dbbc 34db a2bc
000003e0: af39 e73b c511 a2bc 123c c9bc 2789 b63c
000003f0: da1f a3bc 999a 1f3d 57b9 433c 132f 2cbc
-0.022712383 -0.0058646635 0.025535336 -0.011816788 -0.01359023 -0.010712433 -0.008296712 0.025712121
0.01003754 -0.01762417 0.015077975 0.019726986 0.008631838 0.015057626 0.00029572993 -0.03972812
0.008108931 -0.012165342 -0.021144738 -0.020991048 -0.0054623927 -0.0012843843 -0.019250799 -0.008611953
0.0025632996 0.010421102 0.009080518 -0.011284213 -0.017454786 0.034471143 0.008277489 -0.032130536
0.013188198 0.021089742 -0.0064811152 -0.026118502 -0.021836828 -0.02204756 -0.017778235 -0.022780253
-0.013904639 0.008554955 -0.012189626 -0.024313133 -0.0149572315 -0.0006803349 -0.005707238 0.0033075453
0.019253112 0.013969265 -0.02351881 -0.0006729065 -0.010610033 0.026699793 -0.009752108 0.017877031
-0.004214603 0.014821137 -0.0075614243 -0.02501718 -0.018759865 0.014595253 0.0034206167 -0.008177507
0.02065209 0.026960129 -0.015678039 -0.013005991 -0.024358952 -0.014984114 0.0049725166 -0.0048474283
-0.030720206 -0.023253862 -0.019205347 0.009387772 -0.01514183 -0.0009643253 0.01777488 -0.002000721
-0.0073261173 0.0052294317 -0.008536903 -0.032877263 0.0329533 -0.031201558 -0.0067926873 0.0003831576
0.007985535 -0.030669538 -0.03698148 0.031466562 0.0031625985 -0.0137455305 -0.0027927733 -0.01863516
-0.004481062 0.01730698 0.0019501653 -0.012805028 -0.010757309 0.030057158 0.01486811 0.0074509033
-0.012251676 0.023376267 -0.001963959 -0.01522985 0.023830956 -0.0337793 -0.024965039 0.03474414
-0.016418375 0.008756987 0.020917218 0.022265203 0.023589365 0.02386193 -0.0118461875 0.019558338
0.018239215 0.031221604 0.00942535 -0.01436416 -0.0124044735 -0.0033820288 0.023346206 -0.02775001
-0.009555808 -0.00603661 0.016861064 0.022434423 0.0025554427 0.012709909 0.009134157 -0.007023144
-0.009649796 -0.027941559 -0.024930626 -0.0018532634 0.024184207 0.018832073 -0.010316773 -0.019197054
-0.01637317 -0.020487163 -0.0018761927 -0.011670769 0.0047804825 0.0016542231 -0.027642298 0.02880632
0.013589255 -0.013138284 0.027314762 -0.02317595 0.019225491 -0.039323922 0.009999658 -0.034355164
-0.030972157 -0.009353773 -0.013318858 -0.0004719717 0.0065961005 -0.019449936 -0.0217909 -0.008678664
0.0076047597 -0.0043804906 -0.006669883 -0.009706511 0.033084635 0.027949769 0.021589315 -0.026414517
-0.024862379 -0.01815967 -0.024244081 0.011962151 -0.015316934 0.031059342 0.011878684 -0.037920382
0.00014062133 0.01335086 0.0018700099 0.03061513 -0.005843557 -0.007499405 0.024385206 0.001750078
-0.0014872791 -0.010111238 0.02106139 0.013418646 -0.02080342 0.0102600455 0.0038953288 0.009087999
-0.024544418 -0.0027841553 -0.00864372 0.018727042 0.019287884 -0.013685179 0.020722695 -0.019723028
-0.024393892 -0.014512737 -0.02062959 -0.029699147 0.0045899395 -0.024594184 -0.019409837 -0.035426915
-0.0046806308 -0.009443846 0.029002234 0.02011651 0.016317656 0.0011556967 -0.0042712153 0.0029305874
0.025644513 -0.026037162 0.029279346 -0.011820834 0.0015972556 0.013626929 -0.0046416274 0.014951767
-0.018330025 0.0063868985 0.011455977 0.008703254 0.015704006 -0.0049067326 0.026112635 0.013958676
0.010071833 -0.007861095 0.01399262 0.024366945 0.010410515 -0.024617575 -0.026738998 -0.019879915
0.007056437 -0.019783864 -0.024564777 0.022282196 -0.019912649 0.038965795 0.011946044 -0.01050927

bias f4 [64]
00000000: af35 9c3c a3b2 80bc 1a48 0e3d ec12 d3bc
00000010: 9e10 87bc 9f0a ad3c fc52 513c 1a13 42bc
00000020: 81eb dbbb a2ec 25bc 5880 c23c 23e1 e8b8
00000030: 7ef7 2c3d dfa6 2e3c 6a50 e4ba 3519 1fbd
00000040: c1e6 5abc 552b f8bb 3257 19bd 1241 f73c
00000050: 55d0 943b 2c4c 0cbd b8d7 87bb de5d a3bc
00000060: ebd1 57bc 4cb4 bc3c 110b 313c a58c 313d
00000070: 304f a0bc 21f6 89bb 60b4 923b d133 14bd
00000080: 54bc 08bd 56b0 503c 8448 91bc 4002 8d3c
00000090: 4e5d 513d 0d28 e1bc 6025 8a3b 1cbf b73c
000000a0: 5b38 593c 3992 a13b 696b cfbc 9fe9 40bc
000000b0: 0210 ce3c 9336 6dbc e313 b6bc 7798 c7bc
000000c0: b6a0 3d3b fecb 8fbc 9486 ff3b 1b1b f5bc
000000d0: bead e43c 3761 caba f8f8 b9bc b1e0 f1bc
000000e0: dcf8 d4bc 4f3b b5bb 1d1e da3c a4fe 0f3d
000000f0: eca2 0cbc a25e 933c d093 da3c 5e04 2fbd
0.019068567 -0.01571018 0.03473673 -0.025765859 -0.016487416 0.021123229 0.012776133 -0.0118453745
-0.006711424 -0.010127218 0.02374284 -0.00011104557 0.042228214 0.010659902 -0.0017418985 -0.0388424
-0.01336068 -0.007573525 -0.03743667 0.030182395 0.0045414367 -0.03425233 -0.0041455887 -0.01994222
-0.013172607 0.023035191 0.010805861 0.04334702 -0.01956901 -0.004210249 0.004477069 -0.03618223
-0.03338273 0.012737354 -0.017734773 0.017212987 0.051114373 -0.027484918 0.004215881 0.022429995
0.013258065 0.004930761 -0.025319772 -0.01177445 0.025154117 -0.014478344 -0.02222628 -0.024364693
0.0028934903 -0.017553326 0.0077980254 -0.029920151 0.027914878 -0.0015440349 -0.022701725 -0.029526087
-0.025997572 -0.005530752 0.026625687 0.035154954 -0.0085837655 0.01798946 0.02668181 -0.042728774

weight f4 [10, 64]
00000000: 20d3 38bd a77d bdbd 770b 383c d8e6 ea3d
00000010: 40cb 763c d80d f33d 72b5 ea3d 46fc 203c
00000020: 0ef7 843d 81d1 e73d 5229 063e 4e3c 34be
00000030: d1f8 10be b779 ebbd 6eeb ad3d d528 833d
00000040: ebe5 a5bd bce6 1a3e b467 ae3c e3ce 0fbe
00000050: 2ade 2a3e 6bea 3dbc 1ddd ebbd 905c 02be
00000060: d9ed 70bd a046 b8bd dd26 b3bd 51ea 13be
00000070: ddba e6bd 205c 08bd 646e 6f3d 12ce bfbd
00000080: a789 e73d 6213 9b3d 963c 833d 678a dbbd
00000090: b211 b9bd 7873 193e 0b38 1fbd e312 283e
000000a0: c1d2 ba3c 1efc 2abd 5b75 bebd 1bb7 153e
000000b0: 2bb9 00be ef6f ca3d 27ea 0e3d 1389 3dbc
000000c0: f2c6 523d b626 94bc 2e34 e1bd 2b33 0a3e
000000d0: dd43 c43c 271e f1bd 7317 de3c d322 b23d
000000e0: c8b7 ffbc d557 4c3d 3c15 c1bd 47c0 cdbd
000000f0: 9c37 a23d e33f d13d da4e e7bb 3131 ad3c
00000100: 6821 49be 4c0e 90bd b264 193d 8daa fb3c
00000110: ff44 35be feac 5c3d 89f8 fc3d 02c9 033e
00000120: 1531 5d3d ee42 9dbd 0f68 a3bd 07b0 e0bc
00000130: 37ba fdbd c52e a6bd 4db3 ef3d 28c1 3f3e
00000140: 473d a8bd 5694 133e 532f 813a 07c6 573e
00000150: 23f0 9b3d 7153 d13d 37fd aa3d f050 d4bd
00000160: fc61 0b3e de0d dfbc 891b 52be 3424 8abe
00000170: 6e30 b8bc b6a5 433e 63ea d1bd c045 983d
00000180: 92a7 e7bd 330b a83d 80a2 96bd 48cd 433e
00000190: 0407 4c3e dcc2 ae3c 20dc c93d 6ca5 4ebc
000001a0: 853a 1ebe 96e7 a4bb 9c8b 13be b6f9 153d
000001b0: 0017 b43d 36ad 4a3d cf0e 13bc d26a 65bd
000001c0: 582f 683e f886 c3bd fe51 03be 17f5 8b3d
000001d0: 6109 83bc 05ef 83bc 3692 eb3d 3d77 263e
000001e0: d916 b2bd eaf9 d33d 16f7 1c3e 395e 26bd
000001f0: 2c9e 6b3c 56d6 113d aa42 473d ca63 b6bd
00000200: b164 b53d e248 0b3e 41b5 26be 3c0c 7dbd
00000210: 6324 f7bd a37b 71bd 20de bfbd cc96 5c3d
00000220: c2b9 0e3e 48be c43d ef2d 313e 0a66 fb3c
00000230: d14e 09be fd20 e2bd eda3 88bd dcd9 56bc
00000240: 0145 07be 56e3 09be 995f cdbd dbc0 a2bd
00000250: bd06 88bb c69a b23d d129 aabd e93c ce3d
00000260: 5a5b ea3d 4db3 17bb 1a14 9fbc e1ea 3fbc
00000270: 1897 1fbd 3a20 0a3c c3fb 333e 1d97 38bd
00000280: 5abd ed3d f9e4 03bd e69d f03d ada9 aebd
00000290: 1ce6 423d 696b c0bc 2ffe 0ebe ed0f 7a3d
000002a0: fa78 edbb 4d7e 8ebd f6c4 bd3d 2a36 4cbe
000002b0: f670 aa3c 011d e33c dc0c b3bd 8638 a7bd
000002c0: 56e8 3abb db50 cdbd b960 1abb 3aeb d73d
000002d0: ca9c 903c c34f 693d 26a8 54bd 0b16 5fbe
000002e0: f966 1b3c 1be0 b6bc 4308 73bb 9200 a83d
000002f0: 09c7 803d a608 273e 557a 39bc 0923 a5bd
00000300: f38f 0cbe 03d4 2a3d 7391 1bbd 5d92 1fbe
00000310: d739 05be 4564 f7bd 22bb c8bd 9bd2 09bc
00000320: e5d5 1dbd e32e 20bd 15f9 a83d a798 71bc
00000330: 85fa b4bd 17f8 db3d 37fe 8bbb fb97 663d
00000340: 4ca2 a23d 8b98 b8bd 60e5 803d dd7f afbd
00000350: 1984 28be 25db cabd 88c8 c43d 1445 d53d
00000360: 984c eebd ee95 1b3e 341e 4a3c 046e de3d
00000370: 92a3 ad3c ee19 f63c bcc0 22bd e8d7 05bd
00000380: 80d0 3ebe 3ffa e3bd defa 913d abf8 92bd
00000390: bbb3 a73d a71f 043c ece8 4fba 844c 1dbe
000003a0: beaf 39bd b8d3 c1bd 4c41 fd3d 09f1 b7bd
000003b0: bef6 03be a6bf 3a3d 11a9 7e3d 2f21 fb3d
000003c0: 2e2e 3b3d 8eba 173c 4538 073d 86e1 9f3c
000003d0: eafb 323d 6368 bf3d 68fc 173d e1ca 17be
000003e0: c98f 2e3c a9dd 3d3c 4501 4ebd 0253 e43d
000003f0: 4f14 153d 63f8 8c3d b65f 9ebd 4bd7 733d
-0.04512322 -0.09252482 0.011233202 0.11469811 0.015063107 0.11867875 0.11460389 0.009825772
0.064924344 0.113192566 0.131017 -0.1760113 -0.14157416 -0.11497825 0.0849217 0.064042725
-0.08100494 0.1512708 0.021289684 -0.14043765 0.16686311 -0.011591534 -0.115167834 -0.12730622
-0.05882058 -0.08997846 -0.08747647 -0.14444853 -0.1126611 -0.033290982 0.058454886 -0.09365477
0.11305552 0.07572056 0.0640804 -0.107197575 -0.09036578 0.14985454 -0.038871806 0.16413455
0.022805573 -0.041744344 -0.092997275 0.1462063 -0.12570636 0.09884631 0.034891274 -0.011568326
0.05145926 -0.018084865 -0.109962806 0.13496082 0.023958141 -0.11773329 0.02711079 0.086980484
-0.031215563 0.04988845 -0.09427878 -0.100464396 0.07920763 0.102172635 -0.0070589604 0.02114162
-0.1964165 -0.07033977 0.037449546 0.030720973 -0.17702101 0.053875916 0.12352092 0.12869647
0.054001886 -0.076787814 -0.07978832 -0.027427686 -0.12389033 -0.08114389 0.11704121 0.18726027
-0.08214813 0.14412054 0.0009856023 0.21071635 0.07614162 0.10220993 0.08349078 -0.10367
0.13611597 -0.027228292 -0.20518316 -0.26980746 -0.02248403 0.19106182 -0.10249784 0.07435179
-0.113112584 0.08205261 -0.07355213 0.19121277 0.19924551 0.02133315 0.09856439 -0.012612682
-0.15452011 -0.00503249 -0.14408726 0.036615096 0.087934494 0.049481593 -0.008975699 -0.056010075
0.2267431 -0.095472276 -0.12824246 0.068338566 -0.015995683 -0.016105184 0.11502497 0.16256423
-0.08695764 0.10350402 0.15328631 -0.0406172 0.014380973 0.035604797 0.04864756 -0.08905752
0.08857096 0.13602021 -0.1628008 -0.061779246 -0.12067487 -0.0589558 -0.09368539 0.05385475
0.13938048 0.09606606 0.17302679 0.030688304 -0.13408972 -0.11041448 -0.06671891 -0.013113465
-0.13209917 -0.13465628 -0.100279994 -0.079469405 -0.004151194 0.08720927 -0.08308757 0.100702114
0.11443205 -0.0023147643 -0.019418765 -0.011713714 -0.038962454 0.008430535 0.17576508 -0.045065988
0.116083816 -0.032200787 0.11748867 -0.08528457 0.04758273 -0.023488717 -0.13964151 0.061050344
-0.0072470875 -0.06957684 0.09266083 -0.19942537 0.020805817 0.027723791 -0.08742687 -0.08165078
-0.002851983 -0.100251876 -0.0023556186 0.10542913 0.017652888 0.056960832 -0.05191817 -0.21785752
0.009485 -0.022323659 -0.0037083782 0.08203234 0.06287963 0.16311893 -0.01132067 -0.08063323
-0.13726787 0.041706096 -0.037980508 -0.15583177 -0.13010345 -0.12079672 -0.09801318 -0.008412029
-0.038534064 -0.039107215 0.082506336 -0.014745868 -0.08836845 0.10740679 -0.004272248 0.056297284
0.07941112 -0.0901347 0.0629375 -0.0856931 -0.16456641 -0.0990508 0.09608561 0.10413566
-0.11635703 0.15193912 0.012336303 0.108608276 0.02119616 0.030041661 -0.039734587 -0.032676607
-0.18634224 -0.11131715 0.07127927 -0.07176336 0.08188578 0.008064187 -0.00079311314 -0.1536122
-0.045333616 -0.0946421 0.1236597 -0.08981521 -0.12887093 0.045592926 0.062172953 0.12262189
0.045698337 0.009260787 0.033012647 0.019516718 0.043697275 0.09346082 0.037105948 -0.14823486
0.010654398 0.011588492 -0.05029418 0.11148645 0.03639632 0.068833135 -0.07733099 0.05953149

bias f4 [10]
00000000: 920a b7bd 5029 0fbd 0422 d33d 2800 993d
00000010: d2dc 8f3c 7e41 52bc 78e9 213e 0177 9dbd
00000020: f3d4 fcbd b9e7 f4bc
-0.08937563 -0.034951508 0.10309222 0.07470733 0.01756135 -0.012832997 0.15811718 -0.07688714
-0.12345304 -0.02989565
