chaoyang_7.pth (torch, 588587 bytes, 10 tensors)

weight f4 [32, 3, 5, 5]
000000 fb 31 5c bd 26 a7 0c 3e 94 70 cd 3d 70 34 ed 3c
       -0.053758603 0.13735637 0.10031238 0.028955668
000010 1d ff b0 3c fe 7a 8d bd e6 d1 04 3e a4 35 e8 3c
       0.021606022 -0.069082245 0.12970695 0.02834589
000020 d0 41 ed 3d dc 15 b6 3a 29 bc 11 3e ef 88 32 3e
       0.11584818 0.0013892013 0.14231934 0.17435049
000030 99 24 8a 3d 6f 7f 37 3d f7 48 a9 bd d7 ff b0 3d
       0.06745262 0.044799265 -0.0826587 0.086425476
000040 7e ef 13 3e ee ab d2 3d 62 e9 24 3d f4 aa d2 3d
       0.14446828 0.10286699 0.040261634 0.10286513
000050 ad 84 bd 3d 60 8d 03 bc 92 5e dd 3d 59 1c c9 3d
       0.092538215 -0.008029312 0.108090535 0.0981986
000060 74 dd 36 bd a4 7a a9 3d d8 ac 6e bd f5 5c 18 bb
       -0.044644788 0.08275345 -0.058270305 -0.0023248766
000070 b8 56 f0 bd 13 ce 05 be a7 24 b0 3d da 6f b5 3c
       -0.1173529 -0.13066892 0.08600741 0.022148062
000080 6d 72 74 bd 52 23 c8 bd 46 2d 9c 3c 9f 0b ce 3d
       -0.059679437 -0.09772362 0.019064557 0.1006081
000090 fe 75 88 3d 7c 06 0b 3d a3 06 c0 bc ca 78 17 bd
       0.0666313 0.03394173 -0.023440665 -0.036980428
0000a0 09 71 78 bc 69 fc 5d bc 9f 05 f7 3d 6d 70 a3 bd
       -0.015163668 -0.013548949 0.12061619 -0.07980428
0000b0 94 7d ed bd dc b4 3e 3d 49 32 13 3d 73 43 8a 3d
       -0.11596218 0.0465592 0.035936628 0.06751146
0000c0 cb b0 bb bd 40 68 f9 3c 69 b3 04 3d 38 4c d1 bc
       -0.0916458 0.030445218 0.03239766 -0.02554904
0000d0 4e c5 24 bd b5 c8 87 bd a3 c5 0e be 8f bb 8d bb
       -0.040227227 -0.06630079 -0.1394258 -0.0043253372
0000e0 35 ee 49 bd a9 01 20 be 4d f4 28 bd 26 aa f2 bd
       -0.049299438 -0.15625633 -0.04124861 -0.118488595
0000f0 c0 09 bb bc b3 74 52 3d 4f 58 1d be 98 1c cd bd
       -0.022831798 0.051380824 -0.15365718 -0.100152194
000100 96 e3 c9 3c f9 19 c6 3c 4e 36 8a 3d 40 79 d5 3b
       0.024644654 0.024182307 0.06748639 0.0065146983
000110 35 d6 ac bd fe 50 66 bd cc e8 02 be 78 4c 73 3d
       -0.08439294 -0.056229584 -0.12784117 0.0593991
000120 5f 1e f5 bc 36 3d 93 bd 3b 09 f9 bd ac 6e ed bd
       -0.029921709 -0.071894094 -0.12159964 -0.115933746
000130 c6 1d 17 be e6 75 d3 bd c5 c1 4d bd 5f 82 cd bd
       -0.14757451 -0.10325222 -0.05023362 -0.10034632
000140 09 3e e2 bd 71 6d 3d be 5b 9e 0d 3d b7 18 06 be
       -0.110469885 -0.1849878 0.034574848 -0.13095365
000150 f8 66 07 bd f1 a8 00 be ad b8 e4 3d bb a6 04 bc
       -0.033057183 -0.12564446 0.111680366 -0.008096392
000160 9e 1c 59 3d a6 be 0f 3b 0c e9 83 3d 9f 69 12 3e
       0.053005807 0.0021933704 0.064409345 0.14298104
000170 36 e7 3b 3e f0 17 25 3e dc fa 26 3e 07 96 8e bd
       0.18349919 0.16122413 0.16306633 -0.06962209
000180 1a 6a f2 3d 23 68 9c 3d 3d 3d 9f 3d 27 b8 0c 3e
       0.118366435 0.0763705 0.07775352 0.13742124
000190 56 99 13 be bb 50 f3 bd 38 2a 8b bd 1f 35 ce 3c
       -0.14413962 -0.118806325 -0.06795162 0.025171814
0001a0 9d 06 99 bb 0a 59 e8 bc 8b 99 04 bd 38 5d 11 be
       -0.004669978 -0.02836277 -0.032372992 -0.14195716
0001b0 de f6 b0 bd c1 ae bd bb 02 82 a8 bd 4f 6a e1 3d
       -0.08640836 -0.0057886546 -0.08227922 0.11006605
0001c0 f0 bd 92 bd c5 88 bc 3d 48 91 60 3d f7 93 5e bc
       -0.07165134 0.09205774 0.05482605 -0.013585082
0001d0 41 37 0c 3e ff a1 05 3e ad 5a 08 3e 06 2f 9d 3d
       0.13692953 0.13050078 0.1331584 0.07674985
0001e0 bf d2 b2 3c 8b f7 a0 bd 5c 8e 92 3c a2 f0 e1 bd
       0.021829007 -0.07859715 0.017890148 -0.11032225
0001f0 0e f7 63 3d c3 fb 8b bd 2d 54 b3 bd b5 b6 9e bc
       0.05565553 -0.06835129 -0.0875629 -0.01937423
000200 e8 91 83 bd a2 ff 7f bd 80 24 65 3d 09 b0 5f 3d
       -0.06424314 -0.06249965 0.055943012 0.05461124
000210 0e 75 55 3d cb d6 28 3d f9 f7 b0 3d 83 cc d0 3d
       0.052113585 0.041220468 0.08641047 0.101952575
000220 46 d8 98 3d 6f bc 11 3e 1b 9e de 3d 65 2a 86 3d
       0.07463126 0.14232038 0.1087 0.06551055
000230 c5 e9 03 3e 1c 53 8c 3d 24 27 3c 3e 3f fa 5d bb
       0.12882145 0.06851789 0.18374306 -0.0033871082
000240 0c b3 62 3d e6 a5 f7 bd 75 86 ca 3d d2 df a2 3d
       0.055346534 -0.120921895 0.09888927 0.079528466
000250 eb 5b a3 3d 6e 82 49 bc 95 93 b0 3d fa dc a6 bd
       0.07976516 -0.012299163 0.08621899 -0.08147617
000260 7c c2 ae 3d 22 4c 06 3d 48 f9 20 be d2 fb aa bd
       0.08533189 0.03278745 -0.15720093 -0.08348812
000270 77 ff f7 3c 23 e7 14 3d 23 dd 3d bd a6 77 0e be
       0.030273182 0.03635324 -0.04635347 -0.1391283
000280 ed b9 8a 3d 9e 0e 7f 3d 10 21 f0 3d aa 09 ae 3d
       0.06773744 0.0622698 0.11725056 0.08497937
000290 cf 54 b3 3d 79 b0 ac 3d 67 26 a2 3d b8 13 89 3c
       0.0875641 0.08432097 0.07917481 0.016733035
0002a0 04 7c 10 3e 89 48 96 ba 2b cc b4 bd c7 3d c1 3d
       0.14109808 -0.0011465709 -0.088280044 0.09435611
0002b0 ec 35 b1 bc 46 b3 65 3d 2c ab a6 3d 38 f7 c4 3d
       -0.021632157 0.05607917 0.08138117 0.09617466
0002c0 29 14 d6 bb 44 63 ad bd 01 4d b5 3c a4 9c 04 be
       -0.006533165 -0.08466199 0.022131445 -0.12950379
0002d0 8a 21 f7 bc dd 41 47 ba d2 4c 9c bd df fa bf 3d
       -0.03016736 -0.0007601062 -0.0763184 0.09374022
0002e0 48 bb af bc 4b d3 08 bd 7b 73 52 bd 41 18 f4 3d
       -0.021451607 -0.03340463 -0.051379662 0.119186886
0002f0 98 ab c8 bc 93 28 94 bd 7b 43 fe bd 15 ac 61 bd
       -0.024495885 -0.072343014 -0.12415215 -0.05509575
000300 b6 be 71 bd 94 c3 4d 3c d0 21 94 3d 47 d9 ca bd
       -0.059019767 0.0125588365 0.07233012 -0.099047236
000310 99 bb f8 bc f8 95 8b 3c 07 af 25 bd b9 41 c7 bc
       -0.030362891 0.017039284 -0.040450122 -0.024323331
000320 27 63 61 bd e8 6f a1 bd 9b 6c 9a 3d 23 5d b7 3d
       -0.0550262 -0.078826725 0.07540246 0.08953311
000330 02 06 09 bd 29 1c 7c 3d 22 9e e7 bc e8 07 d6 3d
       -0.033452995 0.061550293 -0.028273646 0.10450727
000340 49 5b 2c bd 17 9f 13 3c 5e c7 c2 3d 36 6a e3 bc
       -0.042079244 0.009010098 0.095106825 -0.027760606
000350 92 a1 03 3e 54 e5 62 bd dd a8 e4 bd fd d1 cc bd
       0.12854603 -0.055394486 -0.111650206 -0.100009896
000360 79 a9 dc 3c 39 98 82 3d ba 06 4e 3c dd fb f6 3d
       0.02693628 0.063766904 0.012574846 0.12059758
000370 cd b8 88 3c f3 41 88 bc d8 1e 82 3d a4 42 0b 3d
       0.016689682 -0.01663301 0.06353539 0.0339991
000380 73 3d 0a 3d 40 9c 8f bd 46 e5 5f bd b0 35 2d bc
       0.03375001 -0.07012224 -0.05466201 -0.010571882
000390 8c b3 ec bd b6 dd 33 bd ee 22 d3 3d 62 6e 48 3d
       -0.11557683 -0.043912612 0.10309397 0.048933394
0003a0 24 f4 05 bd 61 3d 91 bd 9f 57 7d 3d a8 d0 89 3d
       -0.032703534 -0.07091785 0.06185114 0.06729251
0003b0 74 68 bc 3d 11 2b cf 3d a5 69 30 3d 39 33 55 3d
       0.0919961 0.10115636 0.0430695 0.052050803
0003c0 cd 89 08 be 4e 16 01 be 4f a7 50 be 6f 75 34 be
       -0.13333817 -0.12606165 -0.20376323 -0.17622922
0003d0 90 15 d2 bd d6 0d 4d be a6 d6 eb bd db 80 47 be
       -0.10258019 -0.20024809 -0.1151555 -0.19482748
0003e0 6b 00 23 bc 98 df c5 bd bb 73 c2 3d 99 ec c8 bc
       -0.00994883 -0.09661788 0.0949473 -0.024526881
0003f0 5e 87 d3 3d 06 1d a0 39 7c 2f d4 3b 45 3c 19 3e
       0.103285536 0.00030539202 0.006475387 0.14964397

bias f4 [32]
000000 ec c3 d8 bd 7c 1a a0 be a5 02 32 be e0 ee c3 b8
       -0.10584244 -0.31270206 -0.17383821 -9.3428185e-05
000010 03 0b de bd b5 20 3e 3d b6 49 50 be 85 11 39 bd
       -0.10841944 0.04641791 -0.20340618 -0.045182724
000020 33 34 47 3e c0 87 59 3a a5 3c 45 3e 6c ad 36 be
       0.19453506 0.00082981214 0.19261415 -0.17839593
000030 73 23 1f 3e 8d 9b 39 3e 19 3a 51 be 9c 24 e7 3d
       0.15540867 0.18125744 -0.20432319 0.112862796
000040 63 cf 16 be 48 c8 8e be 27 33 4c 3e 35 5d 11 3d
       -0.14727549 -0.27887177 0.19941388 0.03548928
000050 51 20 53 bd d2 e9 14 be d0 60 27 3e cf 09 3d 3d
       -0.05154449 -0.1454232 0.16345525 0.046151932
000060 bf 07 62 3e b8 38 ac 3c 56 7c 17 be b5 37 34 3e
       0.22073267 0.02102314 -0.14793524 0.17599376
000070 6f 5d 4c be e3 42 9d 3c 1c 29 a2 bd 56 0f 17 be
       -0.19957517 0.019196933 -0.07917997 -0.14751944

weight f4 [32, 32, 5, 5]
000000 7d 3c 0c bd 95 0b 05 bd 33 39 9e bc 6f 5a f0 3c
       -0.034237374 -0.03248175 -0.019314384 0.029339997
000010 b6 2f 88 bc e0 08 ef bc 35 19 23 bd 46 3a 22 bd
       -0.016624313 -0.029179037 -0.03981896 -0.039606355
000020 2e 39 1a bc 11 6a 66 bc 7b 02 07 bd f9 a2 9b ba
       -0.009413047 -0.014063374 -0.03296135 -0.0011874131
000030 ce 80 e7 bc 9f 57 5b bb 6c be cd 3c f7 e3 51 3b
       -0.028259661 -0.0033468974 0.025115214 0.0032026747
000040 c5 87 43 bb 5d 47 22 bd 1f 3a 23 3d 76 8a 8c bc
       -0.0029835564 -0.03961884 0.03985035 -0.017155867
000050 cd 83 cd 3c 30 fe 58 3c fa 1e 68 bc be d1 67 bc
       0.025087262 0.013244197 -0.014167542 -0.0141491275
000060 b5 bd 4b 3c 7d d1 f6 bc 7d 6a be bb 1b 51 08 3d
       0.012435366 -0.030129189 -0.0058110342 0.033280473
000070 18 70 b8 3c ab 15 8a 3b 4f db 0c 3b 68 70 80 bc
       0.022514388 0.004214009 0.0021493023 -0.0156786
000080 c3 fd d4 bb 7a db 7d 3b 0e ec 2b bc c5 6c b8 3c
       -0.0064999773 0.0038735555 -0.010493292 0.022512803
000090 71 76 98 3c 7b 16 53 3d 53 f8 a9 3c 02 d9 2d 3b
       0.018611165 0.05153511 0.020748293 0.0026527052
0000a0 35 e9 d6 3c 2e c0 85 3d 04 73 87 3d 20 34 24 3d
       0.026234249 0.06530796 0.06613734 0.040088773
0000b0 43 a4 bd 3c 3f 69 a2 bb d7 12 1d 3d e0 17 86 ba
       0.023149615 -0.004956394 0.038348045 -0.0010230504
0000c0 d2 72 49 3d 93 42 4a 3d 3b 7e 53 3b 55 50 f2 bc
       0.049181767 0.049379896 0.0032271284 -0.02957932
0000d0 4e 80 f8 3c fe 60 fd 3c 57 f8 86 bc f7 d6 a6 3c
       0.030334618 0.030930039 -0.01647584 0.020366175
0000e0 ac 6e 0e bc 55 88 41 bc 6b f5 f5 3c 2b 62 89 bc
       -0.008693378 -0.011812289 0.030024251 -0.016770443
0000f0 2d 4c be 3c c6 15 d2 bc 67 61 bc 3c ae 0b 1a 3d
       0.023229683 -0.025645148 0.022995664 0.037608795
000100 24 d4 02 3d 99 be b1 bb 06 4a 87 ba a6 37 f9 3c
       0.031940594 -0.0054243323 -0.0010321743 0.030422043
000110 c5 a1 40 3c ba 27 b5 bc 35 2d 05 3d 78 15 0b 3d
       0.011757319 -0.02211367 0.032513816 0.03395602
000120 52 42 9b bc 8f 99 29 3d 46 ae b1 bb 17 d3 c8 3b
       -0.018952522 0.04140621 -0.0054223863 0.0061286795
000130 47 e3 db bc 81 7d 92 bc ad e0 af bc 0d 38 0a bc
       -0.026841773 -0.01788211 -0.021469438 -0.008436215
000140 97 1a 09 3c 1b 8d 3b bc 6a 7a 27 bb d2 5a f4 bc
       0.008368156 -0.011447216 -0.0025555142 -0.029828463
000150 7d e8 09 3c 5d a4 88 bc 03 48 b6 bc d8 81 78 bc
       0.008417246 -0.016679937 -0.022251135 -0.015167676
000160 5d f4 86 3c f0 4e f2 bc 24 37 c7 3c 9e fd 57 3c
       0.016473943 -0.029578656 0.024318285 0.013183026
000170 87 28 ab ba b6 cc 79 3a eb 47 ef bc 39 ae b4 3b
       -0.0013058343 0.00095291005 -0.029209098 0.005513933
000180 a9 97 9c bb 7f 9c 40 3c 0a f7 04 bd 00 9d 81 bc
       -0.0047788215 0.011756062 -0.032462157 -0.015821934
000190 e5 d7 ef 3c 95 cc 93 3c d9 e2 de bc dc 44 4a 3b
       0.029277751 0.018041888 -0.027207779 0.0030863797
0001a0 3c fb be bb 3e 38 63 bc 88 73 c8 3b c8 10 95 3b
       -0.0058282893 -0.01386839 0.006117288 0.0045491196
0001b0 5a 15 44 3c 6c 43 eb 3c db 9d df bc bf 9d 27 3d
       0.011967981 0.028718673 -0.027296951 0.040921923
0001c0 26 fa f3 bb d0 14 2f 3d db d4 04 bc d2 44 a5 ba
       -0.0074455915 0.042744458 -0.008107389 -0.0012609011
0001d0 cf c0 69 bb ac af 9f bc 90 a5 d9 bb 8e 43 af 3c
       -0.0035667901 -0.019492947 -0.006642051 0.021394517
0001e0 01 0f 0b 3d f8 6a 39 3a 54 a8 dd 3c 8d e2 18 3d
       0.033949856 0.00070731295 0.027057804 0.03732543
0001f0 79 64 6f bc 09 62 c6 3c d3 56 a9 bc 7c 71 48 bd
       -0.014611357 0.024216669 -0.020671284 -0.048936352
000200 d0 6e 32 3c 66 08 68 bc 5c 23 ae 3c 1a 28 ac bc
       0.010890678 -0.014162159 0.021257095 -0.021015216
000210 39 3f 28 bd d8 83 20 bd 1b 79 7b bc b3 73 36 3c
       -0.04107592 -0.039188236 -0.015348698 0.011135983
000220 f0 eb 96 bc 66 dd 12 bd 86 f5 c4 bc a1 8a d6 3c
       -0.01842305 -0.035855673 -0.024042856 0.02618915
000230 aa 3a 1b bd 42 f3 9c 3b a7 29 20 bd 2e 02 b4 3c
       -0.037897743 0.004789741 -0.039102223 0.021973696
000240 e5 c2 b7 3c 5b 4d 00 bd b3 07 55 bb 5f ec c5 bc
       0.0224318 -0.031323772 -0.003250581 -0.024160562
000250 37 3e 1a bd 4c cd b7 bc 75 b4 60 bc ac 76 29 bc
       -0.03765699 -0.02243676 -0.013714899 -0.010343235
000260 64 ec 04 bd 37 0c 01 bd c6 fa cd 3c f7 39 d3 3b
       -0.032452002 -0.03150579 0.025143992 0.006446119
000270 2f 1d c5 bc 33 8a fa bc be 53 fd 3c 1e f8 03 3c
       -0.024061767 -0.030583477 0.03092372 0.008054761
000280 0f 9b 16 3d 39 f1 b9 ba d1 26 e0 3c 54 ac b3 3c
       0.03676897 -0.001418627 0.02736226 0.021932758
000290 68 61 71 3c 2a 92 0f bc 7a 4d f7 3b 68 44 64 39
       0.014732696 -0.008762876 0.0075470777 0.00021769258
0002a0 11 ae f5 bb 40 dc 11 3d d9 61 86 bc da 53 87 bb
       -0.007497557 0.035610437 -0.01640408 -0.004129869
0002b0 6a 12 09 3d 5b 8c ab 3a 77 5a ee 3c cb 40 ae bc
       0.033464827 0.0013088094 0.029095871 -0.02127113
0002c0 0a e3 ae 3a 01 59 80 3c 9d 4b d3 3c 04 41 75 3c
       0.0013342809 0.01566744 0.025792891 0.014969114
0002d0 dd 8c 0b 3d 56 09 4c 3d c4 d3 5c bc 6a 39 a1 3c
       0.034069885 0.04981359 -0.013478223 0.019680697
0002e0 af 86 fb 3c 40 a3 57 bc 08 e6 23 3d c3 06 fd bb
       0.03070387 -0.01316148 0.040014297 -0.0077217533
0002f0 47 87 ba 3c d4 69 bd 3b 4b 7a 64 3b 90 f3 02 bd
       0.022769583 0.005780438 0.0034862931 -0.03197056
000300 84 5d 41 bb 9c d6 02 bd f9 1b 25 bd d1 ea 1b bd
       -0.0029505203 -0.03194295 -0.04030988 -0.038065735
000310 2a a2 0c bd da c6 87 bc ac 2d dc bc 10 c0 fb bc
       -0.03433434 -0.016574312 -0.026877247 -0.030731231
000320 f8 91 15 3d 63 bd 3d bc 4c b7 b4 bc 20 20 94 3c
       0.03651616 -0.011580798 -0.022060059 0.018081725
000330 dd 2a 0c 3b 3f da 35 3c 03 b8 a8 bb ce de 6a bc
       0.0021387853 0.011099397 -0.005148889 -0.014335347
000340 14 4b 70 3c 3c 6d fa bc b0 65 5a bd 28 53 eb b8
       0.0146663375 -0.030569665 -0.053319633 -0.00011221162
000350 1e b7 64 bd 30 99 84 bc ea 65 dd bb 8e af 3c bd
       -0.055838697 -0.016186327 -0.006756534 -0.04606586
000360 09 f9 4a bd 9e 36 5d bd 22 89 59 bd ca b0 4d bd
       -0.049553905 -0.054007165 -0.053109296 -0.050217427
000370 df ea ca bc 3c 2c 21 bd ed 86 ae 3c ec 97 ce bc
       -0.024770198 -0.039348826 0.021304572 -0.025218926
000380 57 be 9e bb 46 da 98 3c e5 1e 0f bd 81 23 b3 bc
       -0.0048444676 0.018658768 -0.034941573 -0.021867516
000390 63 63 56 bb ba 81 bf bc b2 0a e5 bb ac 77 24 bc
       -0.0032713048 -0.023377288 -0.0069898004 -0.010038298
0003a0 e9 8a 2b bb 8a 8a 78 bb 91 e7 f5 3c 98 24 69 bc
       -0.0026175326 -0.0037924373 0.030017646 -0.014229916
0003b0 24 a7 cf 3c 79 2f 85 bc 92 56 58 3c 00 28 91 bc
       0.025348254 -0.016257988 0.013204234 -0.017719269
0003c0 7e 08 7f 3c 93 a8 aa 3c 13 ce ca 3c 8e 1e a9 bc
       0.01556599 0.020832336 0.024756467 -0.020644452
0003d0 25 d1 3b bc 7d fa ad 3c e0 7d e4 bb 8d 23 18 bc
       -0.011463438 0.021237606 -0.0069730133 -0.00928582
0003e0 76 55 1c bd 4b 0f a2 bc c7 09 34 3b 70 c5 2c 3d
       -0.03816744 -0.019782683 0.0027471648 0.04218048
0003f0 bc 00 60 bc cb 3e 23 bb 9f b2 65 bb fa 18 cd 3c
       -0.01367205 -0.0024909254 -0.0035049093 0.025036324

bias f4 [32]
000000 a2 3a ee bd 59 0b eb bc 6f 1a a3 bd 4c 4a 18 3d
       -0.11632277 -0.028691934 -0.07964026 0.03718023
000010 a6 8e 5d bc 7c 3d 34 bd 7f 25 15 3c 28 98 86 bd
       -0.01352278 -0.04400395 0.009103178 -0.0657199
000020 f6 7f c7 3c d6 fd f6 bc d3 65 13 bd 23 0a 64 3d
       0.024353009 -0.030150335 -0.03598578 0.05567373
000030 b9 d5 58 3a 87 e0 7a 3c cc b5 1b 3d d7 5f 93 bd
       0.0008271593 0.015312321 0.038015172 -0.071960144
000040 fc 39 82 3d f3 78 65 bd 1b 71 d8 bc 52 9d 87 3d
       0.06358716 -0.05602355 -0.02642112 0.06621803
000050 80 e0 55 bd ec 0e e2 bd 63 18 13 bd 74 c2 43 3d
       -0.052216053 -0.11038002 -0.03591193 0.047792867
000060 b5 73 42 3d 1b 51 45 bd c8 13 a1 3c 8c 97 a8 bc
       0.047473628 -0.04817305 0.019662753 -0.020580076
000070 53 85 a6 bc 4e a1 b1 bd d2 38 16 3c 35 a7 7e 3c
       -0.020327246 -0.086733446 0.00916882 0.015542795

weight f4 [64, 32, 5, 5]
000000 3c 6d d3 bc a5 86 d5 bb 99 79 83 bb 18 4d 21 bc
       -0.025808923 -0.006516295 -0.0040122983 -0.009845041
000010 3a 21 73 3c 0b eb 6d bc 29 ad 97 bc ed 0a 26 3c
       0.014839465 -0.014521371 -0.018515186 0.010134441
000020 64 a1 a6 3c 34 48 23 3d cb 69 13 3d 4f 67 0b 3d
       0.020340629 0.03986378 0.035989564 0.03403407
000030 e0 fc 53 3d bd ed 72 3c b8 62 dc 3c 17 76 5e bc
       0.051754832 0.014827189 0.026902542 -0.0135779595
000040 c1 d0 6b bb 18 2d 2b 3c ec 76 a6 bb c3 53 c3 3c
       -0.0035982581 0.010447763 -0.0050800946 0.023843652
000050 32 1f db ba 39 ac 9a 3c 60 18 4b 3b a5 c5 11 3d
       -0.0016717671 0.01888095 0.003098987 0.03558888
000060 08 51 84 ba d5 97 95 3c a7 76 76 3c 23 43 fe bc
       -0.001009495 0.018260876 0.015042937 -0.031037873
000070 66 58 de 3a b8 c5 b8 bc 21 44 64 bc 9c 86 f8 bc
       0.0016963601 -0.022555217 -0.013932259 -0.030337624
000080 15 5c 7e bb 94 ef 31 39 10 21 a4 bc 35 5e 07 3d
       -0.003881221 0.00016969285 -0.020035297 0.033048827
000090 8b 1a 7a 3d d7 3d 53 3d 58 d1 0b bb 0e a3 35 3d
       0.06106047 0.051572647 -0.0021334495 0.044344954
0000a0 1d 40 ba 3c 5d e7 a2 bb 93 0e 59 3d b4 3f 50 3d
       0.02273565 -0.0049714283 0.052992415 0.050842002
0000b0 4a 75 3e 3d cc 81 84 38 aa 44 33 bd b6 10 85 bc
       0.046498574 6.318427e-05 -0.043766655 -0.01624332
0000c0 a3 18 c4 3b 5a d8 55 3c d3 f7 86 3a 91 de 84 bc
       0.0059843822 0.0130520705 0.0010297246 -0.01621941
0000d0 55 3f 9e 3b ec e9 bc 3b 61 d4 6d 3c 46 63 08 3d
       0.004829327 0.0057651903 0.014515967 0.0332978
0000e0 79 36 b2 bb 59 22 e6 3c 10 33 cc 3b 14 ed 11 bd
       -0.0054386226 0.02809255 0.006231673 -0.035626486
0000f0 1d 97 eb bc e7 8a ca 3c ab ba c1 3b c1 e1 8a 3c
       -0.02875858 0.024724437 0.005912145 0.016953351
000100 e3 cd a7 bc 86 63 1d 3d 4f ae 3a 3c 07 7a 0f 3d
       -0.020483917 0.03842499 0.0113940975 0.035028484
000110 13 41 65 bc 89 19 08 3d 6b 44 dc 3c c8 4a a2 3c
       -0.013992566 0.033227477 0.026888093 0.01981105
000120 26 0b d8 3c ae ff 9e ba ae 16 de bb f9 2f fb 3c
       0.026372503 -0.0012130642 -0.006777606 0.030662524
000130 a3 1b 82 3a d5 69 ba bc e5 9d 3d 3c 77 f6 20 3c
       0.0009926449 -0.022755543 0.0115732895 0.009824387
000140 62 8c 07 bb ff c7 c6 3b f0 bf cd bc 6c 57 43 3c
       -0.002068304 0.006066322 -0.025115937 0.0119226985
000150 27 71 26 bd c3 b6 2b 3d 3b 29 41 3d 1d 8d 4e 3d
       -0.040635254 0.041922342 0.04715846 0.050427545
000160 1d 92 d2 3c 71 43 50 3c 17 9a 82 3c fb b2 26 38
       0.025704438 0.012711392 0.015942616 3.9744173e-05
000170 7e 5b 26 3d 9e 3b cc bb 24 db ca 39 3e 29 f9 ba
       0.040614597 -0.006232693 0.00038691715 -0.0019009484
000180 7d 97 b6 3c 7a fa 8c bc 06 f3 5c bc 5a f7 06 3c
       0.022289032 -0.01720928 -0.013485676 0.008237684
000190 51 a9 4c bc f4 eb f9 3b 40 ed 9d 3b 8b 4b 1a 3b
       -0.01249154 0.0076270048 0.004819542 0.0023543562
0001a0 f2 28 23 3c e3 6a 65 bc 01 3a 0c 3c e1 45 75 bc
       0.009958493 -0.014002535 0.008558751 -0.014970274
0001b0 69 b7 eb 3c 00 5a b5 3c 14 cd 7f 3b a3 69 c7 3c
       0.02877398 0.022137642 0.0039032148 0.024342364
0001c0 c0 cd 6d bb f6 8d c9 3b c7 84 5f bc 79 56 10 3c
       -0.0036285967 0.0061509563 -0.013642496 0.008809679
0001d0 57 ac 82 bc 8f eb 30 3c bf 9b bb bc c9 d2 12 3d
       -0.015951319 0.010798349 -0.022901414 0.03584555
0001e0 86 28 4d 3c 53 3b 7b ba 19 a2 f1 bc 88 78 ff bc
       0.012521869 -0.000958373 -0.02949624 -0.031185403
0001f0 11 f7 91 bc 2a ef ff 3c 3a 20 88 bb 8b d3 ca bc
       -0.017818006 0.031241972 -0.0041542323 -0.024759075
000200 58 04 71 ba 75 81 b4 bc 06 ce bf bb 92 1b 51 bc
       -0.00091940677 -0.022034386 -0.0058534173 -0.012762921
000210 5b 35 73 3c 82 cb 78 bc 17 4a 15 bc 3b 03 53 3d
       0.014844264 -0.015185239 -0.009111903 0.051516753
000220 9f ba 12 3d 25 84 2c 3d 42 86 4e 3c 30 ae c2 3c
       0.035822507 0.04211821 0.012605252 0.0237647
000230 ef 12 70 3c 3c 55 02 3d b6 a1 b5 3c bb 18 1b 3d
       0.014652952 0.031819567 0.022171836 0.03786538
000240 c3 16 99 bc 02 5f 9f 3c 3d 90 eb bc 79 a7 1e bb
       -0.018687611 0.019454483 -0.028755302 -0.0024208708
000250 40 43 aa 3b ee 96 b9 bc be 42 01 3d 56 79 b9 3a
       0.005196005 -0.022654977 0.03155779 0.0014150541
000260 05 07 51 bc 43 2f 4c bc 95 72 0b bb d4 dd 38 bb
       -0.012758021 -0.01246244 -0.0021278013 -0.0028208392
000270 ad da b9 3c 57 1a 84 3c 31 29 e1 3c ee bd 4f ba
       0.02268728 0.016125841 0.027485462 -0.0007924725
000280 93 14 38 bc 1e 76 0e 3c ed 8c 33 3d bc 51 29 3d
       -0.011235374 0.0086951535 0.04383557 0.041337714
000290 5f 77 00 3d 20 42 35 3c ae b5 35 bb 2a c2 d2 bc
       0.03136384 0.011063129 -0.0027726698 -0.02572735
0002a0 48 74 df bc 63 88 e9 bc a0 fc e4 bc ff f7 d6 bc
       -0.027277127 -0.028507417 -0.027952492 -0.0262413
0002b0 e4 53 9b bc 89 b4 b9 3c 41 f5 cb 3c 40 b4 ed 3b
       -0.0189609 0.022669094 0.02489722 0.0072541535
0002c0 ac a9 91 3b 1a 0a 8e 3c 66 63 fa bc 44 ad fb bc
       0.0044452753 0.017338801 -0.030564975 -0.030722268
0002d0 eb a0 db 3c 3b 10 d8 bc b0 f6 86 bc bb 9f c4 bb
       0.02681013 -0.026374927 -0.016475052 -0.0060004867
0002e0 ec 4f b0 bc 73 f2 c3 3c 95 4f d9 3c 08 6c f5 bb
       -0.021522485 0.02391932 0.026527205 -0.007489685
0002f0 f2 50 d5 3c 6a 6e 6d bc 8b 62 ab bc cc 55 35 3c
       0.026039574 -0.014491657 -0.020921012 0.011067819
000300 86 e4 ca 3c 16 31 7c bb c8 d0 49 bc 5f f7 ad bc
       0.024767172 -0.0038481406 -0.012317844 -0.02123612
000310 74 7d 9b 3c 90 fc cd 3b dd 76 5f 3c 86 fa 59 bc
       0.01898072 0.0062862113 0.013639179 -0.013304358
000320 0f 6a 77 3c 78 11 c9 3c 29 77 17 3d c6 25 9c 3c
       0.01510097 0.024544463 0.036978874 0.01906098
000330 7b 2b 11 bb 73 be a5 3a 3d dd df bb 54 84 bf bb
       -0.002215116 0.0012645259 -0.0068317936 -0.005844632
000340 7f 2a 86 3c 47 33 29 bb cd a2 98 3c f7 6d 90 39
       0.016377686 -0.0025817917 0.018632317 0.0002754775
000350 c4 91 f3 3c 81 fd ce bc 46 f5 04 3d 29 c1 55 3c
       0.029732592 -0.025267364 0.032460473 0.013046541
000360 18 79 d8 3c 46 e6 30 3c 6a a2 1c 3c aa d7 04 bd
       0.02642493 0.010797089 0.009560207 -0.032432236
000370 8f ba a7 bc da ac 16 3d 32 9f 15 bd f2 39 0e bd
       -0.0204747 0.036785938 -0.036528774 -0.03472323
000380 38 c8 2a bd f8 7d cc 3c e5 91 a2 3c d2 8b b3 bc
       -0.04169485 0.02496241 0.019844959 -0.021917257
000390 56 21 4c 3c 21 a5 eb 3c 93 1f 97 3c 3c 24 e0 ba
       0.01245912 0.028765263 0.018447673 -0.0017100642
0003a0 32 42 88 3c 6e e4 ec bc 6d 09 89 3b 7a 19 d3 bc
       0.016633127 -0.028917518 0.004182032 -0.025768984
0003b0 c0 8e 8a b7 b1 16 d4 bb d2 ac ee 3c ac 45 ae 3c
       -1.6517355e-05 -0.0064724316 0.029135142 0.021273457
0003c0 3e 34 19 3d 2e a1 e8 ba c9 ce a8 3c 03 8a c7 bc
       0.037403338 -0.0017748231 0.020606415 -0.024357801
0003d0 62 ab 38 3d 44 81 2f 3d 23 11 18 3d 71 00 5a bb
       0.04508532 0.042847887 0.037125718 -0.0033264423
0003e0 b9 ff 6b bc f1 8b bc bc b8 56 fa 3c 28 60 f9 bb
       -0.014404231 -0.023015948 0.030558929 -0.0076103397
0003f0 cd d6 91 3c 7d 78 3a bb b4 da aa 3c 93 dd 01 bd
       0.01780262 -0.0028453164 0.020856239 -0.03170545

bias f4 [64]
000000 37 e5 4c bd 3f 6c 07 3d ca 18 91 3b b1 3e cc 3c
       -0.050023284 0.033062216 0.004428004 0.024932237
000010 ce f1 2c 3c c8 5e 36 bc 63 57 6c 3c 29 5a 92 bc
       0.010555698 -0.011130996 0.0144251315 -0.017865257
000020 37 98 df bc e8 c8 27 bc be d1 6a 39 5e 35 76 3b
       -0.027294261 -0.010240771 0.00022394114 0.003756843
000030 7d 59 ab bd a2 c4 df 3b 01 a1 b5 3b 18 d8 07 bb
       -0.08366678 0.0068288604 0.005542875 -0.0020728167
000040 d3 95 0e bc f7 25 40 bd 18 17 42 bd ab 1f fd bc
       -0.008702713 -0.046911206 -0.047385305 -0.03089889
000050 ea b7 d8 bc 9a 61 ab bc 53 da 5c bd 85 5e 9d bc
       -0.026454885 -0.020920563 -0.053919148 -0.01921011
000060 e5 05 68 bc 26 b4 14 bd 08 e4 b3 bc 2f b8 9b bc
       -0.014161562 -0.036304615 -0.02195932 -0.019008724
000070 6a 8e 5b 3c 3c 4d 06 bd 19 d9 87 bb eb 1a 2e b9
       0.013400653 -0.0327885 -0.004145753 -0.00016603961
000080 6c 3d 8a 39 81 38 47 bc 27 d7 10 bd 2f bb 92 bd
       0.00026367174 -0.012159468 -0.035361435 -0.07164609
000090 6e 93 8a 3c d9 a2 21 3d b4 de 00 bd 86 53 dc bc
       0.016916003 0.039461944 -0.031462386 -0.026895296
0000a0 db 66 c8 3c ee 81 1a 3c b2 6a 4e bd 1f d8 64 bb
       0.024463108 0.009430392 -0.05039472 -0.0034918857
0000b0 4c 1e 83 bc 96 2b 1f bd e4 fe af bd af 7b 85 bc
       -0.016005658 -0.038859926 -0.085935384 -0.016294328
0000c0 26 e7 17 bc 2f c8 6f 3c 16 56 3e bd 9d b2 83 3c
       -0.009271419 0.01463513 -0.046468817 0.01607638
0000d0 72 19 86 3c f3 fd 05 bd 58 ae 09 bd 21 c7 48 bc
       0.016369555 -0.032712888 -0.033613533 -0.012254507
0000e0 d6 91 6b bc ad 69 1d 3d 6a a0 f5 bb 49 89 88 3c
       -0.014378032 0.03843086 -0.0074959295 0.016667025
0000f0 57 d2 e6 bc 67 2e ec bc 00 23 bf 3c b6 0a d8 3b
       -0.02817647 -0.02883072 0.023332119 0.0065930737

weight f4 [64, 1024]
000000 b0 7c c1 bc 00 b0 b4 bb aa ce c4 3c 83 1a d8 bb
       -0.023619026 -0.005514145 0.024024326 -0.0065949573
000010 ca 60 85 bc cc a3 07 bc 31 c8 10 bc 84 4b 10 3d
       -0.016281504 -0.008278798 -0.008836792 0.035228267
000020 17 d6 16 3c 23 39 b8 bc f6 0f 1e 3c b1 68 df 3c
       0.009206316 -0.022488182 0.00964736 0.0272716
000030 72 0f 1b 3c c4 7a cb 3c ad b2 01 3c 73 16 15 bd
       0.009464132 0.024838813 0.007916135 -0.036398362
000040 d8 1e be 3b 77 bc 95 bc 2e ce b9 bc 99 ef e1 bc
       0.0058020167 -0.018278344 -0.022681322 -0.02758007
000050 9b e2 c5 bb e7 59 8c 3b 5a e1 e5 bc 54 22 3a bc
       -0.0060389764 0.004283178 -0.028061558 -0.0113607235
000060 3f 05 3f 3c ee a6 7e 3c 56 6b 86 3c 34 81 13 bc
       0.011658966 0.015542729 0.016408604 -0.009002972
000070 4e f6 6f bc 44 6a 39 3d aa d0 a2 3c 04 54 09 bd
       -0.014646126 0.04526736 0.01987489 -0.03352739
000080 2e 7b 8f 3c c7 85 b4 3c c7 25 19 bb ee ea b5 bc
       0.017514791 0.022036446 -0.0023368464 -0.02220675
000090 4b 29 7b bc e2 c6 ce bc c7 f9 84 bc ea e2 d5 bc
       -0.015329669 -0.02524132 -0.016232384 -0.026109178
0000a0 0d 29 08 bc cb 2e 6a 3c c5 b7 fb 3a 74 5b 89 bc
       -0.0083105685 0.014293383 0.0019204548 -0.016767241
0000b0 8e 97 20 bc 56 bc 8d bb ad 9e 3d bc de b4 90 3b
       -0.009801758 -0.00432543 -0.011573476 0.0044160923
0000c0 41 13 ba 3c 94 d0 1a 3c 89 e9 df bc 08 08 5a 3a
       0.02271426 0.009449143 -0.027333038 0.0008317237
0000d0 2a 60 c2 ba a1 1b f9 3c ff 8c de bb f3 2c e3 3c
       -0.0014829685 0.030408682 -0.0067917104 0.027731394
0000e0 d8 e6 4c 3b f6 1a 22 3c 13 53 6c bc e3 d5 d1 bc
       0.0031265523 0.009894123 -0.014424103 -0.025614684
0000f0 b9 c3 a4 bc b9 7f 5c 3c 46 1b db 3b 0a 5d 33 bc
       -0.02011286 0.013458186 0.006686601 -0.010947475
000100 05 84 89 3c 04 d2 d3 3c 9b c4 a0 bc 0d 51 81 bc
       0.016786585 0.02585698 -0.019624999 -0.015785718
000110 70 72 ea bc fd d6 69 bc b5 43 54 3c 9d d8 10 bb
       -0.028619021 -0.014272449 0.012955596 -0.0022101768
000120 36 cf 24 bd b6 9f c5 bc 9c 6f b3 bc b0 aa be b8
       -0.040236674 -0.024124008 -0.021903805 -9.091699e-05
000130 10 dc fb bb bc d6 c7 3b ea 41 95 3c a4 1a 73 bb
       -0.0076861456 0.0060985964 0.018219907 -0.0037094736
000140 99 7e e4 bb 59 a4 1d 3a 46 a6 37 bc 31 2b 16 bd
       -0.0069730994 0.00060135644 -0.011209076 -0.036662284
000150 82 89 26 3d 28 0b 00 bd 5a a2 c5 bb da 60 90 ba
       0.04065848 -0.03126064 -0.0060313167 -0.0011015192
000160 8f 64 be b9 a5 20 f2 bc 99 ef 1e bd b9 cc 10 3d
       -0.00036314546 -0.029556582 -0.038802717 0.03535149
000170 b6 69 b4 39 59 22 b1 bb 5e b1 e1 3a 05 81 c5 bc
       0.00034411036 -0.005405706 0.0017218997 -0.024109373
000180 2e 3e 57 bc ec 2e 8f 3c fb 14 36 3a a6 e8 94 bc
       -0.013137383 0.017478429 0.00069458754 -0.018177342
000190 fb ae 8b bc 21 0f 13 3d 58 16 8c 3c 30 9c 6c 3b
       -0.01705121 0.0359031 0.017100498 0.0036103837
0001a0 74 91 77 bc da f5 03 3d 29 c8 2e b9 2f e2 50 bc
       -0.015110362 0.032216884 -0.00016668499 -0.012749239
0001b0 28 c5 f2 3a 69 9c 34 bd 6a d1 f7 bc fc 0a 1a 3d
       0.0018521892 -0.044094477 -0.030251224 0.03760813
0001c0 77 e8 7b bc 76 ca 5a 3c 09 b5 d4 3c 30 e6 b1 3c
       -0.015375248 0.0133539345 0.02596523 0.021716207
0001d0 47 f9 d8 3c cb 3e f1 3c 2a b3 d2 bb 2f a0 ad 3c
       0.026486052 0.029448887 -0.0064300494 0.021194546
0001e0 6e 1e b8 3c 0c 74 12 3d c4 81 4f 3c 5d 08 23 bc
       0.022475448 0.035755202 0.012665216 -0.009950724
0001f0 b8 9c e6 bb b1 30 e7 3b 32 1d bf 3c 10 69 d8 bc
       -0.0070377253 0.007055365 0.023329351 -0.026417285
000200 3c e9 11 bc 43 c3 37 bc c6 47 2e 3c 11 3d a4 3c
       -0.008905705 -0.011215988 0.010637229 0.02004865
000210 90 17 4f 3c c3 13 7f 3c 96 c9 b9 3c 5b 5e be 3b
       0.012639895 0.015568676 0.022679131 0.005809588
000220 07 62 84 bb ab c4 a3 bc dd c0 f0 bc 5f 8b 77 ba
       -0.004040006 -0.01999124 -0.02938884 -0.000944307
000230 c5 c2 8f 3c 1f 58 fc 3b e4 85 87 bc 25 75 c0 bc
       0.017548928 0.0077009345 -0.016543336 -0.023493359
000240 78 c8 90 bc 96 05 cb bc 04 de 8b bb 4f 76 6f bc
       -0.017673716 -0.024782937 -0.0042684097 -0.014615609
000250 82 5c 54 3c f3 b1 f7 ba a7 47 62 bc 92 40 ea 3c
       0.012961509 -0.0018897637 -0.013811029 0.028595243
000260 1a b7 34 3c 5f 82 8f bc 3a d9 d0 3c 72 43 b4 bc
       0.011029983 -0.01751822 0.025494207 -0.022004817
000270 0c 9e 87 3c da 11 40 bd e1 c3 9f 3b 9c 58 0d bd
       0.016554855 -0.046892025 0.0048756455 -0.034508333
000280 89 de e5 bc fe 9d 03 bb bf 47 8c bc 9b 25 9c bb
       -0.028060215 -0.0020083184 -0.017124055 -0.004765225
000290 8f 8a d6 3b 51 1e aa bc b8 f9 8a bc 09 87 15 bb
       0.006547279 -0.02076641 -0.016964778 -0.0022816083
0002a0 35 7b fb 3b 06 f3 e1 bb aa 6d 5c 3b 4e 96 90 bb
       0.0076745995 -0.0068954257 0.00336347 -0.004412449
0002b0 17 2b 11 3d 17 39 e4 3c f8 c0 bf 3c c7 ba dc bc
       0.035441484 0.027859254 0.023407444 -0.026944531
0002c0 2a 7a d3 bc 00 e6 95 bc d0 53 c9 bc e8 c1 d2 3b
       -0.025815088 -0.01829815 -0.024576098 0.006431807
0002d0 74 f8 e5 bc 37 42 da 3c 25 cf 4f 3b 30 df 34 bd
       -0.028072573 0.026642902 0.003170916 -0.04415816
0002e0 22 35 ea 39 66 59 57 3c 8a a0 03 3c 71 31 27 3d
       0.00044671545 0.013143873 0.008033881 0.040818635
0002f0 4b f2 d8 bb b6 97 16 bb cb 80 da 3c 72 57 58 3b
       -0.0066206804 -0.002297861 0.026672741 0.0033011106
000300 ea 73 aa 3b f6 0a 1b bc 7f 15 cb 3c 43 1b 05 3c
       0.0052018063 -0.0094630625 0.024790524 0.0081241755
000310 87 bf b5 bc 92 06 be 3c c1 1e 3b 3c cc fa 45 3c
       -0.022186054 0.023196492 0.0114209065 0.01208372
000320 8e 78 c6 bc e8 dd b4 3a 8c 2e 06 bc 7d 35 b7 3c
       -0.024227407 0.0013799043 -0.008189809 0.022364372
000330 ad 62 c9 3c ee 18 1d bc 54 7a 81 3c 77 ab c5 bc
       0.024583185 -0.009588463 0.0158054 -0.024129612
000340 9d 6a bb bc 63 1a c3 bc 5a 7c a0 bc cb ed ef bc
       -0.022877986 -0.023816293 -0.019590545 -0.029288193
000350 56 5e 3d 3c 72 23 f6 bc b7 e5 a6 bc 60 cf 0d bd
       0.011558136 -0.030046199 -0.020373208 -0.034621596
000360 9d 48 ac 3b 2f 47 63 bc f4 cd 00 3d 57 26 2f 3c
       0.0052576796 -0.013871952 0.031446412 0.010690293
000370 71 17 50 3c 6a 6a da 3b 8e cc e7 bb cf a8 87 bb
       0.012700901 0.0066655176 -0.0070739454 -0.0041399966
000380 1f d8 cf 3c 0c 71 b5 bc a7 c3 0a 3d 8d e1 b8 bb
       0.02537161 -0.022148632 0.033877995 -0.005642122
000390 32 18 a7 3a bb 9c 8e 3c e8 9b 2f bb c9 8f 6d 3c
       0.00127483 0.01740872 -0.0026795808 0.014499613
0003a0 a8 aa a1 bc a3 12 2d 3c 96 5c 89 3c 6e db 00 3c
       -0.019734696 0.010563525 0.016767781 0.007864816
0003b0 07 a6 91 3c 34 5a 5d 39 1d f7 f3 3c 60 40 85 3c
       0.017779363 0.00021109806 0.029780919 0.016266048
0003c0 88 39 44 3c bd 37 c3 b9 5c 2e a2 3c 11 09 d0 3c
       0.011976607 -0.00037234827 0.019797496 0.025394948
0003d0 dd 58 2b 3c 7b 0b 9d bc 6a 5c c7 bc ad 85 ca bc
       0.010458198 -0.019170513 -0.024336059 -0.024721945
0003e0 33 7f 25 3c 1c 4b 77 bc a1 a5 b7 bc 2e 7c 49 3c
       0.010101127 -0.015093591 -0.022417845 0.012297673
0003f0 ae 53 80 bc cc a3 32 3d e6 d5 92 3c cd e0 14 bc
       -0.015664902 0.04361324 0.01792426 -0.0090868

bias f4 [64]
000000 2a ea 95 3c f2 57 63 bc 6f 0f 2f 3d 31 09 0f bd
       0.018300135 -0.013875948 0.042739328 -0.034920875
000010 5a f4 4f bc 4e 5f aa 3c 44 fc 7b 3c 31 1d c5 bc
       -0.012692535 0.020797398 0.015379969 -0.024061771
000020 f5 82 0f bc a2 ae 97 bc f9 12 c2 3c 9b 03 c7 3b
       -0.00875925 -0.018515889 0.023690687 0.006073428
000030 22 21 3c 3d bc fb eb 3c 61 c7 88 bb 15 82 44 bd
       0.045930035 0.02880656 -0.0041741584 -0.04797562
000040 7a 5a 81 bc 0b 29 d1 ba 98 c6 fd bc 20 e4 1e 3d
       -0.015790213 -0.0015957666 -0.030978486 0.038791776
000050 1f 5d 83 ba 96 f7 20 bd f0 49 f4 3b b5 4b 5c bc
       -0.0010022259 -0.039298616 0.007455103 -0.013445784
000060 8c 84 c6 bc 48 98 a4 3c f3 68 8a 3c 5e f4 4f 3d
       -0.024233125 0.020092145 0.016895747 0.050770156
000070 71 10 be bc 81 00 7b bc a8 f5 51 bb f0 fc 3e bd
       -0.0232012 -0.015319944 -0.0032037292 -0.04662794
000080 91 61 3e bd b9 0f 2b 3c b5 bc 8b bc 04 17 c7 3c
       -0.046479765 0.01044076 -0.017057756 0.024302967
000090 28 e7 87 3d ff 07 ec bc 39 9f 14 3c 9d b9 51 3c
       0.066358864 -0.028812407 0.009071165 0.012800601
0000a0 47 ec 81 3c 2d 40 94 3c ea a4 d8 bc 6e bc 54 bc
       0.015859736 0.018097008 -0.026445825 -0.012984378
0000b0 89 d7 ac 3c b1 60 53 bc 4e b5 a0 bc 01 96 b4 bc
       0.021098869 -0.012901471 -0.019617703 -0.022044184
0000c0 e1 62 d9 bb 00 8c 9c bc 1f 9c 7a 3c 55 60 2a bd
       -0.0066341017 -0.019109726 0.015296011 -0.041595776
0000d0 1e 6c fc 3c 98 85 b3 3b ff a9 0b bd 14 44 00 bd
       0.030813273 0.005478572 -0.034097668 -0.031314924
0000e0 03 42 ea bc b4 e7 84 bc ea 64 d0 3c 6b ad 2b 3d
       -0.02859593 -0.016223766 0.025438745 0.04191343
0000f0 e8 b7 8e bc 25 26 50 3c 27 65 09 3d 8d c0 28 bd
       -0.017421678 0.012704407 0.033543732 -0.041199256

weight f4 [10, 64]
000000 5f 26 10 bd ab 44 df bd 1c a0 34 3c 17 44 0d 3e
       -0.035192844 -0.10901769 0.011024501 0.13795505
000010 23 4a 98 3c 2f 31 09 3e 09 f6 fa 3d 9e 37 a0 bc
       0.018590039 0.13397668 0.12253959 -0.01955777
000020 6d 60 b5 3d 86 d5 f7 3d f1 52 2a 3e 48 e5 4d be
       0.088562824 0.12101273 0.16633202 -0.20106995
000030 68 d2 14 be 5e 37 26 be fa 05 f0 3d a1 38 a5 3d
       -0.14533389 -0.16232058 0.1171989 0.08067442
000040 4b 21 a2 bd 0b 63 1a 3e 00 20 b0 3b cd 57 6a be
       -0.079165064 0.15076844 0.0053749084 -0.22885056
000050 cd bb 3c 3e 4c da 40 bc e2 c4 19 be 1f fd 10 be
       0.18431015 -0.011770796 -0.15016511 -0.14159058
000060 69 2d b9 bd 28 36 99 bd ed 1b b3 bd df 6f 0e be
       -0.090418644 -0.074810326 -0.08745561 -0.13909863
000070 0c 1d e4 bd a2 fb 2b bd 60 33 98 3d c7 a7 e9 bd
       -0.11138353 -0.041988023 0.07431674 -0.11408954
000080 aa af 0c 3e 5e fc 79 3d 37 30 f1 3d 23 79 f3 bd
       0.13738886 0.06103169 0.117767744 -0.11888339
000090 58 7a 0f be 69 39 4c 3e 93 f9 8d bd fd 20 56 3e
       -0.14011514 0.19943775 -0.06932368 0.20911022
0000a0 d9 6a fc 3c a4 e4 7e bd 3c 8a ca bd 74 b5 33 3e
       0.030812668 -0.062229767 -0.09889647 0.17549688
0000b0 f2 7c 33 be 9d cc ea 3d a8 1f 9b 3c 5e 9c 2d 3c
       -0.17528132 0.11464808 0.018935993 0.010596363
0000c0 7d f6 9f 3d be ec 3b bd 95 ad 0f be 44 8b 3d 3e
       0.07810686 -0.04588007 -0.1403106 0.18510157
0000d0 11 f9 1f 3d 1f b5 1c be 63 fd 0b 3d 0e 96 92 3d
       0.039055888 -0.15303467 0.034177195 0.07157527
0000e0 19 03 2c bd b1 72 9b 3d 03 de e3 bd a0 38 d7 bd
       -0.04199514 0.07590235 -0.1112633 -0.10508847
0000f0 2a 01 d8 3d 8d 04 f5 3d 9a 4e 85 bc d8 5b 9f 3b
       0.10547097 0.119637586 -0.016272832 0.0048632436
000100 e9 c5 7b be 7e 48 ae bd 13 10 42 3d 7c 31 b0 3c
       -0.24587215 -0.085099205 0.04737861 0.021507971
000110 21 97 5a be 65 89 82 3d 30 23 1d 3e f5 5a 2e 3e
       -0.21346714 0.06373862 0.15345454 0.17026885
000120 63 4a 20 3d 09 4f fa bd ea b6 e8 bd d9 aa f7 ba
       0.03913344 -0.12222106 -0.11363013 -0.0018895521
000130 fb 2c 0b be 2c af c5 bd d4 f7 0a 3e 88 2f 53 3e
       -0.13591377 -0.09652552 0.13571101 0.206236
000140 ea 48 c4 bd 57 7a 22 3e d4 7d 9e 39 fd dc 96 3e
       -0.0958422 0.15866981 0.00030229858 0.29465476
000150 ff bf a3 3d 12 73 07 3e fb 42 ff 3d cc 09 f5 bd
       0.07995605 0.1322749 0.124639474 -0.11964759
000160 98 fa 32 3e d7 0e de bc c6 7b 75 be 70 f5 a9 be
       0.17478406 -0.027106686 -0.23972997 -0.33195066
000170 4d ec a8 bc be 4b 67 3e f0 e5 02 be 00 96 d1 3d
       -0.02062049 0.22587487 -0.12783027 0.10233688
000180 c3 76 1c be 50 85 d0 3d 0f 1a d0 bd 8c 23 8b 3e
       -0.15279679 0.10181677 -0.1016122 0.27175558
000190 98 9a 8a 3e 57 fe 33 3c c4 13 ff 3d bb 4d 9b bc
       0.2707107 0.010985932 0.12454942 -0.018957963
0001a0 b0 bc 3e be d1 c6 8b 3b a3 98 1f be 8e eb bc 3c
       -0.18626666 0.004265644 -0.1558557 0.02306154
0001b0 89 78 fe 3d 51 ad 32 3d 5b 46 db bc 04 b3 a2 bd
       0.12425334 0.04362232 -0.026766947 -0.07944301
0001c0 02 39 85 3e 5f 4f db bd aa 2b 1b be 49 3a b0 3d
       0.26020056 -0.10708498 -0.15153375 0.08604867
0001d0 0a 2b 6b bc ec ef 7f bc c1 69 07 3e 17 10 4c 3e
       -0.014353523 -0.015621167 0.13223936 0.19928013
0001e0 14 8a d4 bd f0 27 0b 3e c8 23 56 3e a4 b6 d9 bc
       -0.10377899 0.13589454 0.20912087 -0.026576348
0001f0 a8 d1 2b b9 b9 f1 1b 3d 54 ed 74 3d 19 8d d4 bd
       -0.00016385934 0.03807232 0.059796646 -0.10378475
000200 45 14 b4 3d 0a d3 16 3e ba 59 35 be 44 2c 8f bd
       0.087929286 0.14728943 -0.17710009 -0.06990865
000210 b8 72 fe bd 4b 0c 9a bd f7 a1 df bd f8 c9 77 3d
       -0.124242246 -0.07521876 -0.10919564 0.060495347
000220 d5 c2 29 3e 4a 10 ae 3d 8a ba 30 3e 20 77 92 3d
       0.16578229 0.08499201 0.17258659 0.071516275
000230 e3 32 fb bd 18 ff 10 be 82 bf 7f bd b6 42 df bc
       -0.12265565 -0.1415981 -0.062438495 -0.02725349
000240 68 0d 13 be 33 8b 20 be 04 8c f6 bd fb af e7 bd
       -0.14360583 -0.156781 -0.120384246 -0.113128625
000250 ef 75 9d bb e3 a8 a4 3d 90 49 e0 bd 75 e1 0c 3e
       -0.0048053185 0.08040025 -0.10951531 0.1375788
000260 35 65 f7 3d e6 ae df bb 60 9e 8a 3c d9 27 c1 3b
       0.120798506 -0.0068262694 0.016921222 0.005894643
000270 8a a3 95 bc 44 5f a7 bc 6b 3f 3b 3e 70 14 56 bd
       -0.018266458 -0.020431168 0.18285911 -0.052265584
000280 ce 86 13 3e 1d 23 36 bd 54 3b 33 3e 19 d1 a1 bd
       0.14406893 -0.04446708 0.175031 -0.0790121
000290 ac 77 6d 3d 87 2b 33 bb 5c f0 3a be 11 ca b8 3d
       0.057975456 -0.0027339177 -0.18255752 0.09022916
0002a0 03 73 13 bb 9d ff a5 bd ea 0c ba 3d fe 02 3d be
       -0.0022498972 -0.08105395 0.090844944 -0.18458173
0002b0 d6 60 82 3c 7c 68 be 3c 95 82 c7 bd d2 0c a6 bd
       0.015915316 0.023243181 -0.097417034 -0.08107914
0002c0 1f 4a ae bc 90 dc 04 be ca ef 1d 3a 6f f1 f9 3d
       -0.021275578 -0.12974763 0.0006024806 0.12204253
0002d0 45 7d 24 3c 99 f2 88 3d 36 f5 99 bd 8e 6a 7c be
       0.010039632 0.06686897 -0.075174734 -0.24650022
0002e0 d0 89 9d 3b 6e 8c 15 bd ba 5e 53 bb ab d2 db 3d
       0.0048076883 -0.036510877 -0.0032252506 0.10733541
0002f0 20 83 8a 3d 57 3a 2f 3e 3b 62 50 bc 49 f1 b4 bd
       0.06763291 0.17112099 -0.0127187325 -0.08835084
000300 0c ad 0d be e3 8e c4 3c 1b 32 23 bd e5 39 0b be
       -0.13835543 0.023993915 -0.039842706 -0.13596304
000310 b8 b5 ef bd ea 90 e9 bd e9 41 b0 bd ff a2 18 bd
       -0.11704582 -0.11404593 -0.08606321 -0.03726482
000320 40 40 10 bd 78 72 64 bd 05 54 c0 3d a2 29 d1 bc
       -0.035217524 -0.05577323 0.093910255 -0.025532547
000330 ab 77 c3 bd 12 42 fe 3d 3d 26 89 3c 9a c1 82 3d
       -0.09544309 0.12414946 0.016741866 0.06384583
000340 c0 ab b4 3d 7e 25 85 bd fa 52 a9 3d 80 1d d2 bd
       0.08821821 -0.06501292 0.0826778 -0.10259533
000350 1c 8d 1d be 5f 8a cc bd e1 82 dd 3d 21 dc de 3d
       -0.1538586 -0.0998733 0.10815979 0.1088183
000360 32 d0 1d be 4b c0 17 3e 62 1c df 3c 67 0b d2 3d
       -0.15411451 0.14819448 0.027235214 0.10256081
000370 68 dd 69 38 c8 4c 8a 3c 32 b2 8d bd 34 99 5b bd
       5.575773e-05 0.016882315 -0.06918754 -0.053612903
000380 bf dc 4b be ad 27 f5 bd f0 69 c9 3d d6 da 9d bd
       -0.19908427 -0.11970458 0.09834659 -0.07707755
000390 79 9a a2 3d 55 8a 3d 3d ea 92 17 bb fe d3 28 be
       0.079396196 0.0462745 -0.002312834 -0.16487119
0003a0 68 fe 4a bd 5f 47 bd bd f4 16 f7 3d c1 38 8d bd
       -0.049559027 -0.092421286 0.12064925 -0.068955906
0003b0 6c 69 28 be 62 76 79 3d da 84 9f 3d 93 bf 0c 3e
       -0.16446465 0.060903914 0.07789011 0.13744955
0003c0 4e 6e 54 3d 44 5c 46 3c c4 0d 2f 3d 9a a1 a7 3c
       0.051863007 0.012106959 0.042737737 0.0204628
0003d0 3c 50 62 3d 52 da 9e 3d 39 8d 22 3d ba d9 28 be
       0.0552523 0.07756485 0.03968546 -0.16489306
0003e0 c7 ef 81 bb 88 e4 29 3c f6 04 6e bd da 92 e7 3d
       -0.0039653513 0.0103694275 -0.0581102 0.113073066
0003f0 4e cc bf 3c f1 72 93 3d 55 62 92 bd 62 20 ba 3d
       0.02341285 0.07199658 -0.071476616 0.09088208

bias f4 [10]
000000 98 a8 03 be 34 1a 1d bd 02 5d b0 3d 97 de c4 3d
       -0.12857282 -0.038355067 0.0861149 0.09612768
000010 16 00 6a 3d 29 5d 0b bd d6 2b 38 3e d6 11 ae bd
       0.05712899 -0.03402439 0.17985472 -0.08499496
000020 12 07 d7 bd 7d dd 2c bd
       -0.104993954 -0.042203415
