chaoyang_8.pth (torch, 588587 bytes, 10 tensors)

weight f4 [32, 3, 5, 5]
000000 5c 08 60 bd 08 d7 0d 3e 92 c8 cb 3d c3 5e d4 3c
       -0.054695472 0.13851559 0.09950365 0.025924092
000010 d5 73 99 3c c4 e7 8b bd 71 86 08 3e ec dc ec 3c
       0.01873199 -0.06831315 0.13332535 0.028913938
000020 ec 53 ea 3d b8 53 09 ba bf 59 13 3e 58 34 38 3e
       0.11441788 -0.00052386103 0.14389704 0.17988718
000030 bc ed 90 3d d5 50 39 3d 8b 13 a9 bd 04 e2 b3 3d
       0.07076594 0.045243103 -0.08255681 0.087833434
000040 d1 02 1a 3e cd 18 de 3d 8c b4 2d 3d 9a 07 d6 3d
       0.15040137 0.10844574 0.04240851 0.10450669
000050 4e 8e bd 3d 56 9c 8e bb 4c 16 e6 3d 18 95 cc 3d
       0.09255658 -0.004352133 0.112347215 0.09989375
000060 51 03 34 bd 69 9c a7 3d 6d 23 70 bd b8 6e c0 bb
       -0.043948475 0.0818413 -0.058627535 -0.0058725737
000070 ac 4f fc bd 74 cf 0b be ff 51 ad 3d fb 8f b2 3c
       -0.12319884 -0.13653356 0.08462905 0.02179717
000080 b2 a9 83 bd d9 75 d5 bd ba 85 4a 3c 3e 54 c7 3d
       -0.06428851 -0.10422868 0.012360984 0.09732865
000090 23 dd 86 3d 12 e9 f5 3c bb bf f4 bc 7b 2d 31 bd
       0.06585147 0.030018363 -0.02987658 -0.043256264
0000a0 53 60 9f bc 2e 6d 6b bc 61 47 f3 3d 27 91 ad bd
       -0.01945511 -0.014369292 0.11878849 -0.08474951
0000b0 04 7e f7 bd c9 55 2b 3d 1a 39 0b 3d 82 08 86 3d
       -0.120845824 0.041829858 0.033990003 0.065445915
0000c0 43 14 c4 bd 57 10 d5 3c 55 69 0b 3d f9 36 c5 bc
       -0.09574177 0.026008768 0.034036 -0.024074065
0000d0 d1 f5 2b bd ca bf 8e bd 49 83 12 be 61 58 47 bb
       -0.041982476 -0.069701746 -0.14307894 -0.0030417668
0000e0 6b 98 43 bd 5c c8 22 be 98 a4 38 bd 87 38 fb bd
       -0.04775278 -0.15896744 -0.045078844 -0.12266641
0000f0 66 1f bf bc b6 c4 56 3d de a7 1f be 56 23 d5 bd
       -0.023330402 0.052433692 -0.1559138 -0.104071304
000100 23 ca aa 3c a3 b0 c0 3c 42 d6 8d 3d 0c f2 e1 3b
       0.02084834 0.023521727 0.06925632 0.0068953093
000110 c3 02 b1 bd 00 cd 6e bd 14 7a 02 be 1f d5 7c 3d
       -0.08643105 -0.058300972 -0.12741882 0.061726686
000120 ae d0 e7 bc e4 6c 93 bd 0a 55 fa bd 33 39 f6 bd
       -0.028297748 -0.071985036 -0.12223251 -0.12022629
000130 d6 c3 21 be e9 16 e6 bd 45 4e 68 bd 6b c4 d8 bd
       -0.15797362 -0.112348385 -0.05671527 -0.10584339
000140 a4 c7 eb bd ae 4e 45 be 08 35 e5 3c ef a8 0a be
       -0.11512688 -0.19268295 0.027979389 -0.13541006
000150 20 a9 18 bd 05 b3 03 be 4f ef e5 3d 50 02 a7 bb
       -0.037270665 -0.1286126 0.11227285 -0.005096711
000160 b7 47 6a 3d e3 00 06 3b 6a af 88 3d ad 18 1a 3e
       0.0571973 0.0020447306 0.066740826 0.15048476
000170 45 a3 47 3e f5 e3 30 3e 86 dc 2c 3e 85 89 8a bd
       0.19495876 0.17274459 0.16880998 -0.06764511
000180 1b 1e fa 3d 40 93 a8 3d 9c ae ab 3d b1 a5 0f 3e
       0.122127734 0.08231211 0.083829135 0.1402805
000190 8f 4b 15 be f5 3c 00 be 10 50 95 bd ad d4 b9 3c
       -0.14579605 -0.12523253 -0.07290661 0.02268442
0001a0 f8 d3 e1 bb d6 a8 01 bd 99 e2 19 bd 96 d7 15 be
       -0.0068917237 -0.031655155 -0.037569616 -0.14633021
0001b0 06 2a b6 bd 81 23 0f bc 20 7d b1 bd 1f cb e1 3d
       -0.08894734 -0.008736492 -0.08666444 0.110250704
0001c0 fc 18 8e bd 23 c9 c2 3d 09 0f 58 3d 0d 86 84 bc
       -0.06938359 0.0951102 0.052748714 -0.016177202
0001d0 8d b9 0f 3e 67 ee 0c 3e e2 37 0f 3e 2f f7 9d 3d
       0.14035626 0.13762818 0.13986161 0.07713162
0001e0 8f 20 92 3c c7 7f a4 bd 46 97 92 3c 48 7d e2 bd
       0.01783779 -0.08032184 0.017894398 -0.11059052
0001f0 82 bd 54 3d 2e c7 91 bd 7c d4 bf bd 96 30 c7 bc
       0.05193854 -0.07118069 -0.093667 -0.02431516
000200 cd 8f 89 bd 4c b8 86 bd 91 cd 54 3d c5 34 4c 3d
       -0.06716881 -0.065781206 0.051953856 0.049855012
000210 95 36 45 3d 91 0e 1e 3d b4 25 a9 3d 72 6e c8 3d
       0.048147757 0.03858811 0.082591444 0.09786691
000220 c5 74 9a 3d 06 9d 14 3e 6e ec e4 3d 74 17 81 3d
       0.07541803 0.14513025 0.11177908 0.063033015
000230 04 29 02 3e 3f db 94 3d 96 a6 43 3e e0 56 4b 3b
       0.12710959 0.072683804 0.19106516 0.0031027123
000240 75 0a 62 3d ea 16 fc bd 8f ff ca 3d 96 74 a5 3d
       0.055185754 -0.12309058 0.09912025 0.08078878
000250 bc 25 a4 3d ef 8a 81 bc 02 5d b2 3d 6a 91 a8 bd
       0.0801501 -0.015813319 0.08709146 -0.082308605
000260 f1 3f b1 3d d1 4b 03 3d d1 c6 25 be 87 18 aa bd
       0.08654774 0.032054726 -0.16189124 -0.083054595
000270 b4 9c fe 3c 7a bb 23 3d 33 f8 38 bd c2 01 13 be
       0.031080581 0.039973713 -0.045158576 -0.1435614
000280 42 3b 85 3d fd d5 7e 3d 09 05 fa 3d 7e fb b5 3d
       0.06505443 0.062215794 0.12207992 0.08885859
000290 5c 3c ad 3d 6d bf a1 3d 31 48 9f 3d e2 e3 a8 3c
       0.08458778 0.0789784 0.07777441 0.020616475
0002a0 35 b8 16 3e c6 19 89 39 66 7b c0 bd 50 1e bc 3d
       0.14718707 0.0002614988 -0.093985364 0.09185469
0002b0 e7 4e a7 bc 17 7b 73 3d 06 dc aa 3d 79 d1 c6 3d
       -0.020423366 0.05944356 0.083427474 0.097079225
0002c0 60 8e ee bb 0b f9 a9 bd 2d aa b7 3c 0c 86 08 be
       -0.007280156 -0.08299454 0.022420013 -0.13332385
0002d0 02 92 fa bc 20 c6 4f ba 90 cc 95 bd 91 99 c2 3d
       -0.0305872 -0.0007925946 -0.07314408 0.09501947
0002e0 63 f9 d3 bc 84 dd 1c bd 77 41 5b bd 98 81 fa 3d
       -0.025875753 -0.03829719 -0.05352923 0.12231749
0002f0 34 b3 b5 bc 49 2d 9d bd a6 5e 07 be 73 b9 72 bd
       -0.022180177 -0.07674653 -0.132197 -0.05925889
000300 44 3e 6c bd a4 48 84 3c 7a cc 92 3d 1f 07 db bd
       -0.05767657 0.016147919 0.07167907 -0.106947176
000310 14 47 11 bd 8f 10 7d 3c 63 e4 23 bd da 21 cb bc
       -0.035468176 0.015445842 -0.04001273 -0.024796415
000320 7a 69 58 bd 2d 4b 9f bd 63 2d a2 3d 38 7e bc 3d
       -0.052834965 -0.077780105 0.07918813 0.09203762
000330 c6 69 0f bd e4 0a 81 3d f4 8d d8 bc d6 89 e0 3d
       -0.035012983 0.06300905 -0.026434876 0.1096379
000340 89 56 1e bd 80 99 ea 3b af ff bd 3d 14 a1 e1 bc
       -0.038656745 0.007159412 0.092772834 -0.027542628
000350 0f 04 09 3e 55 60 51 bd 8e e9 e8 bd 5e 21 d6 bd
       0.13380454 -0.05111726 -0.11372672 -0.10455583
000360 f3 d2 d4 3c 10 fa 8a 3d 11 fb 94 3c f9 86 f9 3d
       0.025979495 0.06785977 0.018186124 0.12183947
000370 d6 2e 53 3c ed bd 92 bc 5e f6 85 3d 73 d9 17 3d
       0.0128895845 -0.01791283 0.065411314 0.03707261
000380 4b f9 10 3d 7b 1b 92 bd 7e ec 72 bd 36 e4 54 bc
       0.035393994 -0.07134148 -0.059307568 -0.012993863
000390 fd 21 ef bd 59 34 3c bd f7 9d da 3d 0d c1 5a 3d
       -0.116764046 -0.04594836 0.10674661 0.053406764
0003a0 09 8a f2 bc 50 12 93 bd 3f 76 6c 3d df c7 90 3d
       -0.029606836 -0.07181227 0.057729956 0.070693724
0003b0 38 22 d0 3d e2 77 e1 3d 88 30 49 3d 18 ee 51 3d
       0.10162777 0.11009194 0.04911855 0.051252455
0003c0 78 7e 11 be 49 e2 0b be 4e ce 5b be 70 8a 3a be
       -0.142084 -0.1366054 -0.21465418 -0.18216872
0003d0 e6 d6 d7 bd b3 89 54 be 4b d8 01 be a1 b0 52 be
       -0.105390355 -0.20755653 -0.12680165 -0.20575191
0003e0 26 c8 80 bc ec 0c c8 bd 2f 86 c5 3d 83 a3 da bc
       -0.015720438 -0.0976809 0.09644734 -0.026689297
0003f0 9f 72 d4 3d b5 56 da 3a 86 24 dd 3b 0d 2a 22 3e
       0.10373425 0.0016657921 0.0067487387 0.15836354

bias f4 [32]
000000 8d 71 fa bd 5c 1d a6 be 91 fd 3b be 38 36 14 3c
       -0.12228689 -0.32444274 -0.18358447 0.00904613
000010 54 cd e3 bd aa 35 24 3d 8f c0 56 be fb 44 45 bd
       -0.111231476 0.04009024 -0.20971893 -0.048161488
000020 ce 22 46 3e 37 6e bc 3b e6 8a 4c 3e 26 2b 3d be
       0.19349214 0.0057504433 0.1997486 -0.18473491
000030 6a 15 13 3e 00 1b 44 3e fc 65 5e be 40 fe dc 3d
       0.14363638 0.19150925 -0.21718591 0.10790682
000040 3e e8 1a be d6 9f 92 be 40 c9 50 3e ab cb 12 3d
       -0.15127656 -0.2863757 0.20389271 0.035838764
000050 f1 f7 6a bd ba 5b 15 be 0d 61 31 3e 36 b3 50 3d
       -0.05736536 -0.14585772 0.17322178 0.05095216
000060 64 e4 6a 3e d9 c4 d7 3c 38 7b 1a be 5f 43 3d 3e
       0.22938687 0.026338981 -0.15086067 0.18482731
000070 78 6f 4c be 90 bd ac 3c 09 64 9c bd 16 c0 1b be
       -0.19964397 0.021086484 -0.07636268 -0.15209994

weight f4 [32, 32, 5, 5]
000000 37 c2 fa bc 73 cf fe bc 5d 99 9c bc 9f 8c f7 3c
       -0.030610187 -0.031104779 -0.019116098 0.03021842
000010 89 6b 7c bc cd 6a cc bc fa a0 18 bd db d5 23 bd
       -0.015406498 -0.02495327 -0.037262894 -0.03999887
000020 31 7c 05 bc a7 d9 4a bc 53 ef 00 bd 8a a7 01 39
       -0.008147285 -0.012380994 -0.031478237 0.00012364812
000030 56 57 e8 bc fb 06 22 bb 9a 03 d9 3c 67 92 36 3b
       -0.028361958 -0.00247234 0.026490975 0.0027858259
000040 9b 2d 15 bb ab 23 20 bd 25 9e 26 3d 81 b7 82 bc
       -0.0022762779 -0.039096516 0.040678162 -0.015956642
000050 f2 be cf 3c f1 3d 6f 3c 00 21 4d bc 82 bb 40 bc
       0.025359605 0.01460217 -0.012520075 -0.011763455
000060 95 0c 78 3c 42 87 01 bd f5 ea 07 bc 74 ae 05 3d
       0.015139719 -0.031623133 -0.008295764 0.032637075
000070 ea 3a c1 3c c8 35 9a 3b 1e 6a 1b 3b b8 ab 79 bc
       0.023587663 0.0047061183 0.0023714374 -0.015238695
000080 16 9b c4 bb f1 5c 8a 3b b2 bc 2a bc 01 cd bc 3c
       -0.005999933 0.0042225053 -0.010420965 0.023046972
000090 3c f6 a4 3c 1f 24 56 3d 29 9e ab 3c b0 2a 3e 3b
       0.020136945 0.05228054 0.02094944 0.0029017143
0000a0 e0 be ea 3c 34 7a 8e 3d 62 6f 8e 3d 61 d2 2d 3d
       0.02865547 0.06956902 0.06954838 0.04243696
0000b0 47 24 c8 3c b0 e7 1a bb ab 5f 27 3d e0 f7 a3 b7
       0.02443136 -0.0023636632 0.04086272 -1.954654e-05
0000c0 3e 52 52 3d 95 ac 53 3d fc 83 2d 3b 9e b4 f5 bc
       0.051347964 0.05167826 0.0026476374 -0.029993352
0000d0 f2 28 fc 3c 7e 4c 01 3d d1 d1 83 bc de ee a8 3c
       0.030781243 0.03156709 -0.01609126 0.020621713
0000e0 54 d1 12 bc a8 86 3f bc fa 2c fa 3c f9 67 86 bc
       -0.0089610405 -0.011689819 0.030539025 -0.016407
0000f0 f8 aa c4 3c c9 84 d0 bc f0 6d bc 3c 23 cb 1a 3d
       0.024007306 -0.025453942 0.023001641 0.037791383
000100 3c 80 04 3d 50 f3 9a bb 3c 3c ba b7 d6 08 fa 3c
       0.032348856 -0.004728712 -2.2200977e-05 0.030521791
000110 0a 0c 46 3c b3 41 b3 bc f8 02 07 3d 65 a9 0e 3d
       0.012087831 -0.021881914 0.032961816 0.034829516
000120 50 cb 95 bc bf 7c 2e 3d 7f bf 9b bb 28 33 e2 3a
       -0.018285424 0.042599436 -0.0047530527 0.0017257677
000130 48 75 fb bc 11 51 a6 bc 61 27 bf bc 6c 21 22 bc
       -0.030695572 -0.020302327 -0.023334207 -0.009895664
000140 c6 3f c7 3b 56 af 65 bc 0a 98 98 bb 1a 11 fd bc
       0.0060806004 -0.014018854 -0.0046567963 -0.030891944
000150 fb 6b f3 3b e4 6e 89 bc 3e 3c c2 bc a1 b4 89 bc
       0.0074286438 -0.01677651 -0.023710366 -0.016809763
000160 65 58 80 3c 30 e1 f5 bc fc 56 d1 3c e4 34 7b 3c
       0.01566715 -0.030014604 0.025554173 0.015332434
000170 97 87 16 3a d3 2e 0d 3b ba 37 e7 bc b7 13 ac 3b
       0.00057422504 0.0021542802 -0.028224815 0.0052513736
000180 00 cf 6e bb a9 03 66 3c c4 3c 00 bd b1 6c 7d bc
       -0.00364393 0.014038959 -0.03130795 -0.015467809
000190 5d d0 e9 3c 5f fe 8f 3c b8 14 e7 bc 4e 70 18 3b
       0.028541738 0.017577348 -0.028208122 0.0023260298
0001a0 d4 99 de bb 91 a5 71 bc 7a da c7 3b fa f4 a0 3b
       -0.00679324 -0.014748947 0.0060990425 0.004912016
0001b0 56 22 3c 3c e6 6b e8 3c 34 5a e5 bc cc 78 2a 3d
       0.011482796 0.028371762 -0.027997114 0.041619107
0001c0 e3 56 bc bb 7f 1d 32 3d 63 51 01 bc 5a ea b1 ba
       -0.0057476624 0.04348516 -0.007892939 -0.001357387
0001d0 18 09 5f bb ee 12 97 bc 0b 11 b6 bb cd 00 b6 3c
       -0.003403252 -0.018441644 -0.005556231 0.022217179
0001e0 43 37 0a 3d 4e 21 27 3a 58 04 df 3c f9 73 19 3d
       0.033744108 0.0006375507 0.027223751 0.037464116
0001f0 47 b2 64 bc fe 86 cd 3c b3 e8 ad bc 9b b5 4e bd
       -0.01395852 0.025088783 -0.021229124 -0.05046616
000200 91 53 21 3c 04 0b 70 bc d0 a4 b7 3c 15 ea aa bc
       0.009846584 -0.014651064 0.022417456 -0.020863572
000210 d5 53 2b bd 63 50 24 bd 3e 86 75 bc c4 75 29 3c
       -0.041827995 -0.040115725 -0.014985619 0.010343019
000220 2b 4a 9a bc 8f d0 13 bd ac 2b ce bc d8 9b d4 3c
       -0.018834194 -0.03608757 -0.025167309 0.025953218
000230 2a 24 21 bd 9a e3 86 3b 5c cb 1e bd 93 06 b6 3c
       -0.03934113 0.0041164877 -0.038768157 0.022219932
000240 65 f0 bb 3c e1 fe 03 bd 0d 77 69 bb c0 8b c0 bc
       0.022941777 -0.032225493 -0.0035623938 -0.023504138
000250 f8 98 17 bd b3 a2 ac bc 6b 01 5f bc 6f cc 37 bc
       -0.037011117 -0.021073675 -0.013611178 -0.011218174
000260 b3 26 08 bd bd 67 02 bd 88 0a d0 3c 2e 8a f2 3b
       -0.03324003 -0.031837214 0.025395647 0.007401726
000270 0b bc c4 bc 0f fc ff bc ba a8 fd 3c 88 33 0f 3c
       -0.024015447 -0.03124812 0.030964244 0.008740313
000280 30 ba 16 3d bd c6 62 ba 57 17 e7 3c 12 46 b8 3c
       0.036798656 -0.000865083 0.028209371 0.02249435
000290 d9 d0 7c 3c f5 0e 19 bc 88 3b 07 3c 31 93 e8 3a
       0.015430653 -0.009341945 0.008253939 0.0017744062
0002a0 09 25 dd bb 3c 61 13 3d 53 7e 90 bc ee 7e 86 bb
       -0.0067487997 0.0359814 -0.017638361 -0.0041044867
0002b0 43 18 0c 3d b2 6c e2 3a f3 90 ef 3c 12 aa b3 bc
       0.034202825 0.0017274825 0.029243922 -0.021931682
0002c0 63 4d fe 3a d2 62 84 3c df 83 d4 3c 01 22 7e 3c
       0.0019401725 0.016160402 0.025941787 0.015511037
0002d0 d4 91 05 3d 10 01 4a 3d 5c 3b 4d bc 9a 8b a5 3c
       0.032609776 0.04931742 -0.012526359 0.020208169
0002e0 ce 14 fc 3c bf 8f 69 bc ce dd 20 3d f6 f2 e5 bb
       0.03077164 -0.014255463 0.03927403 -0.0070174886
0002f0 bd 9a c5 3c be 21 bc 3b 35 12 5a 3b 9d bd 09 bd
       0.024121637 0.005741327 0.0033275012 -0.033628095
000300 1a a8 89 bb f7 36 fc bc d9 02 24 bd f0 92 1a bd
       -0.0042009475 -0.030787928 -0.04004178 -0.037737787
000310 9c 5f 0e bd 73 63 93 bc 45 f6 d6 bc e7 96 f9 bc
       -0.03475915 -0.017991757 -0.026240477 -0.030467464
000320 f0 fd 20 3d 18 6d 09 bc 02 f5 a4 bc 68 22 98 3c
       0.039304674 -0.008387826 -0.02013636 0.018571094
000330 50 bd 47 3b de 50 5f 3c 07 51 39 bb 7c 7d 41 bc
       0.003047783 0.01363012 -0.0028277056 -0.011809703
000340 41 29 82 3c 1d 0d ef bc 55 6e 5b bd fa 2e 67 ba
       0.015888812 -0.029181058 -0.053572018 -0.0008818951
000350 23 29 66 bd 5c 2f 80 bc 34 9f cc bb 74 db 3c bd
       -0.056191575 -0.015647583 -0.0062445644 -0.046107724
000360 9a f2 50 bd a5 23 64 bd 34 6e 57 bd c5 17 47 bd
       -0.051012613 -0.055698056 -0.052595332 -0.048606653
000370 ab 1f c2 bc d2 77 1d bd 49 b5 ad 3c 3e 2b c0 bc
       -0.023696741 -0.038444348 0.021204608 -0.02345812
000380 80 f9 28 bb af d1 92 3c 7c e4 10 bd c7 32 b6 bc
       -0.002578348 0.01792225 -0.03537415 -0.02224101
000390 5d 5d 2c bb 84 58 bd bc 4d a0 ed bb 4a 40 26 bc
       -0.0026300766 -0.023113497 -0.0072517754 -0.010147164
0003a0 8c 62 22 bb 6d f0 69 bb 83 3a f5 3c 44 5c 65 bc
       -0.0024777977 -0.0035696283 0.029935127 -0.013999049
0003b0 1a 07 cf 3c 44 cc 81 bc b0 91 55 3c 6e a2 91 bc
       0.025271941 -0.015844472 0.013035223 -0.017777648
0003c0 cb 80 82 3c b1 7b a9 3c d8 96 cb 3c e7 ab a7 bc
       0.015930554 0.020688863 0.024852201 -0.020467712
0003d0 e6 a5 3d bc 89 3a b1 3c ba 88 e5 bb 63 ab 1b bc
       -0.011575198 0.021634357 -0.0070048245 -0.009501311
0003e0 1c e1 1a bd 2a 05 a6 bc 28 d1 97 3b 1a d1 30 3d
       -0.037812337 -0.020266134 0.0046330877 0.043168165
0003f0 5b d7 61 bc 8c 0a 42 bb 52 b4 73 bb 56 95 ce 3c
       -0.013784255 -0.0029608337 -0.0037186337 0.025217693

bias f4 [32]
000000 57 2d f6 bd 7b 24 d8 bc 43 e1 b0 bd c1 33 1a 3d
       -0.12020367 -0.026384583 -0.08636715 0.037647013
000010 c1 bb 20 bc cd 94 46 bd 8a 7a e9 3b 5f 91 8a bd
       -0.009810389 -0.04848175 0.0071252035 -0.067660086
000020 4d fc b7 3c 52 12 09 bd 9d 0d 2f bd d9 e2 77 3d
       0.022459174 -0.033464737 -0.042737592 0.060519073
000030 3e 1c a5 3b ed 16 2c 3c 38 24 0d 3d 53 44 9c bd
       0.005038767 0.010503513 0.03445837 -0.07630219
000040 ff f9 8b 3d 86 a1 77 bd 9f 9f 07 bd 1a da 84 3d
       0.06834792 -0.060456775 -0.03311121 0.06486912
000050 63 86 69 bd 0d a0 ec bd f6 a8 1f bd 82 83 51 3d
       -0.057012927 -0.11553965 -0.038979493 0.051150806
000060 91 71 39 3d a4 96 69 bd 37 ec 9e 3c 6a 86 d5 bc
       0.04527432 -0.057028428 0.019399745 -0.02606507
000070 0c ae dd bc 3c ad bc bd d1 86 05 3c 64 09 9e 3c
       -0.027060531 -0.09212729 0.0081498185 0.019291587

weight f4 [64, 32, 5, 5]
000000 52 94 d7 bc ad 59 0e bc c1 cb b9 bb 74 b2 2b bc
       -0.026315842 -0.008688373 -0.0056700413 -0.010479558
000010 43 ab 83 3c 26 a8 74 bc 07 02 a3 bc 95 90 30 3c
       0.016072875 -0.014932668 -0.019898428 0.010776659
000020 61 2f a7 3c 75 67 24 3d a9 45 12 3d e5 30 09 3d
       0.020408334 0.040137727 0.035710964 0.033493895
000030 33 f5 54 3d 0c 45 69 3c 3e f5 d5 3c d5 39 50 bc
       0.051991653 0.014237653 0.026117917 -0.012709101
000040 9e 29 74 bb 37 1c 31 3c 8e 2d 79 bb a6 d3 c0 3c
       -0.003725625 0.01080995 -0.0038021537 0.023538422
000050 3c 85 17 ba 03 5f 9f 3c 55 62 3d 3b 3e 2b 18 3d
       -0.00057800463 0.019454485 0.0028897722 0.037150614
000060 80 ef 11 bb fd db 89 3c 3f 9c 60 3c ec d6 fc bc
       -0.0022267997 0.016828531 0.013709127 -0.030864201
000070 95 9a 14 3b bf d9 b6 bc cc d4 6d bc 92 a7 f9 bc
       0.0022675146 -0.022320626 -0.014516067 -0.030475412
000080 40 8d 9d bb 30 e9 7f 39 c2 47 97 bc 13 1d 06 3d
       -0.004808098 0.00024405564 -0.018466834 0.03274257
000090 c8 63 80 3d 8f 2d 5f 3d e0 25 a9 37 b6 a9 3a 3d
       0.06269032 0.054486807 2.0164007e-05 0.045572005
0000a0 10 99 a7 3c 8b 21 cd bb 04 99 58 3d e5 29 50 3d
       0.020458728 -0.006260102 0.052880302 0.050821204
0000b0 eb b1 39 3d 68 60 21 bb f3 59 38 bd 68 5e 84 bc
       0.04533569 -0.0024624113 -0.045007657 -0.016158298
0000c0 f0 24 c7 3b 25 3a 4d 3c 98 4a 42 3b 10 2c 80 bc
       0.0060774013 0.01252607 0.0029646512 -0.01564601
0000d0 61 40 a7 3b d8 3a c6 3b 3d 8f 6e 3c d6 1b 0b 3d
       0.00510411 0.006049495 0.014560518 0.033962093
0000e0 23 9a a0 bb 6d 23 e2 3c d9 58 ac 3b e0 da 11 bd
       -0.004901187 0.027604783 0.005259615 -0.035609126
0000f0 30 31 e1 bc 12 b1 d9 3c 6c fd e7 3b 1c cf 8e 3c
       -0.027489275 0.026573692 0.007079771 0.017432742
000100 35 fe 96 bc ad 3b 21 3d a4 f4 57 3c db 22 12 3d
       -0.018431762 0.039363552 0.013180885 0.035677772
000110 46 fb 73 bc ea 3f 02 3d 00 bc d9 3c 00 39 9d 3c
       -0.014891451 0.031799234 0.026578903 0.019192219
000120 f2 7a d1 3c d4 95 2d bb f6 17 07 bc 72 27 01 3d
       0.02557132 -0.002648701 -0.008245459 0.03153176
000130 90 aa c3 38 83 23 d1 bc 06 b5 1a 3c 84 49 0f 3c
       9.330094e-05 -0.025529629 0.009442573 0.008745555
000140 f0 65 96 ba 5b fe bb 3b 57 5d d9 bc 54 c6 3a 3c
       -0.0011474472 0.0057371086 -0.026533766 0.011399824
000150 90 27 25 bd 12 38 31 3d e7 45 45 3d 3d ec 51 3d
       -0.040320933 0.043266363 0.048162367 0.051250685
000160 f8 6e d7 3c 99 4c 54 3c 02 92 89 3c 55 4b aa 3a
       0.026298031 0.012957715 0.016793255 0.0012992421
000170 16 34 33 3d 4e ce 9a bb ad 48 c7 3a b5 24 5f b9
       0.043750845 -0.0047243005 0.0015204154 -0.00021280612
000180 b2 e7 c5 3c 96 ab 57 bc 63 59 33 bc c6 c2 28 3c
       0.024158332 -0.013163468 -0.010946604 0.010300344
000190 e9 89 35 bc 51 35 f3 3b 20 8e a5 3b 55 7f 6b 3b
       -0.011080244 0.0074221273 0.005052343 0.003593405
0001a0 15 de 4b 3c b0 45 76 bc 42 48 fe 3b 88 dc 76 bc
       0.012443085 -0.015031263 0.0077600786 -0.015067227
0001b0 bd da e9 3c 4d 3c c3 3c ef f9 8f 3b f2 e1 cd 3c
       0.028546685 0.023832465 0.004393808 0.025132153
0001c0 ad b9 20 bb 4f 93 f2 3b 70 f2 3d bc 1a 25 e8 3b
       -0.0024524734 0.0074028145 -0.011593446 0.007084501
0001d0 7a f4 8f bc 8e 95 2d 3c d6 11 c1 bc d3 f4 10 3d
       -0.01757263 0.010594739 -0.023568075 0.035389733
0001e0 20 c5 50 3c 99 79 eb ba c7 6d e6 bc bf ef f3 bc
       0.012742311 -0.0017965316 -0.028128518 -0.029777406
0001f0 59 12 7e bc 8f a8 05 3d 16 28 a2 bb a6 b2 d8 bc
       -0.015507304 0.032631453 -0.0049486263 -0.026452374
000200 b6 7d e5 ba 1a fb b0 bc b0 90 99 bb 2f e1 45 bc
       -0.0017508778 -0.02160411 -0.0046864375 -0.012077614
000210 90 10 79 3c 18 21 81 bc 23 f9 0b bc c8 27 56 3d
       0.015201703 -0.01576285 -0.008543286 0.052284032
000220 f2 19 19 3d ba b8 35 3d 22 a4 50 3c 5d 32 cc 3c
       0.03737826 0.044365622 0.012734445 0.024926359
000230 7f c3 5f 3c 3d 19 ff 3c c2 e8 b9 3c 34 0d 16 3d
       0.01365745 0.031139964 0.022693995 0.036633685
000240 e5 2b a6 bc 37 a1 a5 3c 45 fd ee bc 76 95 b0 ba
       -0.020284602 0.020218475 -0.029173503 -0.0013472277
000250 c2 2e b5 3b e4 37 ba bc 1e aa 08 3d 60 76 29 3b
       0.0055292556 -0.022731729 0.03336536 0.002585791
000260 5b 2b 59 bc b4 35 6e bc ea 8b 09 bb 1e 6a 10 bb
       -0.013254966 -0.014539171 -0.0020987936 -0.0022035907
000270 cd 71 c0 3c dc 5f 87 3c 5e 66 df 3c 92 41 17 3a
       0.023491764 0.016525201 0.027270492 0.00057699636
000280 3e 3d 46 bc 87 d2 02 3c c0 27 35 3d a5 79 28 3d
       -0.012099562 0.007984764 0.04422736 0.041131634
000290 7c ec f7 3c c4 61 3d 3c fe af df ba 02 77 c2 bc
       0.030264132 0.011558954 -0.0017066 -0.023738388
0002a0 3e e4 d4 bc e5 e0 e6 bc 0b 3a e4 bc 30 92 d7 bc
       -0.02598774 -0.02818341 -0.027859708 -0.026314825
0002b0 74 b5 91 bc fa ee bb 3c 9f a6 cd 3c 2f 88 18 3c
       -0.017786719 0.022941101 0.025103865 0.009309812
0002c0 ef eb 1b 3b 6e dd 88 3c 1c 5a 06 bd 65 c5 01 bd
       0.002379175 0.016707148 -0.03280078 -0.03168239
0002d0 a9 0b ec 3c ef 51 cd bc f8 56 6c bc 14 48 f7 bb
       0.028814154 -0.025063483 -0.014425032 -0.007546434
0002e0 9d 70 ab bc 41 00 cd 3c 4c fa dc 3c f9 b7 cc bb
       -0.020927722 0.025024535 0.02697482 -0.006247517
0002f0 7b 45 e1 3c c0 00 5a bc 58 a5 a1 bc 8b 72 3c 3c
       0.027498951 -0.013305843 -0.019732162 0.011501919
000300 2a 33 c6 3c 7a 43 fb ba ef db 7a bc 8c f3 a1 bc
       0.024194319 -0.001916989 -0.015311225 -0.019769453
000310 5c 9f 9b 3c ae 15 e9 3b d4 d1 7a 3c 5b 2f 84 bc
       0.018996887 0.00711318 0.015308816 -0.016135862
000320 de 0a 81 3c 34 da cb 3c 99 54 18 3d 1b 32 95 3c
       0.015752252 0.02488432 0.037190054 0.018212369
000330 6c d3 12 bb 32 9f 08 3b 0d cb c6 bb 4e 83 a5 bb
       -0.002240385 0.002084684 -0.006066686 -0.005051053
000340 8f 04 88 3c df 38 0e bb 85 38 9d 3c ee 45 84 3a
       0.016603736 -0.0021701378 0.01919199 0.0010091641
000350 d6 e9 f2 3c 48 1f d6 bc 3a 5f 02 3d ab 02 64 3c
       0.029652517 -0.026137963 0.031829096 0.013916652
000360 c5 d0 e0 3c 4d d7 3b 3c b5 47 1b 3c 91 24 08 bd
       0.0274433 0.011464906 0.0094775455 -0.033237997
000370 c4 d3 a2 bc 3f d6 17 3d a2 35 19 bd 28 0e 14 bd
       -0.019876368 0.037069555 -0.037404664 -0.036146313
000380 da 86 30 bd 5d a9 c7 3c ba cd 89 3c 51 22 e6 bc
       -0.043097354 0.02437275 0.01682173 -0.028092535
000390 d2 92 1a 3c 63 ab e3 3c 45 f7 a1 3c 50 96 8b bb
       0.009434419 0.027791684 0.019771228 -0.004259862
0003a0 1f 54 3d 3c 4c 5e f5 bc 59 81 56 3b 8e 38 e0 bc
       0.011555701 -0.02995219 0.0032730906 -0.027370717
0003b0 ee 37 82 bb c6 47 2a bc 74 66 cd 3c b4 91 8e 3c
       -0.0039739525 -0.010393089 0.025073268 0.017403461
0003c0 09 68 19 3d 2e 0e 1e bb 46 67 ac 3c 80 67 c3 bc
       0.03745273 -0.0024117338 0.021045338 -0.023853064
0003d0 03 ca 3e 3d 2d 9c 3b 3d 19 6b 19 3d 94 c5 82 bb
       0.046579372 0.045803238 0.037455652 -0.0039908383
0003e0 f0 ee 76 bc 8e dc bc bc 56 c0 0e 3d dd c6 49 bb
       -0.015071616 -0.023054387 0.034851395 -0.0030788698
0003f0 c2 9f b0 3c 32 d9 7d ba ac c5 ae 3c 36 47 fb bc
       0.021560553 -0.00096835487 0.021334492 -0.030673604

bias f4 [64]
000000 26 ae 5d bd 46 78 f8 3c e9 ea 17 3b dc a6 b8 3c
       -0.05412116 0.030330788 0.002318079 0.022540502
000010 78 95 43 3c 42 8a 36 bc bf bf 51 3c d7 f9 c0 bc
       0.011937492 -0.011141362 0.0128020635 -0.023556633
000020 e3 b8 f7 bc 4f 7f 3d bc fb e1 77 bb 64 13 58 3a
       -0.030239528 -0.011565997 -0.0037823904 0.00082426355
000030 e2 87 b8 bd 79 95 cd 3b 04 a1 00 3b 01 88 8b bb
       -0.090102926 0.006273922 0.0019627223 -0.0042581563
000040 05 b2 51 bc 8f 83 4c bd 98 eb 48 bd 73 17 11 bd
       -0.012798791 -0.04993015 -0.049052805 -0.035422754
000050 cc a2 05 bd 96 47 b3 bc ae ec 6f bd 90 02 b3 bc
       -0.03262596 -0.02188472 -0.058575325 -0.021851808
000060 b0 7a 9d bc 15 d4 22 bd ab ac c6 bc 9b cd b1 bc
       -0.019223541 -0.03975304 -0.024252256 -0.021704486
000070 82 fa 55 3c 85 82 1e bd 32 a6 f6 bb ef 58 a2 ba
       0.013060214 -0.038698692 -0.0075271362 -0.0012386123
000080 6d d6 18 ba 04 1c 71 bc 15 8d 1b bd c3 20 98 bd
       -0.0005830292 -0.014716152 -0.037976343 -0.07428124
000090 82 8a 86 3c a2 74 20 3d c8 5a 0b bd b3 56 f5 bc
       0.016423468 0.03917373 -0.034022123 -0.029948568
0000a0 a6 4a b8 3c f8 b5 d5 3b 8c e2 57 bd 2f 02 b2 bb
       0.022496533 0.0065219365 -0.052706286 -0.005432389
0000b0 24 06 a1 bc 13 12 2c bd 10 43 b9 bd 8e 3d 99 bc
       -0.019656248 -0.042009424 -0.09045994 -0.01870611
0000c0 05 cf 50 bc 75 40 56 3c 09 5a 51 bd 5d f6 86 3c
       -0.01274467 0.013076891 -0.051111255 0.016474897
0000d0 e7 7a 9e 3c 94 cc 14 bd bc 68 1a bd c9 ef 63 bc
       0.019345714 -0.036327913 -0.03769754 -0.01391215
0000e0 d6 2d 78 bc 50 32 1c 3d 02 06 21 bc 3f fc 6a 3c
       -0.015147647 0.03813392 -0.0098280925 0.014342367
0000f0 d3 a5 fe bc 8e 5d 02 bd 6e 4b b6 3c b5 a7 9b 3b
       -0.03108493 -0.031827502 0.022252765 0.004750217

weight f4 [64, 1024]
000000 29 90 bc bc 9f 10 ae bb ef a0 c4 3c 4b 65 ba bb
       -0.02301796 -0.00531204 0.02400252 -0.0056883446
000010 e1 b4 8c bc 9c 6e 0b bc 35 c7 21 bc 30 13 1e 3d
       -0.017176094 -0.008510258 -0.009874155 0.038592517
000020 14 ff 11 3c 05 e1 bb bc 87 d3 2f 3c 52 75 eb 3c
       0.008910913 -0.022934446 0.010731584 0.028742466
000030 97 7d 0d 3c 38 a7 d6 3c 9c 97 10 3c 94 20 15 bd
       0.0086359 0.026202783 0.008825209 -0.036408022
000040 9b 4a ae 3b 80 47 9c bc fe 2d ae bc 63 82 ea bc
       0.0053189523 -0.019077063 -0.021262165 -0.028626626
000050 ba 47 ee bb fd ad ad 3b 24 4d eb bc ff 13 31 bc
       -0.007271734 0.005300282 -0.028723307 -0.01080799
000060 3f 4d 57 3c 38 3d 81 3c 9a 87 89 3c cb 02 ea bb
       0.0131409755 0.015776262 0.016788293 -0.007141446
000070 44 e6 6a bc 3c b2 3c 3d 91 bf a7 3c fb 4e 09 bd
       -0.014337126 0.046068415 0.020477088 -0.033522587
000080 a4 8f 9a 3c d1 4a bf 3c 82 4a c8 ba bb 2d b3 bc
       0.018867321 0.023351105 -0.0015280994 -0.021872392
000090 a5 2a 6e bc af b8 e0 bc 3b d1 84 bc 6b 56 df bc
       -0.014536534 -0.027431814 -0.01621305 -0.027262887
0000a0 9a 79 db bb a7 72 82 3c 15 da 8a 3b 4f 03 87 bc
       -0.0066978456 0.015923811 0.004237423 -0.01648107
0000b0 74 59 07 bc 02 a5 83 bb 95 f2 3c bc 2a 0e c8 3b
       -0.008261073 -0.004017473 -0.011532445 0.006105204
0000c0 9b 39 c5 3c d3 11 17 3c fc e4 e8 bc 4f 92 99 3a
       0.02407532 0.009220558 -0.0284295 0.0011716577
0000d0 c0 38 d2 3a d8 90 01 3d 56 cf cd bb bd 40 f1 3c
       0.0016038641 0.031632274 -0.00628082 0.029449815
0000e0 49 e2 84 3b 11 02 11 3c 98 84 87 bc 98 98 d9 bc
       0.0040552956 0.00885059 -0.016542718 -0.02656202
0000f0 45 88 a9 bc aa 7b 5a 3c d2 78 ee 3b d9 c2 30 bc
       -0.020694861 0.013335148 0.0072775865 -0.010788643
000100 49 f4 83 3c 3c 52 d2 3c b6 97 a0 bc e5 48 86 bc
       0.016107695 0.025673978 -0.019603591 -0.01639218
000110 2e 67 f5 bc e7 36 5f bc 89 7b 58 3c b4 5d 4e ba
       -0.029956426 -0.01362393 0.013213047 -0.0007872239
000120 60 d5 30 bd 6b 57 cf bc a5 1d b1 bc fd 51 69 ba
       -0.04317224 -0.025310239 -0.02162058 -0.0008900462
000130 93 3c af bb 24 0b e6 3b 0c 7b 95 3c 6a 01 6c bb
       -0.005347797 0.007020371 0.01824715 -0.0036011585
000140 52 26 e4 bb 2a 1e 9a ba 7c 83 41 bc 86 c6 1a bd
       -0.006962576 -0.0011758257 -0.0118111335 -0.037786983
000150 a1 2d 2f 3d ea 11 00 bd 71 d5 b7 bb 5d 49 50 ba
       0.042768124 -0.031267084 -0.005610161 -0.00079455023
000160 6e 5b 1f bb fb c0 f6 bc 95 1b 20 bd 7b dc 16 3d
       -0.002431597 -0.030121317 -0.039088804 0.03683136
000170 24 92 dd 39 79 0b 83 bb e1 b1 3d 3b 2e 88 ca bc
       0.00042261288 -0.0039991704 0.0028945135 -0.024723139
000180 86 5d 72 bc 47 9e 8e 3c 4d 33 01 39 71 66 95 bc
       -0.014792806 0.017409457 0.0001232151 -0.018237324
000190 22 24 98 bc dd 88 11 3d 56 a9 80 3c 55 33 5d 3b
       -0.018571917 0.035530914 0.015705746 0.003375252
0001a0 db 33 73 bc b9 d9 0c 3d ff 52 4e b9 e4 a7 57 bc
       -0.014843906 0.034387324 -0.0001967661 -0.013162587
0001b0 f9 42 7a bb d1 7a 3d bd f3 35 04 bd 08 f8 1a 3d
       -0.0038186891 -0.046259705 -0.032278012 0.037834197
0001c0 99 b4 67 bc d5 c5 5f 3c 0d 3b d9 3c 10 9d b0 3c
       -0.014142179 0.013658007 0.026517415 0.021559268
0001d0 59 62 ee 3c af bc f8 3c 9f db b2 bb fb 7a b5 3c
       0.02909963 0.030363409 -0.00545831 0.022153368
0001e0 7d c5 c4 3c 79 d7 0f 3d 3e 2f 50 3c 98 3a fe bb
       0.024019951 0.0351176 0.012706576 -0.0077584498
0001f0 17 a2 cd bb 2e 0d 1d 3c 45 ec c1 3c c8 71 d5 bc
       -0.006275426 0.009585662 0.023672232 -0.026055232
000200 c0 e1 0d bc 37 aa 56 bc d0 f2 1b 3c 34 d8 9c 3c
       -0.00865978 -0.013102106 0.00951834 0.019146062
000210 9b 67 76 3c 45 6c 85 3c 17 52 d2 3c 4a c9 0b 3c
       0.01503935 0.016286978 0.02567391 0.008531878
000220 c4 e6 84 bb f8 bc a5 bc 1b 88 00 bd 70 e4 a9 b9
       -0.0040558297 -0.020231709 -0.0313798 -0.0003240439
000230 59 75 8c 3c 05 b9 d1 3b 30 43 95 bc 25 86 c9 bc
       0.0171458 0.00640023 -0.018220514 -0.024600098
000240 19 79 90 bc e4 11 cc bc 92 a3 9f bb b9 cd 7f bc
       -0.017635869 -0.024910875 -0.004871794 -0.015613013
000250 db 70 68 3c 62 07 9d bb 96 a9 3a bc ac 3e e1 3c
       0.014187063 -0.00479214 -0.0113929715 0.027495705
000260 99 04 23 3c 97 85 98 bc 7e c9 d3 3c f5 8d a7 bc
       0.009949827 -0.018618388 0.025852915 -0.020453433
000270 c4 d6 89 3c fb 9f 48 bd 0c 2a 9b 3b ff 11 0a bd
       0.016826041 -0.048980694 0.004735237 -0.03370857
000280 a2 dc e1 bc 5b 68 f4 39 62 38 91 bc 9b dc b9 bb
       -0.027571026 0.00046617058 -0.01772708 -0.00567205
000290 43 21 02 3c 02 2a a7 bc 8c 9f 77 bc 78 70 b0 b9
       0.0079425005 -0.020405773 -0.0151137225 -0.00033653132
0002a0 cf 64 e7 3b f6 27 0b bc 06 a4 a2 3b 24 a2 87 bb
       0.007061578 -0.008493414 0.004963401 -0.0041392017
0002b0 bf dd 13 3d 2a 7c e7 3c 7d a5 c5 3c 5f ef e1 bc
       0.036100145 0.028257448 0.024126763 -0.027579961
0002c0 af 06 d3 bc 05 b6 91 bc 3b e0 c0 bc 73 61 e7 3b
       -0.025760023 -0.017786989 -0.023544421 0.0070611774
0002d0 26 b5 f7 bc 64 fa d9 3c 60 e2 0c 3b 62 6f 36 bd
       -0.030237745 0.026608653 0.0021497235 -0.044539817
0002e0 4e 8f 09 3a 66 f8 74 3c ce 89 ff 3b 15 1c 2c 3d
       0.00052474893 0.014951801 0.00779841 0.04201897
0002f0 ef bb d3 bb ce 40 a7 ba d3 69 de 3c 58 23 34 3b
       -0.0064616124 -0.0012760402 0.02715007 0.0027486887
000300 50 2a 0d 3c 45 6e 29 bc d5 0d d3 3c 73 71 19 3c
       0.008616045 -0.010341232 0.025763432 0.009365427
000310 d5 09 a2 bc 69 0f c9 3c 5c c1 46 3c d3 fd 73 3c
       -0.019780079 0.024543481 0.012131061 0.014892059
000320 e8 cc c4 bc 30 10 2c b9 7c 4a 11 bc df 77 b9 3c
       -0.024023488 -0.00016409229 -0.008867856 0.022640167
000330 8b fd cf 3c 26 b3 14 bc 31 f0 81 3c 2c 1b d1 bc
       0.025389453 -0.009075915 0.015861603 -0.025525652
000340 9e 70 ab bc 2e 45 c9 bc c1 17 a5 bc 8c f6 eb bc
       -0.020927723 -0.02456912 -0.020152928 -0.028804086
000350 47 a6 5a 3c d2 6f 01 bd c3 67 a8 bc 7e 5d 06 bd
       0.013345308 -0.03160078 -0.02055729 -0.032804005
000360 58 c3 ce 3b 9c d9 7b bc ca 7c 04 3d 50 19 10 3c
       0.006309908 -0.015371706 0.03234557 0.0087950975
000370 c4 fb 4a 3c 44 b7 10 3c 78 73 ce bb d7 29 a6 bb
       0.012389127 0.008832756 -0.006300386 -0.0050709057
000380 bd 96 d6 3c d2 db ab bc 82 ae 10 3d d7 f9 6c bb
       0.026194924 -0.020978842 0.035322674 -0.0036159658
000390 6a f3 b5 3a 7d 77 8d 3c fd a1 5f bb fb 22 6a 3c
       0.0013881747 0.01726889 -0.0034123652 0.014290567
0003a0 19 bd a4 bc 9a de 29 3c 5a 24 83 3c 42 5c e4 3b
       -0.0201097 0.010368014 0.016008545 0.006969006
0003b0 5d cc 97 3c ed 76 5e 39 cd c8 f5 3c 14 95 8b 3c
       0.018530065 0.00021215873 0.030002976 0.01703886
0003c0 d0 45 49 3c 3d 92 dc 3a 23 3f ac 3c a6 7c cc 3c
       0.012284711 0.001682825 0.0210262 0.02496178
0003d0 3c 99 2a 3c 5d 39 98 bc 3f 9e c5 bc 57 a5 d7 bc
       0.0104125105 -0.01858204 -0.02412331 -0.026323957
0003e0 7b 1e 3a 3c 3c 84 58 bc 84 eb af bc 1d 4a 36 3c
       0.011359806 -0.013215121 -0.021474607 0.011126068
0003f0 c2 0e 77 bc 80 05 35 3d ec f8 9f 3c 92 53 05 bc
       -0.015079202 0.0441947 0.019527875 -0.0081376005

bias f4 [64]
000000 b3 46 93 3c 2f 14 79 bc 83 68 34 3d 83 00 12 bd
       0.017978048 -0.015202566 0.044044983 -0.03564502
000010 80 c1 3d bc 63 93 af 3c 4e a5 86 3c 63 30 dd bc
       -0.0115817785 0.021432584 0.016436245 -0.027000612
000020 ea 4f 04 bc b3 39 a0 bc 4f 9c c0 3c cb 21 f2 3b
       -0.008075694 -0.019558763 0.023512034 0.0073892823
000030 de e9 3e 3d 3c ef f7 3c c4 12 7a bb d5 97 48 bd
       0.046609752 0.030265443 -0.0038158158 -0.048972923
000040 66 f5 80 bc 04 a6 de b9 cc 8d fa bc d0 b6 1c 3d
       -0.015742015 -0.0004246683 -0.030585192 0.03826028
000050 11 ce 5d ba 56 f9 26 bd 0f 54 01 3c e2 0c 58 bc
       -0.0008461187 -0.04076513 0.007893576 -0.013186665
000060 30 a4 d8 bc 43 fa 9c 3c a7 44 95 3c e7 4c 52 3d
       -0.026445478 0.019162303 0.018221213 0.05134287
000070 f3 1b c3 bc 32 9a 8b bc b3 16 56 bb bd ea 46 bd
       -0.023817038 -0.0170413 -0.0032667338 -0.048563708
000080 97 9e 43 bd 00 a5 2e 3c 1e f8 82 bc c9 66 d2 3c
       -0.047758665 0.010659456 -0.015987452 0.025683777
000090 f1 e9 8a 3d b3 b8 de bc eb 09 1c 3c b2 7e 47 3c
       0.06782902 -0.02718768 0.009523849 0.012176203
0000a0 77 64 8a 3c d9 bb a7 3c cc 6b dc bc b2 05 4c bc
       0.016893608 0.020475315 -0.02690687 -0.01245253
0000b0 18 42 a3 3c 60 5b 45 bc 2e 85 98 bc 1c 27 ad bc
       0.019928977 -0.012045711 -0.018618193 -0.021136813
0000c0 66 66 07 bc ba 49 a9 bc d7 93 80 3c 55 b0 30 bd
       -0.00826416 -0.020665038 0.015695496 -0.043136913
0000d0 de 07 02 3d e2 50 b6 3b 5a 4f 11 bd 7d a7 00 bd
       0.031745784 0.005563841 -0.035476066 -0.03140973
0000e0 97 a4 f2 bc 68 b4 8b bc 64 57 cd 3c f0 85 30 3d
       -0.029619498 -0.017053798 0.025066085 0.043096483
0000f0 7c 7c 9c bc 92 bc 47 3c 8a eb 0c 3d d3 df 29 bd
       -0.019102328 0.012190955 0.034404315 -0.04147322

weight f4 [10, 64]
000000 d8 3c 05 bd 32 f6 e8 bd da 01 46 3c ed 8d 13 3e
       -0.03252873 -0.11375083 0.012085402 0.14409609
000010 89 25 95 3c d5 21 0a 3e f2 5e fa 3d ff ac b5 bc
       0.018206375 0.13489468 0.12225141 -0.022177218
000020 dc 03 b7 3d 14 be ff 3d d8 a9 2f 3e 6a 72 53 be
       0.08936283 0.124874264 0.17154634 -0.20649114
000030 54 01 15 be b9 80 2e be aa f8 fa 3d 66 90 ab 3d
       -0.14551288 -0.17041291 0.1225446 0.08377151
000040 b6 b7 9a bd 36 4c 1a 3e d3 4f 1d 3b d3 8c 79 be
       -0.07554571 0.15068135 0.0024003878 -0.24370126
000050 70 a7 3c 3e 01 2d 47 bc 34 b6 21 be 33 5f 17 be
       0.18423247 -0.012156726 -0.15792161 -0.1478241
000060 c9 42 be bd a4 55 92 bd 4d 55 b8 bd 45 37 0f be
       -0.09290082 -0.07145241 -0.09000645 -0.13985927
000070 f6 04 e6 bd 23 b9 2d bd 05 9d a5 3d a8 a6 eb bd
       -0.11231415 -0.04241289 0.0808659 -0.115063965
000080 4e 31 13 3e 1f 58 78 3d f4 93 f5 3d 02 5d fb bd
       0.14374277 0.060630914 0.119911104 -0.12273599
000090 a6 bb 1b be 7d 2d 54 3e 1f aa 8f bd 7b 29 5f 3e
       -0.15208301 0.20720477 -0.0701487 0.21793167
0000a0 0c c8 fb 3c a9 c6 8d bd bb 56 cb bd 91 b1 39 3e
       0.030735038 -0.06922657 -0.09928652 0.18134142
0000b0 2d 91 3a be 9f ea ec 3d 92 84 6e 3c fa db 61 3c
       -0.18219443 0.11568188 0.014557974 0.013785357
0000c0 55 a9 a8 3d 58 8e 46 bd 14 74 17 be ed 12 48 3e
       0.082354225 -0.048475593 -0.14790374 0.1953847
0000d0 93 76 21 3d 06 9e 23 be 44 a8 0f 3d 07 47 95 3d
       0.03941972 -0.1597825 0.03507258 0.07288938
0000e0 a8 e3 2d bd 18 e2 a6 3d c1 ae ee bd bc 91 dd bd
       -0.042453438 0.08148593 -0.116544254 -0.10818812
0000f0 e1 b1 e6 3d 1e 2c f8 3d 74 fb 8a bc a5 a1 43 3b
       0.112643965 0.1211779 -0.016965605 0.0029850986
000100 15 2f 83 be 74 ff b9 bd ad 1a 56 3d b0 28 a0 3c
       -0.25621858 -0.09081927 0.052271534 0.019550651
000110 c6 c6 60 be cf 46 8b 3d 2f 98 20 3e 61 a3 2d 3e
       -0.21950826 0.06800615 0.15683053 0.16956855
000120 f4 c4 2f 3d d7 61 02 be bb c1 fd bd 08 36 c6 39
       0.04291244 -0.12732635 -0.12390467 0.0003780576
000130 2d f3 09 be dc 42 c4 bd 20 17 0e 3e c3 64 57 3e
       -0.1347167 -0.09583065 0.13876009 0.21034531
000140 2a dd c7 bd 92 cf 26 3e 64 eb 06 bb 91 d2 9c 3e
       -0.097589806 0.1629012 -0.002058708 0.306294
000150 31 c2 a9 3d 07 77 0d 3e 4a e8 09 3e 5f 01 ff bd
       0.08288992 0.13814937 0.13467517 -0.124514334
000160 59 52 37 3e d8 b5 e9 bc 12 9d 7b be bf 31 af be
       0.17902507 -0.028529093 -0.24571636 -0.3421764
000170 0c f6 97 bc 94 52 6f 3e 74 26 05 be 74 44 e0 3d
       -0.018549941 0.23371345 -0.1300295 0.109505564
000180 90 f1 24 be c7 83 df 3d 0f 7d d8 bd 1b 82 93 3e
       -0.16107774 0.109138064 -0.10570728 0.288102
000190 c3 bb 90 3e 0b a1 48 3c 61 b5 06 3e e3 04 c2 bc
       0.2826825 0.012245427 0.13155128 -0.02368397
0001a0 81 e8 48 be a3 65 42 3c 5f d6 21 be 43 3e b2 3c
       -0.19619943 0.011865052 -0.15804432 0.021758204
0001b0 49 d5 04 3e 6e 49 48 3d 4c d6 d5 bc fe b9 a7 bd
       0.12971987 0.048898153 -0.026103161 -0.08189772
0001c0 23 95 88 3e ac 42 e7 bd 91 01 20 be 8a 77 a7 3d
       0.26676282 -0.112920135 -0.15625598 0.08177097
0001d0 aa d5 25 bc 0a 8b ae bc ae f4 0d 3e 46 2b 55 3e
       -0.010121742 -0.021306533 0.13862869 0.20817289
0001e0 9c 70 de bd ea 8e 0f 3e 81 7b 5d 3e 71 be b5 bc
       -0.10861322 0.14019361 0.21629144 -0.022185536
0001f0 b5 ae 07 bb cf c8 26 3d dc a7 7b 3d fb df dd bd
       -0.0020703499 0.04071885 0.06143938 -0.108337365
000200 cb ae b8 3d 9f 8c 1a 3e 30 5c 3e be 97 aa 94 bd
       0.09017714 0.15092705 -0.18589854 -0.072591
000210 d2 cf 01 be c6 28 a5 bd 99 22 ed bd 00 48 7f 3d
       -0.12676933 -0.080644175 -0.115788646 0.062324524
000220 6a 23 33 3e 06 f1 a9 3d 58 4f 37 3e 2c 45 ac 3d
       0.17493978 0.08297925 0.17901361 0.08411631
000230 6a 22 f4 bd a3 14 1e be ba 2d 85 bd b6 77 02 bd
       -0.119206265 -0.1543756 -0.06502862 -0.031852446
000240 4f 31 15 be d8 a1 2c be 88 92 02 be f1 2d fd bd
       -0.14569591 -0.16858613 -0.1275121 -0.12362278
000250 6a 06 ca bb 8d 3f 9b 3d 55 79 eb bd 0e 82 18 3e
       -0.0061653154 0.07580481 -0.114977516 0.14893362
000260 b8 bf fa 3d 12 d2 de bb 57 31 e9 3c d6 97 30 3c
       0.12243599 -0.0067999447 0.02846591 0.010778388
000270 50 91 64 bc aa 1f e2 bc 6e 87 41 3e 96 17 58 bd
       -0.013950661 -0.02760299 0.18899319 -0.05275687
000280 62 83 1e 3e d8 52 52 bd 62 29 47 3e ea 53 a2 bd
       0.15479806 -0.051348537 0.1944938 -0.079261616
000290 0b 6e 67 3d dc d1 1b 3b 99 73 4a be 33 f4 ce 3d
       0.05650143 0.002377621 -0.1977066 0.10105171
0002a0 68 8d 3c 3b 1f 6b b2 bd 1a 9c c0 3d 5b f1 3f be
       0.0028770808 -0.08711838 0.09404774 -0.18744414
0002b0 66 c8 70 3c cc e4 bc 3c 1d 17 d1 bd 6a e6 a4 bd
       0.014696216 0.023058318 -0.10209487 -0.080517605
0002c0 bf da f1 bc 33 52 10 be 26 9d 04 3b 52 63 02 3e
       -0.029523252 -0.14093857 0.002023527 0.127332
0002d0 89 e2 cb 3b a5 ab 95 3d e4 6b a9 bd 83 d8 86 be
       0.0062220735 0.07308129 -0.08272532 -0.2633706
0002e0 06 79 c9 3b 01 59 1e bd 0c e2 e7 ba 91 19 f3 3d
       0.0061484603 -0.0386591 -0.0017691269 0.11870111
0002f0 8e d8 89 3d 9d 81 36 3e 66 54 8e bc d8 df bc bd
       0.06730758 0.17822881 -0.017374229 -0.09222382
000300 1a f1 10 be 0f d0 ae 3c 2c 82 25 bd 96 ef 07 be
       -0.14154473 0.021339444 -0.040407345 -0.13274989
000310 62 b6 ec bd d7 30 ef bd 65 5d af bd 6b cf 25 bd
       -0.11558224 -0.11679237 -0.085627355 -0.040481012
000320 1a 87 1d bd bc 56 79 bd 12 27 bf 3d 6f d4 d6 bc
       -0.03845892 -0.060873732 0.09333624 -0.026224343
000330 c1 4a ca bd a0 eb 04 3e 2a 2f bc 3c 7a f7 8a 3d
       -0.098775394 0.12980509 0.022971708 0.06785484
000340 0d bd b9 3d bc 2e 81 bd 54 61 b1 3d 3a 90 d6 bd
       0.09069262 -0.06307742 0.08661142 -0.10476728
000350 79 1b 1f be a7 94 c9 bd 55 c9 e1 3d d7 96 e1 3d
       -0.15537824 -0.09842806 0.11024729 0.110150985
000360 92 ea 22 be 4f d5 18 3e ac 15 f4 3c 0d dc ce 3d
       -0.15909794 0.14925121 0.02979549 0.10100565
000370 6f b4 32 bb 7f 75 87 3c 4b f0 9d bd 06 39 5e bd
       -0.0027268191 0.016535519 -0.07711848 -0.0542536
000380 da cc 4f be 99 f4 fd bd c9 f8 ca 3d f3 a4 9f bd
       -0.20292988 -0.12400169 0.09910733 -0.077951334
000390 6a 76 a1 3d bb 69 53 3d 93 9d 92 bb fd 6e 31 be
       0.07883914 0.051614504 -0.0044743507 -0.17327495
0003a0 3e 4a 5b bd 7a 5d bd bd 14 a8 fc 3d 22 2e 83 bd
       -0.0535376 -0.09246345 0.12336746 -0.064052835
0003b0 8c df 2d be 92 2a 84 3d 00 79 a7 3d de 75 11 3e
       -0.16979808 0.06453432 0.08177376 0.14205119
0003c0 d6 05 69 3d 80 91 86 3c c2 08 31 3d d7 5a c4 3c
       0.05689033 0.016426802 0.043221243 0.023969097
0003d0 87 f2 6d 3d 9d b6 98 3d c9 38 2a 3d 4f b3 2e be
       0.05809262 0.07456706 0.04155806 -0.17060588
0003e0 d2 93 a9 bb d7 9c 54 3c e4 bd 72 bd 56 6c e9 3d
       -0.0051750923 0.012976847 -0.059263125 0.113976166
0003f0 29 2f aa 3c b8 61 92 3d 81 44 91 bd 46 e6 ca 3d
       0.02077444 0.071475446 -0.07093144 0.099072024

bias f4 [10]
000000 e1 f5 03 be c3 28 20 bd 8a d3 aa 3d 0d fe c6 3d
       -0.12886764 -0.039101373 0.08341129 0.09716425
000010 aa 5c 78 3d fd b8 12 bd 6c 2e 3e 3e d0 70 b2 bd
       0.060635246 -0.03582095 0.18572396 -0.087129235
000020 61 dd d6 bd 76 66 38 bd
       -0.104914434 -0.04501959
