chaoyang_6.pth (torch, 588587 bytes, 10 tensors)

weight f4 [32, 3, 5, 5]
00000000: 8471 56bd c482 0a3e 0d2f cd3d e955 033d
00000010: dff4 d03c 77e8 8dbd 4f76 003e 1b8a de3c
00000020: ccba f03d e690 873b 32c2 103e 8396 2c3e
00000030: d698 823d 48d9 363d 08b2 a7bd 7b08 ae3d
00000040: fc40 0d3e 8386 c63d f924 1d3d bea1 d03d
00000050: 51fc bc3d 4639 47bc d7ec d43d 130e c73d
00000060: 6399 35bd fbdd ac3d f318 6fbd 98b3 3f3a
00000070: ec46 e3bd fbc3 fcbd 5116 b53d 8105 b83c
00000080: b2c8 61bd e91e b9bd 1733 de3c 907c d73d
00000090: 4c20 8b3d 608f 1c3d 15b9 82bc ae89 eebc
000000a0: 11a0 23bc 97bb 48bc d612 fc3d 08a3 96bd
000000b0: 4313 e0bd 4ffc 543d fcf8 1d3d 3202 913d
000000c0: ac84 afbd eba0 173d 28ad fc3c 5d51 e6bc
000000d0: a355 22bd 573c 81bd 1773 0abe d3b0 a8bb
000000e0: 02c9 52bd b6ea 1dbe 48b8 18bd bae5 e8bd
000000f0: 5a5c aebc 91b2 4e3d e72b 1bbe dd20 c4bd
00000100: c7c7 f03c 880e d23c 7e16 873d 9d20 d23b
00000110: 5d0c a7bd 5736 59bd 6598 02be fae7 6b3d
00000120: be8b fbbc d571 90bd ed84 f4bd 5bc7 dcbd
00000130: 3710 0abe e6ac bebd c028 2fbd 95cf bdbd
00000140: a5ac d1bd b3a2 33be b181 2a3d 32cb 00be
00000150: c7f2 ddbc 580b f8bd acd7 e43d de96 37bc
00000160: ac18 493d 00a6 523b 7ac1 7c3d 5c14 0a3e
00000170: b1e5 2f3e 1981 193e 6660 213e b571 94bd
00000180: 340f e93d 31f2 8f3d 5bc9 933d 4e7d 0a3e
00000190: e604 10be b26f e5bd 97e4 82bd fb9b da3c
000001a0: b328 13bb 6dae bdbc 7e62 dbbc b2ed 0dbe
000001b0: c169 adbd a76f 2ebb 3568 9ebd 9758 e03d
000001c0: 61af 99bd 7ca1 b43d cfdf 673d 6fbb 3bbc
000001d0: 2ee8 073e af9b fb3d 765f 013e cf2b 9c3d
000001e0: 14c6 d13c ec9c 9dbd 6de7 953c 8a7f dfbd
000001f0: c389 773d cf49 83bd 9410 a7bd 1e5b 81bc
00000200: 322a 80bd b5b0 72bd 7a7e 7b3d e9d4 723d
00000210: 07bf 5f3d 1fdc 2e3d 3c69 b83d 4f89 da3d
00000220: 3eb9 963d 68bb 0d3e 209a d63d 3f89 8a3d
00000230: 07de 053e 0a70 833d 0da3 343e 4261 1dbc
00000240: 5e34 643d b80d f2bd b862 cb3d 8b6e a23d
00000250: 6454 a53d 83d5 f3bb 20fc af3d 7d19 a4bd
00000260: a05a ac3d 0cc6 083d 9271 1bbe 0454 aabd
00000270: 4f2c f43c 8400 063d 8b49 42bd a099 09be
00000280: f3dc 8f3d 893d 7d3d e017 e63d f3ab a63d
00000290: 2467 b93d a777 b53d 34e4 a23d 6ce5 483c
000002a0: a86c 0a3e ac48 1abb 136c aabd 1fa6 c43d
000002b0: 3c30 bfbc f762 583d c1b0 a33d 4406 c33d
000002c0: 2a2a bcbb f148 b1bd d743 af3c 6f67 00be
000002d0: 75b4 f0bc b98f 15ba d2ea a2bd 637a bd3d
000002e0: 65ed 89bc 5892 ebbc c333 4bbd 01e6 ed3d
000002f0: 0a18 d8bc 45dc 8abd 3836 efbd 95f3 52bd
00000300: cdfe 77bd 78e0 1a3c f573 963d 5ff5 babd
00000310: 916f d1bc e207 983c 8ca3 25bd c9a1 bbbc
00000320: 5237 6abd d54d a3bd 9e68 923d fc8f b13d
00000330: 54aa 01bd 35e7 773d d3e3 f4bc 378e cb3d
00000340: e4a3 39bd cb0d 353c 39aa c73d f92e e6bc
00000350: 8724 fd3d 66cc 71bd f9ed dfbd f42d c4bd
00000360: 4b64 e23c d8b5 743d d978 fa3b 8d8b f53d
00000370: d964 a93c 84e7 7bbc c737 7d3d 3b3c 013d
00000380: 8493 073d 89ee 88bd ac24 43bd 4969 d4bb
00000390: 25d1 e5bd 446f 23bd 75e3 cc3d 9143 3a3d
000003a0: c7f8 10bd d0cd 8dbd d6bb 873d 73ca 823d
000003b0: 5c21 a93d aae4 bc3d 237d 183d 2eee 573d
000003c0: 03e0 fbbd 2b51 eabd 6e41 44be f2c6 2cbe
000003d0: 22bd c8bd b371 43be cc6f d1bd 8422 3bbe
000003e0: 18f1 2ebb aa1b bfbd 5774 bf3d 0217 b4bc
000003f0: 53b8 d13d 1461 9dba 3494 bf3b c91e 0f3e
-0.05235435 0.13526446 0.1001874 0.032064352 0.025507389 -0.06929105 0.12545131 0.027165463
0.11754379 0.0041371463 0.1413658 0.1685429 0.063768074 0.04464081 -0.08188254 0.08497711
0.13794321 0.09693625 0.038365338 0.101871 0.09227813 -0.012159651 0.10396736 0.09719481
-0.044335734 0.08440777 -0.058373403 0.00073128333 -0.11097512 -0.12342068 0.08842147 0.022463562
-0.05512304 -0.09039099 0.02712397 0.10521805 0.067932695 0.03822267 -0.015957395 -0.029118385
-0.009986893 -0.012251756 0.1230828 -0.073553145 -0.10941174 0.051998433 0.038567528 0.07080497
-0.08570227 0.037018698 0.030844286 -0.028114969 -0.03963245 -0.06310337 -0.13520466 -0.005148032
-0.051461227 -0.15421566 -0.03728512 -0.11371942 -0.021284271 0.050463263 -0.15153466 -0.09576581
0.029392136 0.025641695 0.06596087 0.006412579 -0.08156655 -0.05303034 -0.12753446 0.057594277
-0.030706283 -0.07052962 -0.11939416 -0.107802115 -0.13482748 -0.093103215 -0.04276347 -0.09268109
-0.102380075 -0.17542534 0.04162759 -0.12577513 -0.027093304 -0.12111539 0.11173949 -0.011205403
0.049095795 0.00321424 0.06170795 0.13484329 0.17177464 0.14990653 0.1575943 -0.072482504
0.11379853 0.07028616 0.0721614 0.13524362 -0.14064369 -0.11202945 -0.06391256 0.026685705
-0.0022454679 -0.023154462 -0.026780363 -0.13860205 -0.084674366 -0.0026616843 -0.0773472 0.10954397
-0.07504154 0.08819863 0.056609925 -0.011458262 0.13272163 0.12285554 0.12634072 0.07625543
0.025607146 -0.07695946 0.018298829 -0.10912998 0.060434114 -0.06410562 -0.08157459 -0.015790518
-0.06258048 -0.059250552 0.061399914 0.05928508 0.054625537 0.042690393 0.09004447 0.10670721
0.07359551 0.13841021 0.10478616 0.06764459 0.13072978 0.06417854 0.17640324 -0.009605708
0.055714004 -0.11819023 0.099309385 0.07931241 0.08072737 -0.007441224 0.08593011 -0.08012674
0.08415723 0.033391997 -0.15180042 -0.08316806 0.029806284 0.032715335 -0.047433417 -0.1343751
0.070245646 0.061826263 0.112350225 0.081382655 0.09052876 0.088607125 0.079536825 0.01226173
0.13518012 -0.002354185 -0.08321395 0.096019976 -0.02333843 0.052828755 0.079926975 0.095226794
-0.005742331 -0.086564906 0.021394653 -0.12539457 -0.029382924 -0.0005705315 -0.07954945 0.09251859
-0.016836831 -0.028756306 -0.04960991 0.116161354 -0.02637865 -0.06780294 -0.11680263 -0.05150183
-0.06054573 0.009452932 0.07346336 -0.09128832 -0.025565894 0.018558446 -0.040439174 -0.022904294
-0.057181664 -0.0797383 0.071488604 0.08670041 -0.03165658 0.06052323 -0.029893791 0.09939235
-0.045322314 0.011050652 0.09749264 -0.02809857 0.12360483 -0.05903282 -0.109340616 -0.09579077
0.027635714 0.059743732 0.0076438007 0.11989508 0.02067797 -0.015375022 0.06182077 0.03155158
0.033099666 -0.06686122 -0.047642395 -0.0064822775 -0.11221532 -0.039901033 0.100043215 0.045474593
-0.035393503 -0.06924021 0.06627624 0.063862704 0.08258316 0.09223302 0.037228715 0.05271738
-0.12298586 -0.11441263 -0.19165584 -0.16872767 -0.09801699 -0.19086342 -0.10226402 -0.18274885
-0.0026693996 -0.093314484 0.09348362 -0.021983627 0.10240235 -0.0012007081 0.0058465246 0.13976587

bias f4 [32]
00000000: 66f1 b3bd 5ad5 97be 0028 26be a67c 21bc
00000010: b4a4 d9bd 8bb5 523d 361d 49be 3df7 34bd
00000020: 50d1 463e d0ca a3bb a689 393e 0685 2dbe
00000030: b453 273e 4ca1 2c3e 14ab 43be 311c e53d
00000040: d9a3 13be d008 89be b8f2 433e cb03 163d
00000050: b59c 44bd 479d 15be 8c85 1b3e 5993 253d
00000060: 38c2 543e 480f 593c cc94 13be 37de 293e
00000070: 383e 4bbe cd60 923c 97a0 abbd 4121 12be
-0.087862775 -0.29654962 -0.16226196 -0.009856379 -0.10627118 0.051442664 -0.1964005 -0.044181097
0.19415784 -0.0049985424 0.18118915 -0.16945276 0.16340524 0.16858405 -0.1910823 0.11187018
-0.14417972 -0.26764536 0.19135559 0.03662471 -0.04800101 -0.14610778 0.15187663 0.040423725
0.20777214 0.013248272 -0.1441223 0.16588674 -0.19847953 0.017868424 -0.083802395 -0.14270498

weight f4 [32, 32, 5, 5]
00000000: b295 19bd 8fa8 0abd edfd 9dbc 87b8 e53c
00000010: 2164 94bc 4f1d 05bd 90e1 2bbd bf25 20bd
00000020: 093f 36bc 834e 81bc 831c 09bd a8ce c0ba
00000030: 7a56 debc e265 92bb cc6c c53c 36cf 823b
00000040: b55a 4cbb b79f 20bd dec6 1f3d 38e5 94bc
00000050: fe0d cc3c 7bd3 483c 31f4 77bc c29c 85bc
00000060: 2e47 253c 3ea3 ecbc f7f8 5dbb afcd 073d
00000070: 97f4 a93c d7ba 533b 55d0 253b 800c 85bc
00000080: 7f6e 03bc 3524 483b 7fe3 2bbc 74c3 bc3c
00000090: 95a8 933c 7fbc 503d fd9a a83c df4f 393b
000000a0: c2ab c13c 3bb0 7a3d c425 803d 7156 193d
000000b0: 5856 af3c d7b5 f2bb 6cb2 133d 607a 13bb
000000c0: 9e97 413d d29c 403d afd8 743b 8da1 eebc
000000d0: 37e0 f33c 05b0 f53c f226 8abc bda9 a43c
000000e0: daf0 0cbc 0872 45bc ff02 f13c 7e1f 8bbc
000000f0: 9add bc3c a18f cebc 211b bc3c 872c 193d
00000100: 0273 033d 7378 bbbb afc2 aeba 9598 f93c
00000110: 5a10 393c fd19 b6bc b705 053d 2ef9 093d
00000120: 529b 9ebc 7869 253d 6180 c4bb cea4 273c
00000130: 4a45 bdbc 8b40 7dbc b04b 9fbc e154 ecbb
00000140: 5c87 1a3c 0df8 20bc 0770 5bba 4d82 edbc
00000150: 41a2 123c 939d 88bc 81b9 b0bc 7020 71bc
00000160: fb58 863c 9426 f4bc 9929 c33c f64e 403c
00000170: 504f 3bbb f678 22ba 5087 f6bc 33ee b53b
00000180: 895d c6bb ca3c 1b3c 6d8e 0abd 54eb 86bc
00000190: 2d65 f73c ee9e 973c 506b d7bc 8a35 7c3b
000001a0: 6410 a3bb 853f 4fbc bd1d cf3b 7d6c 8c3b
000001b0: 8354 4b3c 0430 ed3c 810b ddbc a2cf 243d
000001c0: 2325 11bc 8f97 2c3d 107f 0dbc 85ae baba
000001d0: 6a2e 85bb e109 a9bc b111 fabb 8874 a53c
000001e0: 4b5d 0d3d 3886 923a 3620 de3c 90f9 183d
000001f0: 476b 79bc 952a c23c 09bd a6bc 23f1 42bd
00000200: 5068 3f3c 08f1 5fbc e244 a73c 5ae5 aebc
00000210: ee00 25bd 71f1 1ebd a7b4 82bc 8eac 463c
00000220: 36a7 90bc 2c6d 0ebd bb43 bdbc 90cf d83c
00000230: bac3 14bd f73f bc3b 679a 1ebd 33c5 b33c
00000240: d446 b43c 9f9b f8bc 5ea9 32bb 1a01 c6bc
00000250: 3bf6 1bbd d3b2 c0bc 8ee5 5ebc ad74 1ebc
00000260: a9fd 00bd 4d28 00bd 9e20 cc3c 841d c73b
00000270: 7109 c4bc cf37 f3bc aef9 fa3c 4216 f63b
00000280: 0904 193d b418 d0ba a51d df3c ad67 ad3c
00000290: cd1b 673c d927 01bc b052 f23b 4814 12ba
000002a0: e80d 07bc af6d 103d b155 77bc f7b5 7bbb
000002b0: 8156 093d 6732 903a ec6d ef3c 5c76 abbc
000002c0: e8e6 223a 5b5c 723c 8eba d03c 0db6 6d3c
000002d0: da17 0f3d 16d5 4c3d c17f 75bc eb47 9d3c
000002e0: 950e fb3c af96 58bc dab6 233d 6298 18bc
000002f0: 2ab9 b03c e4af ae3b 279f 3f3b 9f40 00bd
00000300: a5f7 42bb c4a4 06bd 47ca 27bd de58 1cbd
00000310: 7312 0bbd 6866 83bc bdb6 e1bc 21d2 febc
00000320: eaf1 093d 119b 71bc 8665 c6bc 45dc 8a3c
00000330: 2460 653a fd04 063c 3b12 f4bb 18d5 8bbc
00000340: a3b0 5a3c d1e3 03bd caec 5bbd e420 a339
00000350: 79b3 64bd d009 86bc a244 efbb f10e 3dbd
00000360: f7b1 45bd 11f7 57bd 3677 59bd f780 51bd
00000370: b6f4 d3bc 13af 24bd 88c7 ac3c 528b dbbc
00000380: e572 dbbb 9b76 9e3c 3db3 0dbd 24bb b1bc
00000390: c450 7ebb 979a c0bc 6d55 dfbb 9e4d 27bc
000003a0: e714 4dbb d067 88bb fdc2 f63c 24a1 6ebc
000003b0: 6c27 cd3c 13b7 8bbc b098 573c ba1c 92bc
000003c0: 855a 783c b26f aa3c 1295 c73c acd7 aabc
000003d0: a4c1 3abc 0d47 ac3c b11d e2bb c87d 17bc
000003e0: 90ef 1cbd 54a0 9ebc def7 633a bef3 263d
000003f0: 3f7b 61bc 015d ebba 5f96 3cbb 2b9b ca3c
-0.037496276 -0.033852156 -0.01928612 0.028042091 -0.018114151 -0.032498654 -0.04196316 -0.039098497
-0.011123427 -0.015784508 -0.033474457 -0.0014710026 -0.027140845 -0.004467712 0.02409973 0.0039919866
-0.0031181995 -0.039214816 0.039008014 -0.018175706 0.024909016 0.012257452 -0.015133903 -0.0163101
0.010087771 -0.028886434 -0.0033870318 0.03315514 0.020746512 0.003230741 0.0025301178 -0.016241312
-0.00802195 0.003053916 -0.010491251 0.023042418 0.018024722 0.050961014 0.020581717 0.0028276367
0.02364147 0.061203223 0.06257203 0.037435953 0.021403477 -0.007406931 0.03605883 -0.002250336
0.047263734 0.047024556 0.0037360599 -0.029129768 0.02977 0.02999116 -0.016864274 0.020100469
-0.008602345 -0.012051113 0.029420374 -0.01698279 0.023054887 -0.025214972 0.022962155 0.03739598
0.032092102 -0.005721146 -0.0013333167 0.030468265 0.011295402 -0.022229189 0.032476153 0.033684902
-0.019361172 0.040383786 -0.0059967493 0.010232164 -0.023104329 -0.015457283 -0.01944527 -0.007212267
0.009431686 -0.009824765 -0.00083708804 -0.028992796 0.008949817 -0.0166767 -0.02157283 -0.014717206
0.016399851 -0.029803552 0.023823546 0.011737576 -0.002858121 -0.0006197834 -0.030093819 0.005552077
-0.0060536307 0.009474942 -0.033827234 -0.016469635 0.030199612 0.0185084 -0.026296288 0.003848406
-0.004976319 -0.012649422 0.0063206838 0.0042853937 0.012410286 0.02895356 -0.026983025 0.040237077
-0.008858952 0.042136725 -0.008636251 -0.0014242685 -0.004064371 -0.020634593 -0.0076315035 0.020197168
0.0345128 0.0011178916 0.027114969 0.037347376 -0.015223331 0.023701945 -0.02035381 -0.047593247
0.011682585 -0.013668306 0.020418588 -0.021349598 -0.04028409 -0.038804475 -0.015955282 0.012126101
-0.017657857 -0.034772083 -0.023103585 0.026466161 -0.036319472 0.00574493 -0.03872147 0.021944618
0.02200643 -0.030347643 -0.0027261595 -0.024170447 -0.03807662 -0.02352277 -0.013604535 -0.009671372
-0.03149191 -0.031288434 0.024917897 0.0060765166 -0.023930283 -0.029689698 0.030636635 0.0075099776
0.037357364 -0.0015876503 0.027235815 0.0211676 0.014105749 -0.007883036 0.007395111 -0.000557248
-0.008243062 0.035260852 -0.015096114 -0.003840802 0.033529762 0.0011001349 0.02922722 -0.020930462
0.0006214217 0.014792527 0.025479581 0.014508736 0.034934856 0.050007902 -0.014984072 0.019199332
0.030646602 -0.0132195195 0.039969303 -0.009313675 0.021572668 0.0053310264 0.002923915 -0.031311627
-0.0029749658 -0.032871976 -0.04096439 -0.038170688 -0.03395314 -0.016040042 -0.027552957 -0.031106057
0.033677973 -0.014746443 -0.024218332 0.016950736 0.0008749983 0.0081799 -0.0074484623 -0.017069384
0.013347778 -0.032199685 -0.053692617 0.00031114288 -0.05583522 -0.0163621 -0.007301883 -0.046156827
-0.048265424 -0.052725855 -0.053092204 -0.05114838 -0.025873523 -0.040206026 0.021091238 -0.026799832
-0.006697046 0.019343665 -0.034594763 -0.02169568 -0.0038805464 -0.023511214 -0.0068156035 -0.0102113765
-0.0031292976 -0.004162766 0.030122275 -0.014564786 0.025043212 -0.01705507 0.013158962 -0.017835964
0.0151583 0.020805214 0.024363074 -0.020854793 -0.011398707 0.021029973 -0.006900512 -0.009246297
-0.038314402 -0.01936356 0.0008696298 0.040759794 -0.013762294 -0.0017956794 -0.0028776152 0.024732193

bias f4 [32]
00000000: 72b6 e4bd 557d f2bc 5847 94bd e198 103d
00000010: beb7 88bc d6ec 21bd dabd 273c 8a73 82bd
00000020: c9cd ce3c 9ac1 dfbc 314d eebc 5c47 503d
00000030: 32b0 77bb 1be5 a13c 189c 273d 1303 8bbd
00000040: 0d33 643d befe 54bd e546 a3bc 5ff5 833d
00000050: ca5e 42bd d25c d3bd 886f 06bd c410 3c3d
00000060: a0ef 493d cc19 25bd 3738 9f3c 7d1c 69bc
00000070: 5102 84bc add4 a9bd 04a8 163c 6772 513c
-0.11167611 -0.029600779 -0.0724017 0.035302047 -0.016689178 -0.039532505 0.010238135 -0.063696936
0.02524461 -0.027313996 -0.029089542 0.050849304 -0.003779423 0.019762566 0.040920347 -0.06787696
0.05571275 -0.052000754 -0.019931266 0.06443285 -0.04745368 -0.103204384 -0.03282121 0.045914426
0.04930079 -0.040307805 0.019435985 -0.014227984 -0.016114386 -0.08292518 0.0091953315 0.012783623

weight f4 [64, 32, 5, 5]
00000000: 6654 d3bc 4a46 91bb fad9 d6ba 398c 05bc
00000010: 14e0 6a3c b1ab 62bc 110d 8fbc 959a 273c
00000020: f77e b03c 0fc1 233d 7542 163d e846 0d3d
00000030: 40e8 533d 2c58 753c 243c db3c 66e6 72bc
00000040: 6865 64bb 5d33 1c3c 11e8 d6bb 5c81 bf3c
00000050: 7732 21bb c0da 993c cacf 563b af69 0e3d
00000060: f81c 8939 3108 a13c 5f26 873c 901c fabc
00000070: 4a67 f43a f553 bbbc b911 62bc cb52 f8bc
00000080: f282 faba 9c08 973a 2bb2 aabc cb92 043d
00000090: ef37 6d3d d32a 443d 7279 80bb 9021 313d
000000a0: 3cfc c93c a888 8bbb 4bb3 543d 89f3 4d3d
000000b0: d0d0 3f3d 9a9a 253b 35c7 2cbd 40ba 83bc
000000c0: bbe3 c03b c000 5c3c 4001 aeba 358d 90bc
000000d0: 7c35 893b 1016 ac3b 0938 673c ee8a 053d
000000e0: 8de3 c8bb 551c f13c cab1 023c f309 11bd
000000f0: 57d5 edbc f0ec bd3c cf45 a33b 5ec9 853c
00000100: ef06 babc 1e5c 163d 93b0 0b3c f194 073d
00000110: 3c3f 6bbc c6d6 093d 3ca3 e03c b2ee a73c
00000120: a5e0 e03c 1248 d439 4ad2 aabb 6863 fd3c
00000130: f8c6 2d3b 48f9 9fbc 3809 773c 18b7 483c
00000140: 09ef beba 039a ed3b d66d c5bc ed6e 483c
00000150: 7fad 25bd b0a3 243d 1602 3c3d 440b 473d
00000160: 94c5 c73c 98ca 483c 02fc 763c 7013 96ba
00000170: 4b9d 1a3d 0353 febb 753a b2b9 3068 33bb
00000180: d173 ad3c 13b3 a6bc a32c 80bc 95ef d13b
00000190: df6a 5cbc 532a 053c 0629 a03b 5aec c73a
000001a0: fc4f 023c cba0 5fbc ccef 103c 1b6d 74bc
000001b0: c21d f03c f23c aa3c c76f 593b a621 bc3c
000001c0: 14c0 b7bb 31f9 8e3b 7964 82bc 8476 243c
000001d0: 9396 75bc 5ffd 283c d068 bdbc 629d 113d
000001e0: 783c 513c 66ce 4e39 a456 f5bc cd2e 04bd
000001f0: 5a99 a0bc 232a f53c 44c8 5fbb 8a99 bdbc
00000200: c739 f839 f7f1 b5bc 590e e5bb 55db 60bc
00000210: 5c54 773c 6f50 59bc e4f9 0bbc 02d7 4f3d
00000220: 1888 093d 0a1a 1f3d ec80 3c3c 148f b33c
00000230: 2e30 803c 7e99 033d 0ef2 af3c af0c 1d3d
00000240: 544b 94bc 6152 9c3c 969d e4bc 2bc9 2ebb
00000250: 8a8d ae3b 930d b6bc 5e93 fb3c 1ac7 2e3a
00000260: 618f 43bc 6f07 22bc 1ebd c1ba e30c 0bbb
00000270: a830 bb3c 53f1 7d3c 4651 db3c a608 22bb
00000280: b5ff 3ebc 4864 093c d00c 2e3d d5ba 223d
00000290: 1d91 ff3c 4931 2b3c 11ed 76bb 500c dfbc
000002a0: 6f91 e6bc 1be3 eabc c584 e4bc 3713 d5bc
000002b0: 1a32 a7bc 8ee9 b23c 72a1 c33c ff91 c53b
000002c0: 6bb6 cf3b 80ce 993c 4f1f e6bc d813 f6bc
000002d0: b94e cc3c c431 e3bc aab3 87bc 0c16 89bb
000002e0: e38a b1bc 40de be3c 0c57 d43c 12df 0ebc
000002f0: 8e05 c73c 5985 88bc 9eba babc 59d5 263c
00000300: 2078 c23c 04c8 cabb fbd8 34bc 5d5d b2bc
00000310: ab62 a13c 11da c53b 5257 563c b437 2dbc
00000320: 198a 6d3c 37d0 c53c 043c 153d 80cc 9e3c
00000330: f155 2cbb 5ab6 6a39 8bd8 00bc 12fd e5bb
00000340: db6a 813c 49eb 50bb 3c78 943c 796c 81b9
00000350: dde3 f03c 2ff5 cebc 9c82 043d 6f91 4c3c
00000360: 713c d33c cc0c 2b3c bd9c 1e3c ea23 02bd
00000370: e765 abbc 06ab 153d 39f5 12bd 3f16 09bd
00000380: b2bf 25bd 3696 d53c 2648 c03c 97e9 87bc
00000390: b999 713c 8401 ec3c d6ae 8c3c cfb1 1b3a
000003a0: 142d ad3c c10f e1bc 420a b83b 081f cebc
000003b0: 691c 443b 5665 40bb c6fa 043d d093 cc3c
000003c0: 6e27 1b3d feaa 58ba 1725 aa3c 125c ccbc
000003d0: b19d 313d 4d06 203d d82b 133d 8871 69bb
000003e0: e6a6 70bc f8e0 c3bc df04 d53c 3b24 52bc
000003f0: 3dbb 563c ae6d b8bb 5c57 a13c 98e5 02bd
-0.02579708 -0.004433428 -0.0016391866 -0.0081511075 0.014335651 -0.01383488 -0.017462285 0.010229726
0.021544917 0.039979037 0.036684472 0.03449145 0.051735163 0.014974635 0.026762076 -0.014825439
-0.0034850482 0.00953373 -0.006558426 0.023377113 -0.002459673 0.018781066 0.003277766 0.034768756
0.0002615226 0.019657226 0.016497789 -0.030531198 0.0018646505 -0.022867182 -0.013798171 -0.030312916
-0.0019112511 0.0011522952 -0.02083691 0.032366555 0.05791467 0.047892403 -0.0039207274 0.0432449
0.024656408 -0.004258234 0.0519288 0.05028108 0.04683 0.0025269152 -0.042182166 -0.016080022
0.0058865226 0.013427913 -0.0013275519 -0.017645458 0.004187284 0.0052516535 0.014112481 0.032603197
-0.006130642 0.029432455 0.0079769585 -0.03540988 -0.029032392 0.02318427 0.004982687 0.01633137
-0.022708384 0.036708944 0.008525985 0.033101026 -0.014358338 0.03365209 0.027421586 0.020499561
0.027450869 0.00040489488 -0.0052130567 0.03093119 0.00265163 -0.019528046 0.0150778815 0.012250684
-0.0014567088 0.0072510256 -0.024100225 0.012233478 -0.040448662 0.040195167 0.045900427 0.048594728
0.024386205 0.012255333 0.015074732 -0.0011449885 0.037747663 -0.0077613606 -0.0003399436 -0.0027375333
0.02117339 -0.020349061 -0.015646284 0.006406734 -0.013453214 0.008127767 0.004887703 0.0015252933
0.00795364 -0.013649176 0.0088462345 -0.014918591 0.029311065 0.020781014 0.0033178197 0.022965264
-0.0056076143 0.004363202 -0.01591705 0.010038022 -0.014989513 0.010314315 -0.023121268 0.035550483
0.0127707645 0.0001972258 -0.02994854 -0.032271195 -0.019604374 0.029927319 -0.0034146467 -0.023144502
0.00047345294 -0.022210104 -0.0069902358 -0.013724168 0.015095796 -0.013263806 -0.008543465 0.050742157
0.033577055 0.038843192 0.011505347 0.02191881 0.015647974 0.032128803 0.021477725 0.038342174
-0.018102325 0.01908225 -0.027907174 -0.0026670198 0.0053269314 -0.02222327 0.030709919 0.00066672417
-0.01193604 -0.009889468 -0.0014781093 -0.0021217398 0.02285035 0.015499431 0.026772153 -0.0024724393
-0.011657645 0.008385725 0.042492688 0.03972896 0.031197125 0.010448762 -0.0037677924 -0.02722755
-0.02814552 -0.028672745 -0.02789534 -0.026010139 -0.020409632 0.021839883 0.023880694 0.006029367
0.0063388846 0.018775225 -0.028091101 -0.03003876 0.024939882 -0.027733691 -0.016565163 -0.0041835364
-0.021672672 0.023299336 0.025920413 -0.008720176 0.02429464 -0.016665148 -0.022794064 0.010182702
0.02373892 -0.0061883945 -0.01103806 -0.021773035 0.019700369 0.0060379584 0.013082342 -0.010572363
0.014498257 0.024147136 0.03643419 0.019384623 -0.0026296342 0.0002238391 -0.007864128 -0.0070186937
0.015798023 -0.0031878522 0.018123738 -0.00024685616 0.029405529 -0.025263397 0.03235112 0.012485846
0.025785657 0.010440063 0.009680924 -0.03177253 -0.020922614 0.036540054 -0.035878394 -0.03346848
-0.040466018 0.026072603 0.023471903 -0.016590877 0.014746123 0.028809316 0.017173212 0.00059392763
0.021139659 -0.027473332 0.005616457 -0.025161281 0.002992416 -0.0029357276 0.03246572 0.024972826
0.0378794 -0.0008265226 0.020769639 -0.024946246 0.043363277 0.03906851 0.035930485 -0.0035620648
-0.014688229 -0.023910984 0.0260033 -0.012826021 0.0131061645 -0.005628309 0.019694977 -0.03195724

bias f4 [64]
00000000: 1d46 3cbd 0f57 113d 2c97 b13b 693b d63c
00000010: 21d5 0f3c 435f 3fbc 31ba 853c 3dfe 5bbc
00000020: dac7 c6bc 7f26 15bc 3af0 663b bd38 d43b
00000030: 37d1 9fbd c7df e13b 41f6 173c cf82 2dba
00000040: f638 85bb 3ce7 31bd 4c93 3cbd 6588 dcbc
00000050: c295 9ebc f526 9bbc f8a9 47bd c0f7 86bc
00000060: 0795 10bc 28d1 04bd 9c4e 99bc 45c2 8dbc
00000070: 402e 5a3c 5262 d7bc 0ffc 80ba 14c1 fb37
00000080: 490b b13a 66cb 22bc 5bbc 09bd fa0b 8dbd
00000090: 15f1 8b3c 21c9 203d 5198 e8bc d24c c3bc
000000a0: 0232 d93c 2177 413c 402e 45bd 7d78 64ba
000000b0: 8165 4fbc fe5e 0ebd 03c5 a5bd 58be 5dbc
000000c0: f2b9 bbbb 16d6 813c e1f9 30bd af8a 7d3c
000000d0: c5c8 3f3c 443a f0bc afd3 f6bc d5e9 32bc
000000e0: a962 5abc 3faa 1e3d c2bc b1bb a9e1 9f3c
000000f0: 72ff cfbc 04e9 d1bc 4038 c63c 680b 093c
-0.045965303 0.035483416 0.0054196324 0.026151376 0.008778841 -0.011680427 0.016324135 -0.013427314
-0.024265219 -0.009103416 0.00352384 0.0064764903 -0.078035764 0.0068931314 0.00927502 -0.0006618918
-0.004065628 -0.043433413 -0.04603891 -0.026920507 -0.01935852 -0.018939475 -0.04874608 -0.016475558
-0.008824593 -0.03242603 -0.018714242 -0.017304549 0.013316691 -0.026292 -0.0009840744 3.001144e-05
0.0013507392 -0.009936189 -0.033626895 -0.0688705 0.01708273 0.03925431 -0.028392943 -0.023840342
0.026513103 0.011808188 -0.04813981 -0.0008715464 -0.012658478 -0.03475856 -0.08094218 -0.013534151
-0.0057289535 0.015849154 -0.043207053 0.015474959 0.011705582 -0.029324658 -0.030130235 -0.010920008
-0.0133291865 0.038736578 -0.005424113 0.019516783 -0.02539036 -0.025623806 0.024196744 0.008364536

weight f4 [64, 1024]
00000000: 8b2a c6bc 6310 bdbb ca98 c63c 0887 f6bb
00000010: 02fc 7dbc 448a 0cbc 1d91 09bc 293a 033d
00000020: 9ef7 1b3c 42c7 afbc 3bac 1f3c 3c28 cf3c
00000030: 25f7 203c 60d0 b93c 451c d23b fe88 17bd
00000040: d092 d33b 08e3 8abc a0c8 bebc 9217 d5bc
00000050: b9dd acbb f3eb 543b 4583 d9bc 7740 39bc
00000060: f090 1d3c c9c0 783c 073b 813c 6b50 2bbc
00000070: b1a4 79bc 75e5 333d 8e75 983c a8a1 08bd
00000080: 3157 863c 7738 ae3c 0233 52bb bccd b8bc
00000090: 6b36 86bc 9316 bebc 5699 88bc df26 cdbc
000000a0: de7a 24bc a9b5 503c bf98 bfba f1f9 92bc
000000b0: 984b 3cbc 9ce0 97bb a673 39bc 0bd2 3d3b
000000c0: d4cb b03c 83ad 243c 1426 d5bc ac79 c139
000000d0: 29d2 92bb 4cf5 f13c b769 e8bb b721 d33c
000000e0: cbd4 e23a a3c5 373c 2073 44bc 98e3 cbbc
000000f0: 67e7 9fbc 7f89 5d3c 2b7a b63b b615 30bc
00000100: 33b8 913c edc5 d63c b546 a0bc 5cc1 78bc
00000110: e6be e2bc 1dac 71bc d502 4f3c 22ed 6ebb
00000120: a5f4 19bd bf27 bebc 6992 b3bc bb8f ba3a
00000130: 638c 25bc 2fac 953b 2650 953c e186 80bb
00000140: 2cc7 e0bb 2522 1a3b d316 2cbc b3f7 11bd
00000150: 3047 1d3d dfbe febc d532 d2bb da2d 8aba
00000160: a8d2 e83a 8b93 efbc bdaf 1dbd 0542 0c3d
00000170: 4f9a 063a 9033 f3bb f335 0f3a 2c97 bcbc
00000180: 38b7 38bc 281d 8f3c 0f2d b23a caf4 91bc
00000190: 12e5 7ebc 9cef 103d 84bf 903c a98b 823b
000001a0: adaf 7abc d34b f63c 5285 b7b9 8381 55bc
000001b0: d601 fd3b 2c23 2abd af9d e8bc bcc6 173d
000001c0: 4c26 83bc f0af 4e3c aa5f ce3c 01df b43c
000001d0: 5971 ca3c dfc1 e83c 503a f7bb ecf6 a63c
000001e0: d1cd aa3c f572 123d 3f1f 4b3c b987 45bc
000001f0: 6520 0cbc e3cd 8d3b a40d bf3c a41f dbbc
00000200: fe8d 11bc e854 19bc 7ea7 453c c1b6 ad3c
00000210: 823b 243c bed3 7d3c 96a0 9d3c 8776 363b
00000220: 58e1 96bb 59db abbc 1738 e6bc 4c1b d5ba
00000230: 9e6c 933c 2827 143c 55d9 7cbc c958 bbbc
00000240: 6794 8fbc 35a3 c3bc 928b 5cbb 2810 5fbc
00000250: 8d0d 3e3c d3bd ea39 d3d1 8cbc a909 f03c
00000260: c1d8 473c 9f45 88bc cd10 ce3c 9ff2 bcbc
00000270: 530c 873c 1a28 38bd 8d53 b83b e2ec 0fbd
00000280: bfd1 eabc f97c 8dbb 0482 88bc 2c4d 7bbb
00000290: 4853 bc3b 7794 a7bc 8b66 99bc eded 8ebb
000002a0: 6002 023c 4115 b0bb 0981 893a cd13 abbb
000002b0: aec7 0d3d a282 e33c ce54 b63c 50fe dbbc
000002c0: 639c d5bc 6d66 97bc 1482 cfbc 9d8a d73b
000002d0: aa77 d2bc c4c9 e03c c417 a53b 7558 31bd
000002e0: 7475 d839 a4af 4e3c e827 073c f527 203d
000002f0: 3a20 d9bb 3d63 5ebb 4c6a da3c c958 653b
00000300: 04e1 0f3b b619 0dbc bd93 c43c e8a4 083c
00000310: 1256 c2bc f7aa ae3c 8cc6 2b3c 7253 293c
00000320: 58dd c7bc d411 1f3b becc f7bb ad2a b23c
00000330: 543d bf3c 7348 26bc a904 853c df3c bdbc
00000340: 7381 c8bc 5865 b4bc 6704 9dbc 7d89 f3bc
00000350: f079 1b3c b17a eabc 1548 a4bc 9d3d 13bd
00000360: 3294 533b 7d6c 47bc 059d f93c 0a28 553c
00000370: 2705 553c 6e41 923b 5dc0 f7bb f464 44bb
00000380: d479 ce3c 9f73 bcbc 079e 063d bd5a fabb
00000390: a88d b53a 1952 8a3c ecde 0dbb dda5 733c
000003a0: 2ea1 9ebc b2a9 213c 761d 863c e08f 083c
000003b0: 3cf2 893c 6d71 21ba 347c ed3c b06e 7d3c
000003c0: 4f06 3f3c 0699 23bb bf2e 973c 12a9 d23c
000003d0: 6e6e 2c3c 6cd2 a7bc 73eb c8bc ab51 bbbc
000003e0: e427 153c 5a57 8abc c248 bfbc 9aaa 6d3c
000003f0: 00e4 87bc 8e61 2f3d e4eb 853c f74c 22bc
-0.024190208 -0.0057697757 0.024242777 -0.007523421 -0.015501978 -0.008577887 -0.008396414 0.032037888
0.009519486 -0.021457318 0.009745653 0.02528774 0.009824549 0.022682369 0.0064120614 -0.03699588
0.0064567104 -0.01695396 -0.023289025 -0.026012216 -0.005275455 0.003248927 -0.026551852 -0.0113068735
0.009617075 0.015182682 0.015775217 -0.010456185 -0.015237019 0.04392 0.018610742 -0.033357292
0.016398998 0.021267159 -0.003207386 -0.02255904 -0.01638337 -0.023204124 -0.016674679 -0.02504295
-0.010039059 0.012738624 -0.0014617665 -0.017941447 -0.011492632 -0.00463493 -0.011319077 0.0028964307
0.021581568 0.010051134 -0.026019134 0.0003690248 -0.0044806194 0.029535912 -0.0070926803 0.025772912
0.0017305849 0.011216554 -0.011990339 -0.024888799 -0.01951952 0.013521551 0.005568763 -0.010747364
0.017788028 0.026217425 -0.019564966 -0.015182819 -0.027678918 -0.014750508 0.012634953 -0.003645726
-0.037586827 -0.023212312 -0.0219204 0.0014233509 -0.010104272 0.004567645 0.018226694 -0.003922329
-0.0068596806 0.0023518887 -0.010503489 -0.035636615 0.038397968 -0.031096874 -0.006414751 -0.0010542229
0.0017762976 -0.029245159 -0.038497675 0.03424265 0.0005134688 -0.007421918 0.0005463056 -0.023021303
-0.0112741515 0.017469957 0.0013593751 -0.01781692 -0.015557544 0.03538476 0.017669447 0.003983934
-0.015300673 0.030065453 -0.0003500381 -0.013031366 0.007721166 -0.04153745 -0.028395502 0.037054762
-0.016009472 0.012615189 0.0251921 0.022078993 0.024712251 0.028412757 -0.007544793 0.020381413
0.020850094 0.035754163 0.012397586 -0.012056285 -0.008552645 0.004327522 0.023321934 -0.026748486
-0.008883951 -0.009358622 0.012063859 0.021205308 0.010023953 0.015492378 0.019241612 0.0027841644
-0.0046045 -0.020978617 -0.028102918 -0.0016258745 0.017996129 0.009042539 -0.015432675 -0.022869484
-0.017526818 -0.023881534 -0.0033652526 -0.013614692 0.01159991 0.00044773388 -0.017189896 0.029301481
0.012197674 -0.01663476 0.025154496 -0.02306491 0.016485369 -0.04496012 0.0056251944 -0.03513802
-0.028664468 -0.0043178764 -0.016663559 -0.0038345559 0.0057472326 -0.020456536 -0.018725654 -0.004361859
0.007935137 -0.0053736274 0.0010490726 -0.0052208663 0.034614258 0.027772252 0.022257235 -0.026854664
-0.026075548 -0.018481458 -0.02533058 0.0065778033 -0.025691826 0.02743996 0.0050382335 -0.04329725
0.0004128624 0.012615118 0.0082492605 0.039100606 -0.006626156 -0.0033933662 0.026662014 0.0034995547
0.0021954188 -0.008612087 0.023996228 0.008340098 -0.023722682 0.021321757 0.010484349 0.010334836
-0.024397537 0.00242721 -0.007562249 0.021748865 0.023344673 -0.010149109 0.016237574 -0.023100315
-0.024475789 -0.02202098 -0.019167138 -0.029728645 0.009489521 -0.028622957 -0.020053903 -0.03594743
0.0032284376 -0.012171862 0.03047038 0.013010034 0.013001717 0.004463366 -0.0075607733 -0.00299674
0.025204577 -0.023004351 0.03286555 -0.0076402114 0.0013851421 0.01688485 -0.0021647764 0.014871088
-0.019363966 0.009867119 0.01637147 0.008335084 0.01683914 -0.00061585644 0.028989889 0.0154682845
0.011659219 -0.0024963035 0.018454907 0.025715385 0.010524375 -0.02048608 -0.024526333 -0.02286609
0.009103749 -0.016887356 -0.023350123 0.014506007 -0.016588211 0.042817645 0.016347833 -0.009906045

bias f4 [64]
00000000: 3248 993c dcb8 52bc 0e92 283d 45ad 0abd
00000010: 25e9 60bc 5205 a33c 8e7d 6b3c 7fae acbc
00000020: 64e1 12bc 7222 8fbc ba52 c03c f600 ac3b
00000030: 7287 3a3d 5356 d73c a6d0 8dbb 3c1b 3fbd
00000040: 8233 7fbc f7e5 54bb f778 03bd 7722 1d3d
00000050: a6c2 6eba 0ed0 1abd 8108 c53b dbec 5fbc
00000060: 17c8 b1bc fe2d ac3c b70c 813c 023b 4d3d
00000070: 4546 b5bc 4e1f 58bc bfc6 2bbb 69b3 35bd
00000080: 8a63 36bd b4bc 283c ad52 90bc 0605 bc3c
00000090: 9f7f 833d cae2 f6bc cf82 043c 7f5e 663c
000000a0: 7741 773c 8da3 7d3c d323 d4bc 0a19 58bc
000000b0: 33b4 b93c 0798 60bc 2ea2 a8bc 00fc bcbc
000000c0: f80b 9fbb 4627 94bc b5e7 6a3c de65 22bd
000000d0: d2a3 f23c 926d a83b 8be8 04bd 5036 00bd
000000e0: 0959 e2bc 94fb 75bc 69cd d43c 16c5 263d
000000f0: 5e59 80bc 31ef 563c 96b6 043d c3bb 28bd
0.018711183 -0.012861457 0.041154914 -0.03385665 -0.013727461 0.019899998 0.014373196 -0.0210793
-0.00896487 -0.01747248 0.023476947 0.005249138 0.045539327 0.02628628 -0.0043278513 -0.046656832
-0.015576245 -0.0032485703 -0.032097783 0.038362946 -0.00091079844 -0.037796073 0.0060129766 -0.013667311
-0.021701856 0.021018025 0.015753133 0.050105102 -0.022128234 -0.013191057 -0.0026210991 -0.044360552
-0.04452852 0.010298897 -0.017617548 0.022951614 0.06420826 -0.030137438 0.008087828 0.014060616
0.015091292 0.015480888 -0.025895989 -0.0131895635 0.022668933 -0.013708121 -0.020585146 -0.023069382
-0.0048537217 -0.018085133 0.01433747 -0.03964793 0.029619131 0.005140015 -0.032448333 -0.031301796
-0.027630346 -0.015013594 0.025976853 0.0407153 -0.015667614 0.013118551 0.03240069 -0.04119469

weight f4 [10, 64]
00000000: f5ec 1dbd f29a d7bd 24a7 373c b5a6 073e
00000010: b82d 9b3c d631 093e 3a82 fc3d 8ce2 79bc
00000020: 0fd6 ae3d e7a9 f03d f317 243e 03db 49be
00000030: 6533 15be 37bb 1cbe e76b e33d d756 9f3d
00000040: d413 a9bd dd9e 1c3e af3d 1c3c 1ff5 56be
00000050: e323 3c3e b124 48bc c0ee 0fbe a560 0ebe
00000060: 39fd afbd 3c04 a1bd 6a4f b4bd eed5 0fbe
00000070: ec11 e5bd 868a 26bd d3b7 8a3d 205c e5bd
00000080: 62cc 053e 0a7c 823d 742c e23d 0fe9 eabd
00000090: 4d7d 02be 6a12 433e b50e 85bd f939 4c3e
000000a0: 8620 f43c a490 65bd 618f cbbd ddb2 2d3e
000000b0: f17b 2abe 3dac e63d dcbc c43c 0ef3 de3b
000000c0: 9417 973d 1459 29bd e92f 08be c298 313e
000000d0: c110 1d3d ea49 15be defc 093d 70bd 973d
000000e0: d8bf 25bd c1fe 903d 6b64 d9bd 217e d3bd
000000f0: c051 c93d 3ba7 f13d b44e 7ebc 1497 d23b
00000100: 06da 70be 07b7 a3bd a469 303d 48c1 c73c
00000110: 04a2 53be 2473 753d 90dc 173e 1232 2c3e
00000120: f5cf 1d3d 22cc ecbd 7dd9 d4bd 5fda 83bb
00000130: 1c10 0cbe 679e c3bd da1e 073e ac03 4f3e
00000140: 1a6b bfbd c821 1e3e 20ca 143b 4957 8e3e
00000150: 8d41 a03d 8e57 013e 3eea e63d 9029 e7bd
00000160: eb64 2c3e e24f d9bc 4459 6cbe 35d9 a3be
00000170: 1ba4 b9bc 61db 5e3e 63e1 fcbd 80a3 c33d
00000180: b1dd 12be fea4 c03d 4652 c4bd 3de5 813e
00000190: 1f8a 833e ff8d 453c a5f5 ed3d 68dc 76bc
000001a0: 2fd5 34be 7418 c7ba 0902 1dbe f6db ce3c
000001b0: 16e9 f03d 76f6 253d 614f d0bc d9d7 99bd
000001c0: 116c 813e 52cf d1bd 0004 15be 972a b33d
000001d0: 6fd4 93bc 389a 45bc 8b87 003e f2d1 413e
000001e0: 7e6a ccbd 102d 053e 23eb 4c3e ec2e ffbc
000001f0: 7d33 153b d68b 123d ffbd 6f3d bed1 c9bd
00000200: 4475 b53d f5cf 143e a286 2ebe 5a2e 8dbd
00000210: dc3f fcbd 3aa8 90bd 924b d5bd f622 6d3d
00000220: 1c95 223e 30b7 b43d 3b5b 2b3e 84f7 713d
00000230: 372e 00be a769 06be d88d 7ebd 9bcf c3bc
00000240: 3a68 11be 881a 17be 2852 ecbd 6a57 d1bd
00000250: 2122 a9bb b3a4 ac3d ac99 d5bd 6fbc 003e
00000260: 4f2e fa3d 5720 c8bb 04eb 8d3b aa7f 133b
00000270: 1fc9 b0bc 2d54 3abc 4bad 373e 7117 4fbd
00000280: a3fc 093e a851 1abd 727b 1e3e 6dbe a0bd
00000290: 7add 6e3d e356 1cbc 000d 2bbe f810 a23d
000002a0: 0bab f7bb e681 9abd e773 b53d 90ed 3ebe
000002b0: 0582 983c 9f2a bd3c 6fb8 c0bd ac94 aabd
000002c0: a68a 66bc f72c f5bd 908f 58b8 4d6d ed3d
000002d0: b6fb 6a3c a72f 7c3d e296 87bd ca9f 6dbe
000002e0: 5267 a63b 5116 0ebd 8cf7 88bb 9b93 c63d
000002f0: 31b7 893d 0100 2a3e ba59 1bbc d475 b2bd
00000300: 9d86 0cbe bd43 dd3c 2b9c 1cbd 4e61 0fbe
00000310: 3f66 f5bd 0c8e e7bd eb3f b4bd be09 07bd
00000320: 208d 09bd 9cf6 4cbd 6410 bd3d 7b72 d0bc
00000330: bafa bcbd 6516 f53d 59b8 3b3c a971 7b3d
00000340: 2e2d b03d ec64 8bbd cd91 a13d 22db cbbd
00000350: ba71 1dbe 3717 cdbd faa2 da3d d85c da3d
00000360: b522 17be b193 173e dee5 c23c ca87 d43d
00000370: 200e 853b 9527 923c a00a 7bbd 0e5c 50bd
00000380: 8c01 48be 6212 edbd 9c49 c23d 5201 9cbd
00000390: 3dc2 a33d 3ca4 1f3d 9cda cb39 d288 22be
000003a0: 2e92 43bd 1653 bdbd a95e f43d cb86 96bd
000003b0: 5481 21be 4095 6f3d f5b9 963d 42b6 083e
000003c0: 5c31 443d cf30 103c 983e 293d 50fe 8b3c
000003d0: 8282 583d bbe1 a43d 016e 193d 04ae 22be
000003e0: e74c 12bb f8f5 083c a167 6abd e23b e63d
000003f0: 141c db3c 8e2d 943d b3c9 94bd cb50 a83d
-0.038556058 -0.105276 0.011209283 0.13247187 0.018942699 0.13397917 0.12329526 -0.015251767
0.08536922 0.11751156 0.16024761 -0.19712453 -0.14570387 -0.15305792 0.11104565 0.07780235
-0.08255735 0.15294977 0.009536191 -0.20991944 0.18373065 -0.012215779 -0.1405592 -0.13904054
-0.0859322 -0.07862136 -0.088042095 -0.14046451 -0.11185059 -0.04065945 0.06773343 -0.11199212
0.13066247 0.06371315 0.11043635 -0.11470234 -0.12743111 0.19049993 -0.06496946 0.1994399
0.029800665 -0.056046143 -0.09939457 0.16962762 -0.16648842 0.112633206 0.024015836 0.0068038767
0.07377544 -0.041344717 -0.13299526 0.17343429 0.038346056 -0.14578977 0.03368842 0.07409179
-0.04046616 0.070798405 -0.10614856 -0.103267916 0.09830046 0.11799475 -0.015521694 0.0064267013
-0.2352067 -0.07993894 0.043069497 0.024384156 -0.20667273 0.05992426 0.14830232 0.16815975
0.0385284 -0.11562373 -0.10393045 -0.0040238346 -0.1367802 -0.09551697 0.13195363 0.20216244
-0.093466 0.15442574 0.0022703484 0.27800968 0.07825003 0.12631056 0.11275147 -0.11287224
0.16835372 -0.026527349 -0.23080927 -0.32001653 -0.02266126 0.21763374 -0.123476766 0.095526695
-0.14342381 0.0940647 -0.09586005 0.25370207 0.25691316 0.01205778 0.116191186 -0.015067197
-0.17659448 -0.0015189783 -0.15332808 0.02525137 0.117632076 0.040518247 -0.025428476 -0.07511873
0.2527776 -0.10244621 -0.14552307 0.08748358 -0.018045632 -0.012060694 0.12551706 0.18927744
-0.09981249 0.13005471 0.20011573 -0.031150304 0.0022766285 0.03577789 0.058530804 -0.09854458
0.08860257 0.14532454 -0.17043546 -0.068936065 -0.12316868 -0.07063337 -0.104148045 0.05789467
0.15877193 0.08824003 0.1673402 0.05907394 -0.1251763 -0.1312624 -0.06214699 -0.023902705
-0.14199916 -0.14756215 -0.115391076 -0.10221751 -0.005161539 0.084298514 -0.10429701 0.12571882
0.12215864 -0.006107371 0.0043309946 0.0022506514 -0.021580277 -0.011372608 0.179372 -0.050559465
0.1347528 -0.03767553 0.15476778 -0.07848821 0.058316685 -0.0095422 -0.16704178 0.07913393
-0.0075582317 -0.075443074 0.08859997 -0.1864531 0.018616686 0.023091612 -0.09410178 -0.08329138
-0.014071142 -0.11971467 -5.1632116e-05 0.11593113 0.014342239 0.061568882 -0.066205755 -0.23205486
0.0050782347 -0.03468925 -0.0041799005 0.09696122 0.06724394 0.16601564 -0.009481842 -0.0871388
-0.13723226 0.02700984 -0.03823487 -0.14001963 -0.119823925 -0.1130639 -0.08801254 -0.032968275
-0.033581853 -0.050039873 0.09231642 -0.025445214 -0.0922751 0.11967162 0.011457526 0.06138769
0.08602367 -0.06806359 0.078891374 -0.09953906 -0.15375414 -0.100141935 0.106756166 0.1066224
-0.14759333 0.14802434 0.02379125 0.10377462 0.0040605217 0.01784114 -0.06128943 -0.05086904
-0.1953184 -0.11575772 0.09486696 -0.07617439 0.079960324 0.038974985 0.00038882054 -0.15872505
-0.04774683 -0.09244363 0.119321175 -0.073499285 -0.15771991 0.058491945 0.07359687 0.13350776
0.047898635 0.008800699 0.04131946 0.01708904 0.052858837 0.08050867 0.037458424 -0.15886694
-0.002232367 0.008359425 -0.057227734 0.112418905 0.026746787 0.07235251 -0.072650336 0.08218535

bias f4 [10]
00000000: e0b1 01be 1ef8 1abd 2725 b93d 54a3 bf3d
00000010: e18b 503d 2577 01bd f001 333e f1df a8bd
00000020: 1df3 d8bd cd49 20bd
-0.1266551 -0.03783428 0.09040289 0.09357324 0.05091465 -0.031607766 0.17481208 -0.082458384
-0.10593245 -0.039132882
