chaoyang_4.pth (torch, 588587 bytes, 10 tensors)

weight f4 [32, 3, 5, 5]
0	0xbd4c27c7	-0.049842622
1	0x3e03e181	0.12878992
2	0x3dc80d06	0.09768109
3	0x3d1ddd78	0.038541287
4	0x3d138055	0.03601106
5	0xbd8c3cee	-0.06847559
6	0x3dedd350	0.1161257
7	0x3cc4401b	0.02395635
8	0x3dfb265b	0.12263175
9	0x3c547779	0.012967938
10	0x3e108d6c	0.14116448
11	0x3e20a441	0.15687658
12	0x3d68819b	0.056764226
13	0x3d41bb52	0.047297783
14	0xbd9afd17	-0.07567804
15	0x3da7ddd1	0.08196605
16	0x3dfd8666	0.1237915
17	0x3daea675	0.08527843
18	0x3d1abe29	0.037779007
19	0x3dd54207	0.10412984
20	0x3dba8d5c	0.091089934
21	0xbcb3215d	-0.021866495
22	0x3dc4ac8a	0.09603222
23	0x3dcaf00d	0.09909067
24	0xbd223c63	-0.03960837
25	0x3db46bc7	0.088096194
26	0xbd765b90	-0.060145915
27	0x3babe10d	0.005245334
28	0xbdc77437	-0.09738963
29	0xbdd8ac81	-0.105797775
30	0x3dc25eca	0.09490736
31	0x3cba6f59	0.022758173
32	0xbd3d921c	-0.04628192
33	0xbd96c92a	-0.07362588
34	0x3d405861	0.046959285
35	0x3dee81b4	0.11645833
36	0x3d91549d	0.07096217
37	0x3d437c64	0.04772605
38	0x3b217bcc	0.002464044
39	0xbc07f408	-0.008297928
40	0x3aa08474	0.0012246505
41	0xbc1ca929	-0.009561815
42	0x3e048f95	0.12945397
43	0xbd682183	-0.056672584
44	0xbdba1964	-0.09086874
45	0x3d8241d3	0.06360211
46	0x3d34dbe4	0.044155017
47	0x3da2d4ce	0.079507455
48	0xbd8b65d0	-0.068065286
49	0x3d665759	0.056235645
50	0x3ce78548	0.028261796
51	0xbd0c82af	-0.034304317
52	0xbd235cfc	-0.0398836
53	0xbd65c74b	-0.056098264
54	0xbdfd9384	-0.12381652
55	0xbba76dca	-0.0051095234
56	0xbd646e42	-0.055769213
57	0xbe19fbe4	-0.15037495
58	0xbce215e9	-0.027598338
59	0xbdce5dcc	-0.10076484
60	0xbc7dd4da	-0.015492642
61	0x3d4caba5	0.04996838
62	0xbe154ade	-0.14579341
63	0xbdaab13a	-0.083345845
64	0x3d35344a	0.04423932
65	0x3cfc5f0f	0.030807046
66	0x3d840cc1	0.06447745
67	0x3c0e6162	0.00869021
68	0xbd9107a0	-0.070815325
69	0xbd2547f2	-0.040351816
70	0xbdff121f	-0.12454628
71	0x3d64e7b0	0.055885017
72	0xbcef52c6	-0.029214274
73	0xbd7c7476	-0.061634503
74	0xbdddf11b	-0.10837003
75	0xbda50032	-0.08056678
76	0xbdd00481	-0.10157109
77	0xbd8a3125	-0.06747655
78	0xbcb1d3ed	-0.0217075
79	0xbd8bba3e	-0.06822632
80	0xbd9b2403	-0.07575228
81	0xbe19215b	-0.1495413
82	0x3d754fe8	0.059890658
83	0xbde18be0	-0.11013007
84	0xbbe1d6e8	-0.006892074
85	0xbddc66b7	-0.10761779
86	0x3deaea76	0.11470501
87	0xbc86bfb9	-0.016448842
88	0x3d32af83	0.043624412
89	0x3c1b231a	0.009468818
90	0x3d6abe3e	0.057310335
91	0x3df6171f	0.12016129
92	0x3e199198	0.14996946
93	0x3e0441bf	0.12915705
94	0x3e191a7b	0.14951508
95	0xbda0f31e	-0.07858871
96	0x3dd73c89	0.10509593
97	0x3d71fd51	0.059079472
98	0x3d7af3a3	0.061267506
99	0x3e0811dd	0.13288064
100	0xbe03ac55	-0.12858708
101	0xbdc58e5e	-0.09646295
102	0xbd66560b	-0.0562344
103	0x3cf0c69e	0.029391583
104	0x3b96169c	0.004580332
105	0xbbf13883	-0.007361473
106	0xbc6320d0	-0.013862804
107	0xbe080349	-0.13282503
108	0xbda75d0c	-0.08172044
109	0x3bb4c92c	0.0055171456
110	0xbd8aae94	-0.067715794
111	0x3dda4fa3	0.10659721
112	0xbdaf618f	-0.0856353
113	0x3d9ecef0	0.07754314
114	0x3d701944	0.058617845
115	0xbc1978d8	-0.00936719
116	0x3dfb67bc	0.12275645
117	0x3dd8d70f	0.10587894
118	0x3de32266	0.11090545
119	0x3d979e91	0.07403291
120	0x3d026b19	0.031840418
121	0xbd97c830	-0.074112296
122	0x3c9b69a6	0.018971276
123	0xbddccfdd	-0.10781834
124	0x3d8fbb12	0.07018103
125	0xbd4fd15d	-0.050736774
126	0xbd8a9242	-0.06766178
127	0xbc1361e2	-0.008995505
128	0xbd73dd20	-0.059537053
129	0xbd4f36a9	-0.050589237
130	0x3d9f66a4	0.07783249
131	0x3d9093d8	0.07059449
132	0x3d722a00	0.059122086
133	0x3d3a4225	0.045473237
134	0x3dcc0126	0.099611565
135	0x3df13ab4	0.11778775
136	0x3d921c13	0.07134261
137	0x3e03a272	0.12854937
138	0x3dc3c0e0	0.09558272
139	0x3d93473e	0.07191323
140	0x3e0aba11	0.13547541
141	0x3d68caca	0.05683402
142	0x3e269e72	0.1627138
143	0xbcb03873	-0.021511292
144	0x3d6a978d	0.057273436
145	0xbde29b89	-0.11064822
146	0x3dd2f188	0.10299975
147	0x3da73124	0.0816367
148	0x3dabdb65	0.083914556
149	0x3b8c11a3	0.0042745634
150	0x3db33afb	0.08751484
151	0xbd9aa3c9	-0.07550771
152	0x3dab39e3	0.083606504
153	0x3d143ee2	0.036192782
154	0xbe0e4fdb	-0.1389765
155	0xbda5e7e0	-0.08100867
156	0x3cf8db8a	0.030378122
157	0x3ce088af	0.027408926
158	0xbd442a99	-0.047892187
159	0xbdfc5f21	-0.12322832
160	0x3d985b0d	0.074392416
161	0x3d79b5f6	0.060964547
162	0x3dd6052f	0.104502074
163	0x3d9b5ff9	0.07586665
164	0x3dc706c3	0.097180866
165	0x3dc0b928	0.09410316
166	0x3da22a62	0.0791824
167	0x3b5aa649	0.0033363274
168	0x3dfff4a3	0.124978326
169	0xbb4a9518	-0.003091162
170	0xbd9b45e4	-0.0758169
171	0x3dc8d7a6	0.09806757
172	0xbce1f4c6	-0.027582537
173	0x3d3f968b	0.04677443
174	0x3da18410	0.07886517
175	0x3dc0fea7	0.09423571
176	0xbb60a116	-0.0034275702
177	0xbdb739b9	-0.089465566
178	0x3ca8704e	0.020561364
179	0xbdee337c	-0.116309136
180	0xbcddae32	-0.027060602
181	0x3a28fb68	0.0006446154
182	0xbdad2028	-0.08453399
183	0x3dbaf1c8	0.09128147
184	0xbbd89f04	-0.006610753
185	0xbca749d3	-0.020420944
186	0xbd3ce56a	-0.046117224
187	0x3de58433	0.112068556
188	0xbce924eb	-0.028459987
189	0xbd6e2006	-0.05813601
190	0xbdd59434	-0.10428658
191	0xbd36e364	-0.04465045
192	0xbd80d6c8	-0.06290966
193	0x3bafba09	0.0053627533
194	0x3d9f2900	0.07771492
195	0xbd9e0779	-0.07716269
196	0xbc8382b1	-0.01605353
197	0x3cb29212	0.021798167
198	0xbd209949	-0.039208684
199	0xbc9010a6	-0.017586064
200	0xbd7392b7	-0.05946609
201	0xbda3755d	-0.0798137
202	0x3d86e51f	0.0658667
203	0x3daa0ab1	0.083028205
204	0xbcd42488	-0.025896326
205	0x3d7677b1	0.06017274
206	0xbd01d0e9	-0.031693373
207	0x3dbb828b	0.091557585
208	0xbd4ad093	-0.049515318
209	0x3c8e6264	0.0173809
210	0x3dd251b3	0.10269489
211	0xbce3c5d9	-0.027804302
212	0x3def7ac7	0.1169334
213	0xbd81bd8c	-0.06334981
214	0xbdd230cf	-0.10263216
215	0xbdb454e9	-0.08805258
216	0x3cf4a636	0.029864412
217	0x3d5c3c6c	0.05376856
218	0x3a76d516	0.00094159076
219	0x3df8c9f4	0.121478945
220	0x3ce8fe07	0.028441442
221	0xbc43d066	-0.0119515415
222	0x3d75158d	0.059835006
223	0x3ceba394	0.028764524
224	0x3d0f697b	0.035012703
225	0xbd64f8b0	-0.05590123
226	0xbcee0cf7	-0.029058916
227	0x3bc40ef4	0.005983228
228	0xbdce4260	-0.10071254
229	0xbce84c96	-0.028356832
230	0x3dbf1db8	0.0933184
231	0x3d1fe9c4	0.039041296
232	0xbd273387	-0.040820625
233	0xbd86b587	-0.06577592
234	0x3d969cc2	0.07354118
235	0x3d5ef73c	0.054435
236	0x3d82331f	0.06357407
237	0x3d980414	0.07422653
238	0x3cc8d526	0.0245157
239	0x3d531243	0.051531088
240	0xbdc9b643	-0.09849217
241	0xbdb239a9	-0.08702404
242	0xbe27032b	-0.16309802
243	0xbe18d026	-0.14923152
244	0xbdace5ef	-0.08442294
245	0xbe28f98e	-0.16501448
246	0xbd8fd01f	-0.07022118
247	0xbe1bf570	-0.15230346
248	0x3c97ac00	0.018514633
249	0xbda3283e	-0.0796666
250	0x3db9a576	0.09064762
251	0xbc88e6ce	-0.016711619
252	0x3dcd1310	0.100134015
253	0xbba2201a	-0.0049476745
254	0x3b301ffe	0.0026874538
255	0x3ded0fee	0.11575304

bias f4 [32]
0	0xbd435e1c	-0.04769717
1	0xbe7a992f	-0.24472497
2	0xbe048589	-0.12941565
3	0xbcfca0f6	-0.03083847
4	0xbdd1588d	-0.10221968
5	0x3d7af2c1	0.061266664
6	0xbe37e210	-0.1795733
7	0xbd47a008	-0.048736602
8	0x3e3be0f7	0.18347536
9	0xbc773a58	-0.015089594
10	0x3e16471a	0.1467556
11	0xbe11cb57	-0.14237724
12	0x3e2a4c33	0.1663063
13	0x3e0fbb23	0.1403623
14	0xbe2481a9	-0.16065086
15	0x3dbdb601	0.0926323
16	0xbe0ba1ed	-0.13635989
17	0xbe694fd9	-0.22784366
18	0x3e28c04c	0.16479605
19	0x3d360965	0.044442553
20	0xbd36753c	-0.044545397
21	0xbe18f2af	-0.14936326
22	0x3df54803	0.11976626
23	0x3ce57201	0.028008463
24	0x3e2cf368	0.16889727
25	0xbc33a2ba	-0.01096409
26	0xbe03d953	-0.12875871
27	0x3e131c8f	0.14366363
28	0xbe434c17	-0.19071995
29	0x3c9e613d	0.019333476
30	0xbdc02b0b	-0.0938321
31	0xbe0304b7	-0.12794767

weight f4 [32, 32, 5, 5]
0	0xbd2c79fb	-0.042108517
1	0xbd102d3a	-0.03519938
2	0xbc93752f	-0.018000213
3	0x3cc9bd12	0.024626289
4	0xbcba23d1	-0.022722157
5	0xbd178286	-0.03698971
6	0xbd3693ae	-0.044574432
7	0xbd1994a4	-0.03749527
8	0xbc799e88	-0.015235551
9	0xbcaade5a	-0.020857979
10	0xbd068fa2	-0.032851823
11	0xb9be0555	-0.00036243597
12	0xbcc3315d	-0.02382725
13	0xbbe4bdd0	-0.006980635
14	0x3ca59616	0.020213168
15	0x3bc7288d	0.006077832
16	0xbb10c415	-0.002208953
17	0xbd178afe	-0.036997788
18	0x3d176bb5	0.03696795
19	0xbcb885ca	-0.022524733
20	0x3cc74a66	0.024327468
21	0x3c2e6410	0.010643974
22	0xbc863507	-0.016382707
23	0xbca96123	-0.020676201
24	0x3b8440cc	0.0040360447
25	0xbcccacff	-0.024984835
26	0x3abe0b07	0.0014499136
27	0x3d00db21	0.031458978
28	0x3c86d7dc	0.016460352
29	0x3ad77e49	0.0016440834
30	0x3b91fffe	0.0044555655
31	0xbc8f8bb8	-0.017522678
32	0xbc5328aa	-0.012888113
33	0xba26769c	-0.00063500716
34	0xbc355212	-0.01106693
35	0x3cc53fb2	0.024078224
36	0x3c84b1ce	0.016198065
37	0x3d41ed90	0.047345698
38	0x3c8fc8bc	0.017551772
39	0x3b354fa6	0.0027665882
40	0x3c9e309d	0.01931029
41	0x3d5eba1e	0.054376714
42	0x3d605f85	0.054778595
43	0x3cfe72bc	0.031060569
44	0x3c994467	0.018709375
45	0xbc46146b	-0.012089829
46	0x3cfe9c62	0.031080429
47	0xbbd8763c	-0.0066058915
48	0x3d2ee898	0.042702287
49	0x3d2f5153	0.042802166
50	0x3ba6db65	0.005092072
51	0xbce38f4e	-0.027778294
52	0x3ceb427f	0.028718231
53	0x3ce3140b	0.027719518
54	0xbc8fd0af	-0.017555563
55	0x3ca33836	0.019924264
56	0xbc0909c5	-0.008364146
57	0xbc529aad	-0.01285426
58	0x3ce06a5d	0.027394468
59	0xbc9170d5	-0.017753998
60	0x3cc3446c	0.023836337
61	0xbcc2e632	-0.023791406
62	0x3cba6e27	0.022757603
63	0x3d14c303	0.03631879
64	0x3d044614	0.032293394
65	0xbba69053	-0.0050831228
66	0xba7b658a	-0.00095900206
67	0x3cf96b5e	0.030446704
68	0x3c202e47	0.009776658
69	0xbcb979de	-0.022641119
70	0x3d069cba	0.03286431
71	0x3d09da0d	0.033655215
72	0xbca3ad43	-0.019980079
73	0x3d1cccdf	0.038281318
74	0xbbfbbb63	-0.0076822503
75	0x3c92a92c	0.017902933
76	0xbc7847f2	-0.015153872
77	0xbc18ff14	-0.009338159
78	0xbc6a84ab	-0.014313857
79	0xbb92ab1c	-0.0044759642
80	0x3c29a56d	0.010354382
81	0xbbf91aa3	-0.0076020523
82	0x3abe8ff1	0.0014538747
83	0xbcebb8d6	-0.02877466
84	0x3c0d0f84	0.008609656
85	0xbc8430bc	-0.01613652
86	0xbcab0e59	-0.020880865
87	0xbc74e22e	-0.014946504
88	0x3c79feeb	0.015258531
89	0xbd024ce9	-0.03181163
90	0x3cc4abc4	0.024007685
91	0x3c19ea8b	0.009394298
92	0xbbd20cda	-0.0064102234
93	0xbba59b88	-0.005053941
94	0xbd096755	-0.03354581
95	0x3be2ae3b	0.0069177425
96	0xbbc9b0e2	-0.0061551193
97	0x3be8977c	0.0070981365
98	0xbd124af3	-0.03571601
99	0xbc94c8b9	-0.018162118
100	0x3d009557	0.03139242
101	0x3c96c5fd	0.018404955
102	0xbcd5c370	-0.026094168
103	0x3b9004d8	0.0043951087
104	0xbb926883	-0.004468025
105	0xbc28d1af	-0.010303899
106	0x3be11de1	0.006870017
107	0x3b73bd35	0.0037191634
108	0x3c5c0368	0.0134285465
109	0x3cee957a	0.02912401
110	0xbcddd2c7	-0.027078046
111	0x3d1f8398	0.038943857
112	0xbc3a93c9	-0.011387774
113	0x3d27a79c	0.04093133
114	0xbc255dd4	-0.010093171
115	0xbb00852d	-0.001961063
116	0xbb9daefa	-0.0048121186
117	0xbcb771ca	-0.022393126
118	0xbc0ed0e0	-0.008716792
119	0x3c925196	0.017861169
120	0x3d144fd4	0.036208943
121	0x3b0ef7ed	0.0021815256
122	0x3cde02c5	0.02710093
123	0x3d18f261	0.037340526
124	0xbc857478	-0.016290888
125	0x3cbcd08a	0.023048658
126	0xbca35f53	-0.019942915
127	0xbd363106	-0.044480346
128	0x3c4f1b84	0.012640838
129	0xbc65c9a2	-0.014025124
130	0x3ca4fdbc	0.020140521
131	0xbcaef916	-0.021359008
132	0xbd1a2156	-0.037629448
133	0xbd1c88f8	-0.03821656
134	0xbc912f7b	-0.017722836
135	0x3c72cfed	0.014820081
136	0xbc799ec6	-0.015235608
137	0xbcfcde58	-0.03086774
138	0xbcaf94eb	-0.021433314
139	0x3cd43dde	0.025908407
140	0xbd063b8f	-0.032771643
141	0x3c0bf80c	0.008543026
142	0xbd12e647	-0.03586414
143	0x3cb9f30c	0.022698902
144	0x3ca7dc2f	0.020490734
145	0xbce2393d	-0.027615184
146	0xba6ed4d4	-0.00091106934
147	0xbcb606e2	-0.022220079
148	0xbd1b5a38	-0.037927836
149	0xbcd37863	-0.02581424
150	0xbc591778	-0.013250224
151	0xbc06a900	-0.008219004
152	0xbceed247	-0.029153002
153	0xbd011c43	-0.031521093
154	0x3cbe2f9a	0.023216058
155	0x3bd03850	0.006354369
156	0xbcbdff51	-0.023193033
157	0xbce367e8	-0.027759507
158	0x3cf2f044	0.029655583
159	0x3bb35fd7	0.0054740715
160	0x3d1fbde9	0.03899947
161	0xbaab7494	-0.0013081008
162	0x3ce2f076	0.027702551
163	0x3c9fd46a	0.019510467
164	0x3c395a26	0.011312997
165	0xbbbfe091	-0.005855628
166	0x3c08e5cf	0.008355572
167	0xb9ed6465	-0.00045278962
168	0xbc1e8193	-0.009674448
169	0x3d074440	0.033024073
170	0xbc4e9c66	-0.0126105305
171	0xbb35beff	-0.002773225
172	0x3d0d4ff4	0.034500077
173	0x3a1cd2a0	0.00059823133
174	0x3ce480ba	0.027893413
175	0xbcafc48b	-0.021456024
176	0xbb2f11dc	-0.0026713526
177	0x3c27a5d6	0.010232409
178	0x3cc58466	0.024110984
179	0x3c605d49	0.013694116
180	0x3d112aa5	0.03544106
181	0x3d491f92	0.049102373
182	0xbc98447c	-0.018587343
183	0x3c986996	0.018605035
184	0x3cff0073	0.031128144
185	0xbc7824cc	-0.015145492
186	0x3d1d7ce5	0.038449187
187	0xbc5acf24	-0.01335505
188	0x3ca34e2d	0.019934738
189	0x3bb45d77	0.005504306
190	0x3a9f3d73	0.0012149051
191	0xbd00b0a8	-0.031418473
192	0xbb84b40c	-0.0040497836
193	0xbd0a9ed2	-0.03384287
194	0xbd285ecb	-0.041106027
195	0xbd1a61e2	-0.037691005
196	0xbd08e48d	-0.033421088
197	0xbc82cd9f	-0.015967188
198	0xbce7de35	-0.028304199
199	0xbcfa80f3	-0.030579066
200	0x3ce77c82	0.028257612
201	0xbcaf8079	-0.021423565
202	0xbcf35796	-0.02970485
203	0x3c6e893d	0.014559087
204	0xbadcc948	-0.0016844654
205	0x3b132f49	0.0022458604
206	0xbc4b551e	-0.01241043
207	0xbcb9720c	-0.02263739
208	0x3c337ead	0.010955495
209	0xbd0e59bc	-0.034753546
210	0xbd6348b4	-0.055489257
211	0x3a3993dc	0.00070792227
212	0xbd631a80	-0.055445194
213	0xbc7c20f1	-0.015388713
214	0xbbf41c85	-0.007449689
215	0xbd401466	-0.046894453
216	0xbd3f2869	-0.046669398
217	0xbd4f0249	-0.05053929
218	0xbd545e8d	-0.051847983
219	0xbd509d3e	-0.050931208
220	0xbce07d8c	-0.027403615
221	0xbd2a193f	-0.041527983
222	0x3caaf132	0.020866964
223	0xbcea2dd7	-0.028586311
224	0xbc02f050	-0.007991865
225	0x3caaee2a	0.020865519
226	0xbd0c0c2b	-0.03419129
227	0xbcb29ee0	-0.021804273
228	0xbb9ba535	-0.004749919
229	0xbcbf87d6	-0.023380201
230	0xbbcb8912	-0.0062114084
231	0xbc2f3124	-0.010692868
232	0xbb94bb16	-0.004538904
233	0xbb97e6d3	-0.0046356707
234	0x3cfb35ed	0.030665362
235	0xbc77f352	-0.015133696
236	0x3cc65467	0.024210168
237	0xbc9b6519	-0.018969106
238	0x3c54864c	0.012971472
239	0xbc8fdc36	-0.01756106
240	0x3c725cd7	0.014792643
241	0x3caa01dc	0.02075284
242	0x3cc17bff	0.023618696
243	0xbcabb205	-0.02095891
244	0xbc2faff3	-0.010723102
245	0x3cb07c66	0.021543693
246	0xbbd068c4	-0.0063601453
247	0xbc117d71	-0.008880005
248	0xbd1bc052	-0.038025208
249	0xbc8ff0ed	-0.017570937
250	0xbb9646fa	-0.004586098
251	0x3d122919	0.035683725
252	0xbc6880e0	-0.014190882
253	0xb82040b2	-3.8207225e-05
254	0xbb30605a	-0.0026912899
255	0x3cb84992	0.022496019

bias f4 [32]
0	0xbdc8f949	-0.09813172
1	0xbce235b4	-0.027613498
2	0xbd6a0f49	-0.057143483
3	0x3cf51a16	0.029919665
4	0xbcadd537	-0.021219833
5	0xbcf83cef	-0.030302493
6	0x3c3f9b6e	0.011694772
7	0xbd69d5a0	-0.057088494
8	0x3cd10509	0.025515096
9	0xbcc441e6	-0.023957204
10	0xbc8b2194	-0.016983785
11	0x3d28c7e3	0.04120625
12	0xbc4a3245	-0.012341087
13	0x3cf2618b	0.029587528
14	0x3d30e487	0.04318669
15	0xbd68f835	-0.056877334
16	0x3d0521cc	0.032502934
17	0xbd332031	-0.043731872
18	0xbb8e3269	-0.0043395055
19	0x3d5daa2f	0.054117378
20	0xbd20b6f4	-0.039236978
21	0xbdafd4b9	-0.085854955
22	0xbcf6669c	-0.030078225
23	0x3d30011d	0.04296981
24	0x3d4dfbb3	0.050288867
25	0xbce653fa	-0.028116215
26	0x3c7ebbc8	0.0155477
27	0x3b44d2a0	0.003003277
28	0xbc5a05e5	-0.013307069
29	0xbd9923db	-0.07477542
30	0x3c33320f	0.010937228
31	0x3c0df0cb	0.008663367

weight f4 [64, 32, 5, 5]
0	0xbcd1c456	-0.025606316
1	0x3a392836	0.0007063182
2	0x3b8af0cc	0.004240131
3	0xbb8cfd03	-0.0043026223
4	0x3c58147f	0.01318848
5	0xbc78eb1e	-0.015192775
6	0xbc86d13d	-0.016457194
7	0x3c2f6712	0.010705726
8	0x3cb98e2b	0.022650799
9	0x3d20c9c4	0.03925492
10	0x3d0f855f	0.035039302
11	0x3d0bfbc8	0.034175664
12	0x3d4755f4	0.048665956
13	0x3c3d2a5a	0.011545742
14	0x3cc3819d	0.023865515
15	0xbc81f74b	-0.015864989
16	0xbaa93f19	-0.0012912481
17	0x3be7c4ce	0.0070730215
18	0xbc2b688a	-0.010461936
19	0x3ca92195	0.020645896
20	0xbaffaddf	-0.0019506774
21	0x3cb0e7f2	0.021594975
22	0x3b813aff	0.0039438005
23	0x3d0930c8	0.033493787
24	0x3aa2f85a	0.0012433634
25	0x3cbe7fc9	0.023254292
26	0x3cb44c22	0.02200896
27	0xbce080c6	-0.027405154
28	0x3b59aaa1	0.0033213275
29	0xbcbd2936	-0.02309094
30	0xbc51caf8	-0.012804739
31	0xbcd2a08f	-0.025711326
32	0x3ba9f6d3	0.0051868944
33	0x3b9d75fb	0.004805324
34	0xbca3aec7	-0.019980801
35	0x3cf2256e	0.029558863
36	0x3d599e36	0.053129397
37	0x3d2e4076	0.042541943
38	0xbbe10f87	-0.006868306
39	0x3d28c171	0.041200105
40	0x3cc438d0	0.023952872
41	0xbb99e3fe	-0.0046963682
42	0x3d3d3f1c	0.046202764
43	0x3d37d12e	0.044877224
44	0x3d2e5a56	0.04256662
45	0x3c0a4bf0	0.0084409565
46	0xbd09eae0	-0.03367126
47	0xbc49a596	-0.012307545
48	0x3bf566dc	0.0074890684
49	0x3c6f29ef	0.0145974
50	0xbbacde99	-0.005275559
51	0xbca374bd	-0.019953126
52	0x3b5c320f	0.0033599173
53	0x3b64052d	0.0034793124
54	0x3c3caa6c	0.011515241
55	0x3d01e45a	0.031711914
56	0xbbc2dfc8	-0.005947087
57	0x3d075a51	0.033045117
58	0x3c3ba761	0.01145348
59	0xbd0c66a1	-0.034277562
60	0xbce5d7d5	-0.028057018
61	0x3cb27df6	0.021788578
62	0x3b694c1d	0.0035598346
63	0x3c77a0f3	0.015114057
64	0xbccc9e8d	-0.024977947
65	0x3d046453	0.03232224
66	0x3b05fb88	0.0020444114
67	0x3cd871fc	0.02642154
68	0xbc9752da	-0.018472124
69	0x3d0030e1	0.031296615
70	0x3ce84bbf	0.028356431
71	0x3cb1ef0d	0.021720434
72	0x3ce9c90a	0.028538246
73	0x3b0a6543	0.0021117486
74	0xbb71c056	-0.0036888323
75	0x3d0a1e7d	0.033720482
76	0x3bbd445e	0.0057759723
77	0xbc55ac65	-0.01304159
78	0x3cb8bb30	0.022550195
79	0x3c9e850c	0.019350551
80	0x3ac8d7c2	0.001532309
81	0x3c1cd37a	0.009571904
82	0xbcbb5403	-0.022867208
83	0x3c5aad56	0.013346991
84	0xbd1dd493	-0.038532805
85	0x3d16a2a5	0.036776204
86	0x3d2ff427	0.04295745
87	0x3d33ea72	0.043924756
88	0x3ca7b510	0.02047208
89	0x3c26de1c	0.010184791
90	0x3c77d3be	0.015126167
91	0xba8b2c6b	-0.0010618096
92	0x3d13bf59	0.036071155
93	0xbc10a0d9	-0.008827412
94	0xba5f5b8e	-0.00085204176
95	0xbb41dd4a	-0.0029581361
96	0x3ca8d11a	0.02060752
97	0xbcba0ee9	-0.022712188
98	0xbc8caa94	-0.017171182
99	0x3b7d214f	0.003862459
100	0xbc56a713	-0.013101357
101	0x3c3b2c3b	0.01142412
102	0x3be3ba52	0.0069497013
103	0x3adffaa7	0.001708825
104	0x3bbd3ebc	0.005775301
105	0xbc427a36	-0.011869958
106	0x3c35890b	0.011080037
107	0xbc520c28	-0.012820281
108	0x3cfd70c7	0.030937565
109	0x3ca1d667	0.019755555
110	0x3b0dc603	0.0021632917
111	0x3caf772a	0.021419127
112	0xbbfff0b3	-0.007810676
113	0x3a975ac5	0.0011547437
114	0xbca69167	-0.020333005
115	0x3c17094d	0.009218526
116	0xbc6b6256	-0.014366707
117	0x3c00913e	0.007847128
118	0xbcd66080	-0.026169062
119	0x3d0212aa	0.03175608
120	0x3c618a7b	0.0137659265
121	0x3bb520b2	0.005527579
122	0xbcdb9438	-0.026804075
123	0xbd03874e	-0.03211146
124	0xbcb118d4	-0.021618284
125	0x3cf018e9	0.029308753
126	0xb9a5225f	-0.0003149686
127	0xbc93b871	-0.018032284
128	0x3b906dfe	0.0044076433
129	0xbcb2fe88	-0.021849886
130	0xbc085a3f	-0.008322298
131	0xbc6a6ea5	-0.014308606
132	0x3c93836f	0.018007008
133	0xbc0f5021	-0.008747132
134	0xbbc7b016	-0.006093989
135	0x3d4013c2	0.046893843
136	0x3ce168fc	0.02751588
137	0x3d022d22	0.031781323
138	0x3bf59708	0.007494811
139	0x3c890765	0.016727159
140	0x3c834947	0.016026152
141	0x3d03c1e8	0.032167345
142	0x3ca2d5d7	0.019877357
143	0x3d1462a0	0.03622687
144	0xbcaa5d43	-0.020796424
145	0x3cac26b8	0.021014556
146	0xbcb71e66	-0.022353362
147	0x3afc4fc4	0.0019249846
148	0x3c091424	0.008366618
149	0xbca555ee	-0.020182576
150	0x3cfefb69	0.031125741
151	0xba88aa57	-0.0010426742
152	0xbc354e8f	-0.011066093
153	0xbb879bcc	-0.0041384455
154	0x3b03e7c0	0.0020127147
155	0x3a136878	0.0005623172
156	0x3cb72ffe	0.022361752
157	0x3c446cca	0.011988828
158	0x3ccd929b	0.025094321
159	0xbba796b4	-0.0051144008
160	0xbc5e4c89	-0.013568052
161	0x3bd279ed	0.006423226
162	0x3d1d5643	0.038412344
163	0x3d0d16da	0.03444562
164	0x3ce9b698	0.02852945
165	0x3c318a85	0.010836248
166	0xbb465282	-0.003026158
167	0xbcd329c0	-0.025776744
168	0xbce1e3d0	-0.02757445
169	0xbceb96bb	-0.028758397
170	0xbce995dd	-0.028513843
171	0xbcd77e8a	-0.026305456
172	0xbcacd37b	-0.021096935
173	0x3caed89f	0.021343527
174	0x3cb0c630	0.021578878
175	0x3bcc20b7	0.006229486
176	0x3c433e6b	0.011916737
177	0x3cc00b98	0.023443028
178	0xbcc13d78	-0.02358888
179	0xbcf30990	-0.029667646
180	0x3cb01fc2	0.021499518
181	0xbcdd3982	-0.02700496
182	0xbc775aaf	-0.015097304
183	0xbaf4f7c2	-0.001868956
184	0xbcac74cb	-0.021051785
185	0x3cbb663b	0.022875896
186	0x3cd688a8	0.02618821
187	0xbc34bcf2	-0.011031376
188	0x3ca6e624	0.020373411
189	0xbca6d609	-0.020365732
190	0xbcd3c99f	-0.025852976
191	0x3c18b6ca	0.009320924
192	0x3ca42e22	0.02004153
193	0xbc34ccfd	-0.011035201
194	0xbc3eb276	-0.011639228
195	0xbcb73f81	-0.022369148
196	0x3cb9de1a	0.022688914
197	0x3bb0d357	0.0053962874
198	0x3c49bae6	0.0123126265
199	0xbbe96692	-0.007122823
200	0x3c69cdda	0.01427027
201	0x3cc76005	0.024337778
202	0x3d104407	0.035221126
203	0x3ca2c6f8	0.019870266
204	0xbb3a0d50	-0.0028389283
205	0xbab37b7b	-0.0013693416
206	0xbc1a6c02	-0.009425165
207	0xbc241cab	-0.010016601
208	0x3c619d41	0.013770402
209	0xbb9fde27	-0.0048787775
210	0x3c8c6e2d	0.01714238
211	0xb9b7cbda	-0.0003505636
212	0x3ce9025b	0.028443506
213	0xbcd7b812	-0.026332889
214	0x3d002d4a	0.03129319
215	0x3c4a2605	0.012338166
216	0x3cd75d43	0.026289588
217	0x3c31809f	0.010833888
218	0x3c2743f2	0.0102090705
219	0xbcf8d35c	-0.030374222
220	0xbcb48428	-0.022035673
221	0x3d1358fb	0.03597353
222	0xbd120c69	-0.035656366
223	0xbd02f81d	-0.0319749
224	0xbd1f2448	-0.03885296
225	0x3cdfcedb	0.027320316
226	0x3cdae359	0.026719736
227	0xbc2b38ef	-0.010450586
228	0x3c92b679	0.017909275
229	0x3cef482f	0.029209225
230	0x3c73ae95	0.014873167
231	0x3ab1b90b	0.0013559175
232	0x3cd15f12	0.025558028
233	0xbcd10099	-0.02551298
234	0x3bdb7ac8	0.0066979863
235	0xbcd627f8	-0.026142105
236	0x3b8a2a5a	0.0042164745
237	0x3acca505	0.0015613144
238	0x3d1afe5b	0.03784023
239	0x3cfa8e53	0.030585444
240	0x3d1c30b2	0.038132377
241	0x3a21a670	0.0006166464
242	0x3cc4a0b6	0.024002414
243	0xbccc6de6	-0.024954747
244	0x3d23e2e1	0.04001129
245	0x3d063f0f	0.03277498
246	0x3d0d8b25	0.034556527
247	0xba908c01	-0.0011028053
248	0xbc5d3c7a	-0.013503188
249	0xbcc6c108	-0.024261966
250	0x3c9f510a	0.019447822
251	0xbca36eac	-0.019950233
252	0x3bb119a8	0.00540467
253	0xbc3b7095	-0.011440416
254	0x3c8113c0	0.015756488
255	0xbd00acc3	-0.03141476

bias f4 [64]
0	0xbd0d4691	-0.034491125
1	0x3d1f219e	0.03885042
2	0x3be1a4b5	0.0068860897
3	0x3ccff4ab	0.025385221
4	0x3b779e8e	0.0037783715
5	0xbc70f6b3	-0.014707255
6	0x3cad9df8	0.02119349
7	0xbbe2f7d4	-0.006926516
8	0xbc8f4f07	-0.017493738
9	0xbc04cd12	-0.008105533
10	0x3bda2375	0.006657059
11	0x3c2318ce	0.009954644
12	0xbd8cd44f	-0.06876432
13	0x3b82d001	0.003992081
14	0x3c880edb	0.016608646
15	0xba3effba	-0.0007286031
16	0x3c1b4866	0.00947771
17	0xbd1441b5	-0.036195476
18	0xbd2b87a9	-0.041877422
19	0xbc96fb0e	-0.01843026
20	0xba7679a8	-0.00094022835
21	0xbc6abac1	-0.014326752
22	0xbd12faf2	-0.03588385
23	0xbc482c19	-0.012217545
24	0x3b7f8335	0.0038988118
25	0xbcc84743	-0.024448043
26	0xbc26906d	-0.01016627
27	0xbc8535b5	-0.016260961
28	0x3c5cf5f9	0.013486379
29	0xbc5da3df	-0.013527839
30	0x3b6e36d3	0.0036348596
31	0xba8c4602	-0.0010702016
32	0x3b8934a9	0.004187186
33	0xbbda6fe6	-0.0066661714
34	0xbd0b0056	-0.033935867
35	0xbd79e209	-0.06100658
36	0x3c862fe1	0.016380252
37	0x3d17efa1	0.037093762
38	0xbcc81f8d	-0.024429107
39	0xbc94c9f2	-0.018162701
40	0x3cf4a927	0.029865814
41	0x3c6fbafd	0.014631984
42	0xbd27e261	-0.040987376
43	0x3baf0a19	0.00534178
44	0xbbc9d851	-0.00615982
45	0xbcd26082	-0.025680784
46	0xbd8b83dd	-0.0681226
47	0xbb667642	-0.0035165702
48	0x3add3802	0.0016877654
49	0x3c940da8	0.018072918
50	0xbd23190c	-0.03981881
51	0x3c54ea1e	0.012995271
52	0xbb16974b	-0.0022978361
53	0xbcbcbcf1	-0.023039313
54	0xbcd07f5f	-0.02545136
55	0xbc14b208	-0.009075649
56	0xbc0c715e	-0.008571951
57	0x3d1dd2f1	0.038531248
58	0xbb6680b3	-0.0035171926
59	0x3cdff215	0.027337113
60	0xbc9e07da	-0.019290853
61	0xbc9ddc40	-0.019270062
62	0x3cd6a507	0.026201738
63	0x3c47f1c1	0.012203635

weight f4 [64, 1024]
0	0xbcc49544	-0.023996957
1	0xbbbdc1b0	-0.0057909116
2	0x3cd0fe95	0.02551202
3	0xbc299166	-0.010349607
4	0xbc6a463c	-0.014298972
5	0xbc22a04f	-0.009925916
6	0xbc067051	-0.008205489
7	0x3cdde96a	0.02708884
8	0x3c226480	0.009911656
9	0xbc970dfd	-0.018439287
10	0x3c5b332f	0.013378902
11	0x3cadfc48	0.021238461
12	0x3c169c82	0.009192588
13	0x3c8fa043	0.017532473
14	0x3b30941b	0.0026943746
15	0xbd1fc515	-0.03900631
16	0x3c038a54	0.008028585
17	0xbc5d45d5	-0.013505419
18	0xbcb6074e	-0.02222028
19	0xbcb7102b	-0.022346577
20	0xbba6be73	-0.0050886213
21	0x3a82cd1c	0.000997934
22	0xbcafb6ab	-0.021449408
23	0xbc1f5c38	-0.0097265765
24	0x3b9c784a	0.0047750818
25	0x3c502469	0.012703993
26	0x3c44e15b	0.01201662
27	0xbc3efdbb	-0.011657174
28	0xbc8c2889	-0.017109172
29	0x3d1c3028	0.038131863
30	0x3c4be0fa	0.012443775
31	0xbd05fa76	-0.03270956
32	0x3c6f668c	0.014611851
33	0x3cb0e4f1	0.021593543
34	0xbbae8aef	-0.005326621
35	0xbcc786ea	-0.024356324
36	0xbca1ff2c	-0.019774996
37	0xbcb1ada8	-0.021689251
38	0xbc944b0a	-0.018102188
39	0xbcc2e120	-0.023788989
40	0xbc54816d	-0.012970311
41	0x3c2a3dad	0.010390681
42	0xbc17b825	-0.009260212
43	0xbcb83132	-0.022484396
44	0xbc689440	-0.014195502
45	0xbb434199	-0.0029793738
46	0xbc0dd011	-0.008655564
47	0x3b0807e7	0.0020756663
48	0x3ca36e31	0.019950004
49	0x3c515b93	0.012778181
50	0xbcc2e519	-0.023790883
51	0xba3427ef	-0.00068724056
52	0xbc162e62	-0.009166332
53	0x3ce4b69e	0.02791911
54	0xbc10385f	-0.008802502
55	0x3ca8e1a0	0.020615399
56	0xbb0ce75c	-0.0021500206
57	0x3c696866	0.014246082
58	0xbc0e41b5	-0.008682658
59	0xbcc93278	-0.024560198
60	0xbc98c6cb	-0.01864948
61	0x3c693cbd	0.014235673
62	0x3b5db242	0.0033828174
63	0xbc18095a	-0.009279573
64	0x3ca59f3e	0.020217534
65	0x3cdde445	0.027086386
66	0xbc90f03b	-0.017692676
67	0xbc630fbd	-0.013858733
68	0xbcd2e7e2	-0.025745336
69	0xbc764252	-0.01503046
70	0x3c19bd72	0.009383546
71	0xbbad73a2	-0.0052933255
72	0xbd05dc8f	-0.032681044
73	0xbcba0951	-0.02270952
74	0xbca98304	-0.020692356
75	0x3bd631ac	0.006536683
76	0xbc621be1	-0.013800592
77	0x3a51b3dd	0.0007999519
78	0x3c956fbe	0.01824176
79	0xbb4c8340	-0.003120616
80	0xbbdd7c37	-0.0067591923
81	0x3ba2833d	0.0049594925
82	0xbc1985ec	-0.009370308
83	0xbd0a49a2	-0.033761628
84	0x3d0def92	0.0346523
85	0xbcfdb4f5	-0.030970076
86	0xbbdeff6d	-0.0068053515
87	0xb8ffa7cc	-0.00012190602
88	0x3bc7d7df	0.006098732
89	0xbcf40b0f	-0.02979043
90	0xbd19eac8	-0.03757742
91	0x3d0597df	0.03261554
92	0x3af50a81	0.0018695147
93	0xbc47134b	-0.012150596
94	0xbaf2db21	-0.001852844
95	0xbca3fa28	-0.020016745
96	0xbbdee0fa	-0.0068017216
97	0x3c91cc62	0.017797653
98	0x3b1424dc	0.0022604978
99	0xbc7929aa	-0.015207687
100	0xbc4d1522	-0.0125172455
101	0x3d044e9f	0.03230154
102	0x3c86bf9e	0.016448792
103	0x3bc20cfd	0.0059219585
104	0xbc6c3267	-0.014416314
105	0x3cd10d2f	0.025518982
106	0xba91cab7	-0.0011123036
107	0xbc70f2a9	-0.014706292
108	0x3c9afa3c	0.01891815
109	0xbd155e05	-0.036466617
110	0xbcd2b714	-0.025722064
111	0x3d11fa6b	0.035639208
112	0xbc852343	-0.016252166
113	0x3c28799f	0.010282903
114	0x3cb98e08	0.022650734
115	0x3cb91e2e	0.022597399
116	0x3cbef003	0.023307806
117	0x3cd043a6	0.025422882
118	0xbc2ec5d1	-0.01066728
119	0x3c9f9f1f	0.019485055
120	0x3c96f7ff	0.0184288
121	0x3d085f54	0.033294037
122	0x3c2e7d9f	0.010650068
123	0xbc6bfe36	-0.01440387
124	0xbc421a8a	-0.011847148
125	0xba6e7a8f	-0.0009097242
126	0x3cc20830	0.023685545
127	0xbcdf8395	-0.027284423
128	0xbc103662	-0.008802028
129	0xbbe47fed	-0.0069732578
130	0x3c7874e0	0.015164584
131	0x3cba66e8	0.022754148
132	0x3b9ef23b	0.0048506535
133	0x3c69f1a5	0.014278804
134	0x3c41bb2d	0.011824411
135	0xbb83dd71	-0.0040242006
136	0xbbf89cd1	-0.0075870533
137	0xbcd1969b	-0.02558451
138	0xbcd8c684	-0.026461847
139	0xbb0d6e32	-0.0021580574
140	0x3cac2210	0.021012336
141	0x3c6defe3	0.0145225255
142	0xbc511c38	-0.0127630755
143	0xbcacdbd7	-0.021100922
144	0xbc8804a9	-0.016603785
145	0xbcae4de1	-0.02127737
146	0xbb00b977	-0.0019641796
147	0xbc42d650	-0.011891916
148	0x3bf892cd	0.0075858594
149	0x3aec6dcc	0.0018038093
150	0xbccc071c	-0.024905734
151	0x3cf11519	0.029429005
152	0x3c5c3837	0.013441137
153	0xbc729519	-0.014806055
154	0x3cd34add	0.025792534
155	0xbcc13ed4	-0.02358953
156	0x3c92aba0	0.017904103
157	0xbd284c2e	-0.041088276
158	0x3c09ff68	0.00842271
159	0xbd0f4ae2	-0.034983523
160	0xbcf59b46	-0.029981267
161	0xbbfc8211	-0.007705935
162	0xbc779f23	-0.015113625
163	0xbafc92c9	-0.001926982
164	0x3bc6ff88	0.006072942
165	0xbc9a908b	-0.018867752
166	0xbcacd649	-0.021098273
167	0xbc028bbb	-0.007967885
168	0x3bf396e7	0.0074337604
169	0xbb86ad1c	-0.0041099917
170	0xbb8dd393	-0.0043282
171	0xbc004451	-0.007828788
172	0x3d07f175	0.033189256
173	0x3ce388ec	0.02777525
174	0x3cae07cb	0.02124395
175	0xbcdad1cb	-0.026711365
176	0xbcd12bd4	-0.025533594
177	0xbc91d7d5	-0.017803112
178	0xbcc8d890	-0.024517328
179	0x3c1ce4c1	0.009576024
180	0xbc99bdac	-0.0187672
181	0x3cfa7177	0.030571682
182	0x3c36a7d5	0.011148413
183	0xbd2360a0	-0.03988707
184	0x3919e520	0.00014676573
185	0x3c5c35ff	0.013440608
186	0x3bc5a1c5	0.0060312473
187	0x3d09ec63	0.0336727
188	0xbbd0cbba	-0.0063719423
189	0xbbcda422	-0.0062756697
190	0x3cd57ee1	0.026061477
191	0x3b26944d	0.0025417984
192	0xba99b799	-0.001172769
193	0xbc12f6e9	-0.008970001
194	0x3cb7ffde	0.022460874
195	0x3c3de402	0.011590006
196	0xbcbcc9b7	-0.023045404
197	0x3c6d42cf	0.01448126
198	0x3be9dca6	0.007136899
199	0x3c17c166	0.009262418
200	0xbcd12eb6	-0.025534969
201	0x39f351d8	0.0004640955
202	0xbbee6db5	-0.0072762617
203	0x3c9fa0f1	0.019485923
204	0x3ca5ce91	0.0202401
205	0xbc41cf59	-0.011829221
206	0x3ca088e7	0.01959653
207	0xbcac745f	-0.021051584
208	0xbcce00b5	-0.025146822
209	0xbc83a67d	-0.016070599
210	0xbca1f77a	-0.019771326
211	0xbcf3967a	-0.029734839
212	0x3bca417f	0.0061723585
213	0xbcd31a75	-0.025769452
214	0xbc9c3738	-0.0190693
215	0xbd13f3bd	-0.03612112
216	0xbb21afe7	-0.0024671496
217	0xbc23b4be	-0.009991823
218	0x3cebf9b7	0.028805597
219	0x3c917079	0.017753826
220	0x3c76a87b	0.015054817
221	0x3ad28e87	0.0016064205
222	0xbbd01461	-0.0063500856
223	0x3a30df93	0.00067471823
224	0x3cd525af	0.026018946
225	0xbcc77d75	-0.024351815
226	0x3cfdb515	0.030970136
227	0xbc2a13e8	-0.010380723
228	0x3ad349aa	0.0016119976
229	0x3c6b9696	0.014379164
230	0xbb475a65	-0.003041887
231	0x3c7ac5f6	0.015305987
232	0xbc99bad6	-0.018765848
233	0x3bef4cab	0.0073028407
234	0x3c53e74b	0.0129335625
235	0x3c077c51	0.008269385
236	0x3c7e724a	0.015530178
237	0xbb79c485	-0.003811152
238	0x3cdb5910	0.026775867
239	0x3c67908c	0.014133584
240	0x3c337762	0.010953756
241	0xbbca2138	-0.0061685108
242	0x3c81588f	0.015789298
243	0x3cd06d9d	0.025442893
244	0x3c2b3ba3	0.01045123
245	0xbcc22578	-0.023699507
246	0xbcd2b75d	-0.0257222
247	0xbca283a3	-0.01983816
248	0x3bfd33ab	0.0077271066
249	0xbca06e27	-0.019583775
250	0xbccb4400	-0.024812698
251	0x3ca532d1	0.020165833
252	0xbc9ade99	-0.018904971
253	0x3d25829b	0.04040776
254	0x3c5722cd	0.013130856
255	0xbc2de82a	-0.010614434

bias f4 [64]
0	0x3c9e87cb	0.01935186
1	0xbc5ecd65	-0.013598775
2	0x3d1863f0	0.037204683
3	0xbcf1db1a	-0.029523421
4	0xbc7bf009	-0.015377053
5	0x3c9de807	0.019275678
6	0x3c588e95	0.013217588
7	0xbc78ccdb	-0.01518556
8	0xbc006b9e	-0.007838158
9	0xbc651258	-0.013981424
10	0x3cb9b477	0.02266906
11	0x3b4ba58a	0.003107401
12	0x3d3690e8	0.044571787
13	0x3c8a8b2e	0.01691207
14	0xbb528207	-0.003212096
15	0xbd2d229a	-0.042269327
16	0xbc66406e	-0.014053447
17	0xbbdfc1fb	-0.006828544
18	0xbd1394f1	-0.036030713
19	0x3d09e870	0.033668935
20	0x3ab22707	0.0013591953
21	0xbd115a92	-0.035486765
22	0xb9bc3554	-0.00035897887
23	0xbc868c40	-0.016424298
24	0xbc839e6f	-0.016066758
25	0x3cb9196f	0.022595135
26	0x3c56c601	0.013108731
27	0x3d4114ef	0.047139104
28	0xbca034ca	-0.019556422
29	0xbbf5ea4f	-0.0075047384
30	0x3a874161	0.0010319167
31	0xbd2000e2	-0.039063342
32	0xbd1bda8c	-0.03805022
33	0x3c39c0cf	0.011337473
34	0xbc908505	-0.017641554
35	0x3ca19414	0.01972393
36	0x3d66a079	0.056305382
37	0xbcf515d9	-0.029917644
38	0x3baf51e0	0.0053503364
39	0x3c9ca37e	0.019120928
40	0x3c6af6a0	0.014341027
41	0x3c146b46	0.009058779
42	0xbcce9c16	-0.025220912
43	0xbc46b44b	-0.012127946
44	0x3cd002bd	0.02539193
45	0xbc713f56	-0.014724573
46	0xbcb32c74	-0.021871783
47	0xbcc935d8	-0.024561808
48	0xb9ab4b8a	-0.00032671943
49	0xbc8fd16a	-0.017555911
50	0x3c27bef7	0.010238401
51	0xbd0b0a47	-0.033945348
52	0x3ce217a2	0.02759916
53	0x3b0187a5	0.0019764688
54	0xbcdbf505	-0.026850233
55	0xbcf8edea	-0.030386884
56	0xbcd66780	-0.0261724
57	0xbc2386d3	-0.009980875
58	0x3cdbf30e	0.026849296
59	0x3d194bf2	0.037425943
60	0xbc3ba2f0	-0.011452422
61	0x3c749d7a	0.014930123
62	0x3cec9df3	0.02888391
63	0xbd2c799d	-0.042108167

weight f4 [10, 64]
0	0xbd39068e	-0.045172267
1	0xbdc789d9	-0.09743089
2	0x3c3d1c51	0.011542396
3	0x3df974a1	0.12180448
4	0x3c90f003	0.017692572
5	0x3e0252d6	0.12726912
6	0x3df5112c	0.11966166
7	0x3a954940	0.0011389628
8	0x3d927607	0.07151418
9	0x3de7b0de	0.113130316
10	0x3e13b1c7	0.14423285
11	0xbe3e43bd	-0.18580528
12	0xbe15c49f	-0.14625786
13	0xbe03b533	-0.12862091
14	0x3dc0382a	0.093857124
15	0x3d8f915b	0.07010146
16	0xbdacfdf1	-0.08446873
17	0x3e1e4f30	0.15459895
18	0x3ca30d5b	0.01990383
19	0xbe2752a4	-0.16340119
20	0x3e34b03b	0.17645352
21	0xbc3af7d7	-0.011411629
22	0xbdf7092c	-0.12062296
23	0xbe0829e4	-0.1329723
24	0xbd8f2b7b	-0.06990715
25	0xbdb10a59	-0.08644552
26	0xbdb86c62	-0.090050474
27	0xbe155e96	-0.14586863
28	0xbdead7af	-0.1146692
29	0xbd15233a	-0.036410548
30	0x3d7236b3	0.059134196
31	0xbdd03e40	-0.10168123
32	0x3df19d06	0.11797528
33	0x3d916337	0.07099002
34	0x3da7ddd9	0.08196611
35	0xbddec5bd	-0.10877559
36	0xbdd09c31	-0.10186041
37	0x3e29e26a	0.16590276
38	0xbd4977e4	-0.049186602
39	0x3e34503c	0.17608732
40	0x3cd41fbc	0.025894038
41	0xbd3a40b1	-0.04547185
42	0xbdc5e6db	-0.09663173
43	0x3e1d7028	0.15374815
44	0xbe110a11	-0.14163996
45	0x3dd5f8df	0.10447859
46	0x3d069d8a	0.032865085
47	0xbb475256	-0.0030414066
48	0x3d7a3990	0.061090052
49	0xbcd8f2b7	-0.026482923
50	0xbdf1f88f	-0.11814987
51	0x3e17cb0d	0.14823551
52	0x3cfc27f1	0.030780764
53	0xbe01d686	-0.1267949
54	0x3cf34a69	0.029698567
55	0x3da9e6fd	0.08296011
56	0xbd0b72f0	-0.03404516
57	0x3d6de196	0.058076464
58	0xbdc6e007	-0.097106986
59	0xbdcfe521	-0.10151125
60	0x3dabd27c	0.08389756
61	0x3de1ce12	0.11025633
62	0xbc2c2136	-0.010505965
63	0x3c6f72a0	0.014614731
64	0xbe58c713	-0.21169691
65	0xbd977203	-0.07394793
66	0x3d2524e4	0.040318385
67	0x3cf4bcae	0.029875126
68	0xbe41a817	-0.18911777
69	0x3d69fcaf	0.057125743
70	0x3e0920dc	0.13391441
71	0x3e16ead1	0.14738013
72	0x3d464369	0.04840413
73	0xbdbe72c6	-0.09299235
74	0xbdb4b092	-0.088227406
75	0xbc880641	-0.016604545
76	0xbe0726c2	-0.13198379
77	0xbdb26db7	-0.08712333
78	0x3dfe42fe	0.124151215
79	0x3e4664fe	0.19374463
80	0xbdb2ada3	-0.08724525
81	0x3e192eb9	0.1495923
82	0x3b6f5efe	0.0036525126
83	0x3e71a1ac	0.23596829
84	0x3d9f8ef2	0.077909365
85	0x3de5f4d0	0.11228335
86	0x3dbb1594	0.09134975
87	0xbdd8c277	-0.10583966
88	0x3e1970dd	0.1498446
89	0xbce158a3	-0.027508086
90	0xbe5aa2d1	-0.21351172
91	0xbe9511fb	-0.2911528
92	0xbcc5bc7a	-0.024137724
93	0x3e4e4587	0.2014371
94	0xbde134b4	-0.109963804
95	0x3da77de4	0.081783086
96	0xbdfc546b	-0.12320789
97	0x3dae9d9f	0.085261576
98	0xbdabf631	-0.08396567
99	0x3e5c5e04	0.21520239
100	0x3e638f0e	0.2222254
101	0x3c9f5e80	0.01945424
102	0x3dd3f53c	0.10349509
103	0xbc553385	-0.0130127715
104	0xbe26c039	-0.16284265
105	0xbbb718a5	-0.0055876547
106	0xbe18acec	-0.14909714
107	0x3d0775f7	0.033071484
108	0x3dcce07a	0.10003753
109	0x3d33651f	0.04379761
110	0xbc7dca70	-0.015490159
111	0xbd80b422	-0.062843576
112	0x3e73729a	0.23774186
113	0xbdc65855	-0.09684817
114	0xbe07ea7e	-0.13273045
115	0x3d9e819e	0.07739566
116	0xbc950167	-0.018189145
117	0xbc751f46	-0.014961069
118	0x3df10c24	0.11769894
119	0x3e30dbc3	0.17271332
120	0xbdc10f5b	-0.09426757
121	0x3debc567	0.11512261
122	0x3e31484e	0.17312738
123	0xbd20ef45	-0.039290685
124	0x3c14290f	0.009042992
125	0x3d0e9274	0.034807637
126	0x3d5de54b	0.05417375
127	0xbdbae6bc	-0.0912604
128	0x3dbb500d	0.09146128
129	0x3e10855c	0.14113373
130	0xbe286347	-0.16444121
131	0xbd87b324	-0.06625965
132	0xbdfa81fb	-0.12231823
133	0xbd81fec1	-0.063474186
134	0xbdc9c472	-0.09851922
135	0x3d59003f	0.05297875
136	0x3e164890	0.14676118
137	0x3dc1b2ec	0.09457955
138	0x3e2b4757	0.16726433
139	0x3d1cd9fc	0.038293824
140	0xbe0536cb	-0.13009183
141	0xbdef7ebf	-0.11694097
142	0xbd865b67	-0.06560402
143	0xbc931014	-0.017952003
144	0xbe0a0557	-0.134786
145	0xbe0d7a4d	-0.13816185
146	0xbddb3c95	-0.107049145
147	0xbdb2b038	-0.08725017
148	0xbbe2deae	-0.006923518
149	0x3db0f335	0.08640138
150	0xbdbdc661	-0.092663534
151	0x3dd99b80	0.106253624
152	0x3df65155	0.120272316
153	0xbb1a33be	-0.0023529376
154	0xbc5970f8	-0.013271563
155	0xbb66a4de	-0.0035193483
156	0xbcfbe4b4	-0.030748703
157	0x3b7f1bd7	0.0038926506
158	0x3e363144	0.17792231
159	0xbd3ba60b	-0.045812648
160	0x3df78193	0.12085261
161	0xbd0172ce	-0.031603627
162	0x3dfea034	0.124329
163	0xbda81b9b	-0.0820839
164	0x3d524a83	0.05134059
165	0xbca8a521	-0.020586552
166	0xbe13f0cc	-0.14447325
167	0x3d8327c5	0.0640407
168	0xbc2f17b5	-0.010686805
169	0xbd8e47d3	-0.06947293
170	0x3db9cea2	0.09072615
171	0xbe48f039	-0.19622888
172	0x3cafb807	0.021450056
173	0x3cd53864	0.026027866
174	0xbdb8b592	-0.09019007
175	0xbdab9e12	-0.08379759
176	0xbbcd5770	-0.006266527
177	0xbdd72269	-0.1050461
178	0xba13f652	-0.00056443096
179	0x3dda5a73	0.10661783
180	0x3ca5710b	0.020195505
181	0x3d67c8c6	0.056587957
182	0xbd597d71	-0.053098146
183	0xbe6030ec	-0.21893662
184	0x3c0c4a9c	0.00856271
185	0xbce729cd	-0.028218174
186	0xbbbb3f6a	-0.0057143467
187	0x3dacbd4d	0.08434544
188	0x3d84ed36	0.06490557
189	0x3e271417	0.16316257
190	0xbc23b620	-0.009992152
191	0xbdadf473	-0.084938906
192	0xbe0d4cdb	-0.1379885
193	0x3d171e13	0.036893915
194	0xbd146b56	-0.036235176
195	0xbe1a5f91	-0.15075518
196	0xbe0272c0	-0.12739086
197	0xbdf0db52	-0.11760582
198	0xbdc3ba4d	-0.095570184
199	0xbc909f95	-0.01765422
200	0xbd13c9b6	-0.03608104
201	0xbd2939e2	-0.041314967
202	0x3db36a37	0.08760493
203	0xbcb18538	-0.021669969
204	0xbdb7ba08	-0.089710295
205	0x3de4c980	0.111712456
206	0x3ae87717	0.0017735687
207	0x3d7207a1	0.059089307
208	0x3da7f785	0.082015075
209	0xbda703b2	-0.08155002
210	0x3d8e46d7	0.069471054
211	0xbdbb315f	-0.09140276
212	0xbe240077	-0.16015802
213	0xbdcaed27	-0.099085145
214	0x3dcf8561	0.10132862
215	0x3dd609b5	0.1045107
216	0xbe03e905	-0.12881859
217	0x3e1aed24	0.15129524
218	0x3c873eef	0.016509501
219	0x3dd923b1	0.10602511
220	0x3c742a0a	0.014902601
221	0x3cc81220	0.024422705
222	0xbd3e438d	-0.04645114
223	0xbd24eb1f	-0.04026329
224	0xbe4196a7	-0.18905126
225	0xbde61bb3	-0.11235752
226	0x3da4a193	0.0803863
227	0xbd976342	-0.07391979
228	0x3da56e48	0.08077675
229	0x3c9553d9	0.018228458
230	0x3ac65228	0.0015130686
231	0xbe1d1962	-0.15341714
232	0xbd40fff4	-0.047119096
233	0xbdc0294d	-0.093828775
234	0x3df96c62	0.121788755
235	0xbdab82fd	-0.083745934
236	0xbe102e75	-0.14080222
237	0x3d536189	0.05160669
238	0x3d86516e	0.065585
239	0x3e02c1cf	0.12769245
240	0x3d38ebb2	0.04514665
241	0x3bf36a0a	0.0074284123
242	0x3d15ec40	0.03660226
243	0x3c860dd7	0.016364021
244	0x3d43f894	0.047844484
245	0x3db692e6	0.089147374
246	0x3d1139c0	0.035455465
247	0xbe1acdf5	-0.15117629
248	0x3bab823f	0.0052340324
249	0x3c14bc3b	0.009078081
250	0xbd5ca515	-0.053868372
251	0x3de6676f	0.11250197
252	0x3d0aeabe	0.033915274
253	0x3d92e63d	0.07172821
254	0xbd9cd76b	-0.07658275
255	0x3d86db3b	0.06584784

bias f4 [10]
0	0xbddf35ed	-0.108989574
1	0xbd187240	-0.037218332
2	0x3dccd10d	0.10000811
3	0x3da836d9	0.08213586
4	0x3cf0bb3f	0.02938616
5	0xbcaf92f2	-0.021432374
6	0x3e2a28fb	0.16617195
7	0xbd9edabf	-0.07756566
8	0xbdea1c21	-0.114311464
9	0xbd037e1d	-0.032102693
